<?xml version="1.0" ?>
<net name="torch-jit-export" version="11">
	<layers>
		<layer id="0" name="img" type="Parameter" version="opset1">
			<data shape="1,3,128,128" element_type="f32"/>
			<rt_info>
				<attribute name="fused_names" version="0" value="Cast_0, img"/>
				<attribute name="old_api_map_element_type" version="0" value="f16"/>
			</rt_info>
			<output>
				<port id="0" precision="FP32" names="27,img">
					<dim>1</dim>
					<dim>3</dim>
					<dim>128</dim>
					<dim>128</dim>
				</port>
			</output>
		</layer>
		<layer id="1" name="pos_z_compressed" type="Const" version="opset1">
			<data element_type="f16" shape="64, 1, 128" offset="0" size="16384"/>
			<output>
				<port id="0" precision="FP16">
					<dim>64</dim>
					<dim>1</dim>
					<dim>128</dim>
				</port>
			</output>
		</layer>
		<layer id="2" name="pos_z" type="Convert" version="opset1">
			<data destination_type="f32"/>
			<rt_info>
				<attribute name="decompression" version="0"/>
			</rt_info>
			<input>
				<port id="0" precision="FP16">
					<dim>64</dim>
					<dim>1</dim>
					<dim>128</dim>
				</port>
			</input>
			<output>
				<port id="1" precision="FP32" names="pos_z">
					<dim>64</dim>
					<dim>1</dim>
					<dim>128</dim>
				</port>
			</output>
		</layer>
		<layer id="4" name="Constant_33" type="Const" version="opset1">
			<data element_type="i64" shape="1" offset="16384" size="8"/>
			<rt_info>
				<attribute name="fused_names" version="0" value="Constant_33"/>
			</rt_info>
			<output>
				<port id="0" precision="I64">
					<dim>1</dim>
				</port>
			</output>
		</layer>
		<layer id="5" name="ReduceMean_1" type="ReduceMean" version="opset1">
			<data keep_dims="false"/>
			<rt_info>
				<attribute name="fused_names" version="0" value="ReduceMean_1"/>
			</rt_info>
			<input>
				<port id="0" precision="FP32">
					<dim>1</dim>
					<dim>3</dim>
					<dim>128</dim>
					<dim>128</dim>
				</port>
				<port id="1" precision="I64">
					<dim>1</dim>
				</port>
			</input>
			<output>
				<port id="2" precision="FP32" names="28">
					<dim>1</dim>
					<dim>128</dim>
					<dim>128</dim>
				</port>
			</output>
		</layer>
		<layer id="6" name="Constant_3439_compressed" type="Const" version="opset1">
			<data element_type="f16" shape="1, 1, 1" offset="16392" size="2"/>
			<output>
				<port id="0" precision="FP16">
					<dim>1</dim>
					<dim>1</dim>
					<dim>1</dim>
				</port>
			</output>
		</layer>
		<layer id="7" name="Constant_3439" type="Convert" version="opset1">
			<data destination_type="f32"/>
			<rt_info>
				<attribute name="decompression" version="0"/>
			</rt_info>
			<input>
				<port id="0" precision="FP16">
					<dim>1</dim>
					<dim>1</dim>
					<dim>1</dim>
				</port>
			</input>
			<output>
				<port id="1" precision="FP32">
					<dim>1</dim>
					<dim>1</dim>
					<dim>1</dim>
				</port>
			</output>
		</layer>
		<layer id="8" name="Greater_3" type="Greater" version="opset1">
			<data auto_broadcast="numpy"/>
			<rt_info>
				<attribute name="fused_names" version="0" value="Greater_3"/>
			</rt_info>
			<input>
				<port id="0" precision="FP32">
					<dim>1</dim>
					<dim>128</dim>
					<dim>128</dim>
				</port>
				<port id="1" precision="FP32">
					<dim>1</dim>
					<dim>1</dim>
					<dim>1</dim>
				</port>
			</input>
			<output>
				<port id="2" precision="BOOL" names="30">
					<dim>1</dim>
					<dim>128</dim>
					<dim>128</dim>
				</port>
			</output>
		</layer>
		<layer id="9" name="Cast_4" type="Convert" version="opset1">
			<data destination_type="f32"/>
			<rt_info>
				<attribute name="fused_names" version="0" value="Cast_4"/>
			</rt_info>
			<input>
				<port id="0" precision="BOOL">
					<dim>1</dim>
					<dim>128</dim>
					<dim>128</dim>
				</port>
			</input>
			<output>
				<port id="1" precision="FP32" names="31">
					<dim>1</dim>
					<dim>128</dim>
					<dim>128</dim>
				</port>
			</output>
		</layer>
		<layer id="10" name="Constant_3440_compressed" type="Const" version="opset1">
			<data element_type="f16" shape="1, 1, 1" offset="16394" size="2"/>
			<output>
				<port id="0" precision="FP16">
					<dim>1</dim>
					<dim>1</dim>
					<dim>1</dim>
				</port>
			</output>
		</layer>
		<layer id="11" name="Constant_3440" type="Convert" version="opset1">
			<data destination_type="f32"/>
			<rt_info>
				<attribute name="decompression" version="0"/>
			</rt_info>
			<input>
				<port id="0" precision="FP16">
					<dim>1</dim>
					<dim>1</dim>
					<dim>1</dim>
				</port>
			</input>
			<output>
				<port id="1" precision="FP32">
					<dim>1</dim>
					<dim>1</dim>
					<dim>1</dim>
				</port>
			</output>
		</layer>
		<layer id="12" name="Mul_6" type="Multiply" version="opset1">
			<data auto_broadcast="numpy"/>
			<rt_info>
				<attribute name="fused_names" version="0" value="Mul_6"/>
			</rt_info>
			<input>
				<port id="0" precision="FP32">
					<dim>1</dim>
					<dim>128</dim>
					<dim>128</dim>
				</port>
				<port id="1" precision="FP32">
					<dim>1</dim>
					<dim>1</dim>
					<dim>1</dim>
				</port>
			</input>
			<output>
				<port id="2" precision="FP32" names="33">
					<dim>1</dim>
					<dim>128</dim>
					<dim>128</dim>
				</port>
			</output>
		</layer>
		<layer id="13" name="Constant_40" type="Const" version="opset1">
			<data element_type="i64" shape="1" offset="16396" size="8"/>
			<rt_info>
				<attribute name="fused_names" version="0" value="Constant_40"/>
			</rt_info>
			<output>
				<port id="0" precision="I64">
					<dim>1</dim>
				</port>
			</output>
		</layer>
		<layer id="14" name="Unsqueeze_7" type="Unsqueeze" version="opset1">
			<rt_info>
				<attribute name="fused_names" version="0" value="Unsqueeze_7"/>
			</rt_info>
			<input>
				<port id="0" precision="FP32">
					<dim>1</dim>
					<dim>128</dim>
					<dim>128</dim>
				</port>
				<port id="1" precision="I64">
					<dim>1</dim>
				</port>
			</input>
			<output>
				<port id="2" precision="FP32" names="34">
					<dim>1</dim>
					<dim>1</dim>
					<dim>128</dim>
					<dim>128</dim>
				</port>
			</output>
		</layer>
		<layer id="15" name="MaxPool_8" type="MaxPool" version="opset8">
			<data strides="1, 1" dilations="1, 1" pads_begin="1, 1" pads_end="1, 1" kernel="3, 3" rounding_type="floor" auto_pad="explicit" index_element_type="i64" axis="0"/>
			<rt_info>
				<attribute name="fused_names" version="0" value="MaxPool_8"/>
			</rt_info>
			<input>
				<port id="0" precision="FP32">
					<dim>1</dim>
					<dim>1</dim>
					<dim>128</dim>
					<dim>128</dim>
				</port>
			</input>
			<output>
				<port id="1" precision="FP32" names="35">
					<dim>1</dim>
					<dim>1</dim>
					<dim>128</dim>
					<dim>128</dim>
				</port>
				<port id="2" precision="I64">
					<dim>1</dim>
					<dim>1</dim>
					<dim>128</dim>
					<dim>128</dim>
				</port>
			</output>
		</layer>
		<layer id="16" name="Clip_9" type="Clamp" version="opset1">
			<data min="0" max="1"/>
			<rt_info>
				<attribute name="fused_names" version="0" value="Clip_9, Maximum_43"/>
			</rt_info>
			<input>
				<port id="0" precision="FP32">
					<dim>1</dim>
					<dim>1</dim>
					<dim>128</dim>
					<dim>128</dim>
				</port>
			</input>
			<output>
				<port id="1" precision="FP32" names="40">
					<dim>1</dim>
					<dim>1</dim>
					<dim>128</dim>
					<dim>128</dim>
				</port>
			</output>
		</layer>
		<layer id="17" name="Shape_11" type="ShapeOf" version="opset3">
			<data output_type="i64"/>
			<rt_info>
				<attribute name="fused_names" version="0" value="Shape_11"/>
			</rt_info>
			<input>
				<port id="0" precision="FP32">
					<dim>1</dim>
					<dim>1</dim>
					<dim>128</dim>
					<dim>128</dim>
				</port>
			</input>
			<output>
				<port id="1" precision="I64" names="42">
					<dim>4</dim>
				</port>
			</output>
		</layer>
		<layer id="18" name="Constant_10" type="Const" version="opset1">
			<data element_type="i64" shape="1" offset="16396" size="8"/>
			<rt_info>
				<attribute name="fused_names" version="0" value="Constant_10"/>
			</rt_info>
			<output>
				<port id="0" precision="I64" names="41">
					<dim>1</dim>
				</port>
			</output>
		</layer>
		<layer id="19" name="Constant_47" type="Const" version="opset1">
			<data element_type="i64" shape="" offset="16396" size="8"/>
			<rt_info>
				<attribute name="fused_names" version="0" value="Constant_47"/>
			</rt_info>
			<output>
				<port id="0" precision="I64"/>
			</output>
		</layer>
		<layer id="20" name="Gather_12" type="Gather" version="opset8">
			<data batch_dims="0"/>
			<rt_info>
				<attribute name="fused_names" version="0" value="Constant_10, Constant_47, Gather_12"/>
			</rt_info>
			<input>
				<port id="0" precision="I64">
					<dim>4</dim>
				</port>
				<port id="1" precision="I64">
					<dim>1</dim>
				</port>
				<port id="2" precision="I64"/>
			</input>
			<output>
				<port id="3" precision="I64" names="43">
					<dim>1</dim>
				</port>
			</output>
		</layer>
		<layer id="21" name="Constant_13" type="Const" version="opset1">
			<data element_type="i64" shape="1" offset="16384" size="8"/>
			<rt_info>
				<attribute name="fused_names" version="0" value="Constant_13"/>
			</rt_info>
			<output>
				<port id="0" precision="I64" names="44">
					<dim>1</dim>
				</port>
			</output>
		</layer>
		<layer id="22" name="Equal_14" type="Equal" version="opset1">
			<data auto_broadcast="numpy"/>
			<rt_info>
				<attribute name="fused_names" version="0" value="Constant_13, Equal_14"/>
			</rt_info>
			<input>
				<port id="0" precision="I64">
					<dim>1</dim>
				</port>
				<port id="1" precision="I64">
					<dim>1</dim>
				</port>
			</input>
			<output>
				<port id="2" precision="BOOL" names="45">
					<dim>1</dim>
				</port>
			</output>
		</layer>
		<layer id="23" name="If_15" type="If" version="opset8">
			<else_port_map>
				<input external_port_id="2" internal_layer_id="0"/>
				<output external_port_id="3" internal_layer_id="1"/>
			</else_port_map>
			<then_port_map>
				<input external_port_id="1" internal_layer_id="0"/>
				<output external_port_id="3" internal_layer_id="3"/>
			</then_port_map>
			<rt_info>
				<attribute name="fused_names" version="0" value="If_15"/>
			</rt_info>
			<input>
				<port id="0" precision="BOOL">
					<dim>1</dim>
				</port>
				<port id="1" precision="FP32">
					<dim>1</dim>
					<dim>1</dim>
					<dim>128</dim>
					<dim>128</dim>
				</port>
				<port id="2" precision="FP32">
					<dim>1</dim>
					<dim>1</dim>
					<dim>128</dim>
					<dim>128</dim>
				</port>
			</input>
			<output>
				<port id="3" precision="FP32" names="46">
					<dim>1</dim>
					<dim>128</dim>
					<dim>128</dim>
				</port>
			</output>
			<then_body>
				<layers>
					<layer id="0" name="Parameter_53" type="Parameter" version="opset1">
						<data shape="1,1,128,128" element_type="f32"/>
						<rt_info>
							<attribute name="old_api_map_element_type" version="0" value="f16"/>
						</rt_info>
						<output>
							<port id="0" precision="FP32">
								<dim>1</dim>
								<dim>1</dim>
								<dim>128</dim>
								<dim>128</dim>
							</port>
						</output>
					</layer>
					<layer id="1" name="Constant_54" type="Const" version="opset1">
						<data element_type="u64" shape="1" offset="16396" size="8"/>
						<output>
							<port id="0" precision="U64">
								<dim>1</dim>
							</port>
						</output>
					</layer>
					<layer id="2" name="47" type="Squeeze" version="opset1">
						<input>
							<port id="0" precision="FP32">
								<dim>1</dim>
								<dim>1</dim>
								<dim>128</dim>
								<dim>128</dim>
							</port>
							<port id="1" precision="U64">
								<dim>1</dim>
							</port>
						</input>
						<output>
							<port id="2" precision="FP32" names="47">
								<dim>1</dim>
								<dim>128</dim>
								<dim>128</dim>
							</port>
						</output>
					</layer>
					<layer id="3" name="Result_57" type="Result" version="opset1">
						<input>
							<port id="0" precision="FP32">
								<dim>1</dim>
								<dim>128</dim>
								<dim>128</dim>
							</port>
						</input>
					</layer>
				</layers>
				<edges>
					<edge from-layer="0" from-port="0" to-layer="2" to-port="0"/>
					<edge from-layer="1" from-port="0" to-layer="2" to-port="1"/>
					<edge from-layer="2" from-port="2" to-layer="3" to-port="0"/>
				</edges>
			</then_body>
			<else_body>
				<layers>
					<layer id="0" name="48" type="Parameter" version="opset1">
						<data shape="1,1,128,128" element_type="f32"/>
						<rt_info>
							<attribute name="old_api_map_element_type" version="0" value="f16"/>
						</rt_info>
						<output>
							<port id="0" precision="FP32" names="48">
								<dim>1</dim>
								<dim>1</dim>
								<dim>128</dim>
								<dim>128</dim>
							</port>
						</output>
					</layer>
					<layer id="1" name="Result_58" type="Result" version="opset1">
						<input>
							<port id="0" precision="FP32">
								<dim>1</dim>
								<dim>1</dim>
								<dim>128</dim>
								<dim>128</dim>
							</port>
						</input>
					</layer>
				</layers>
				<edges>
					<edge from-layer="0" from-port="0" to-layer="1" to-port="0"/>
				</edges>
			</else_body>
		</layer>
		<layer id="24" name="Shape_19" type="ShapeOf" version="opset3">
			<data output_type="i64"/>
			<rt_info>
				<attribute name="fused_names" version="0" value="Shape_19"/>
			</rt_info>
			<input>
				<port id="0" precision="FP32">
					<dim>1</dim>
					<dim>128</dim>
					<dim>128</dim>
				</port>
			</input>
			<output>
				<port id="1" precision="I64" names="50">
					<dim>3</dim>
				</port>
			</output>
		</layer>
		<layer id="25" name="Constant_18" type="Const" version="opset1">
			<data element_type="i64" shape="1" offset="16396" size="8"/>
			<rt_info>
				<attribute name="fused_names" version="0" value="Constant_18"/>
			</rt_info>
			<output>
				<port id="0" precision="I64" names="49">
					<dim>1</dim>
				</port>
			</output>
		</layer>
		<layer id="26" name="Constant_84" type="Const" version="opset1">
			<data element_type="i64" shape="" offset="16396" size="8"/>
			<rt_info>
				<attribute name="fused_names" version="0" value="Constant_84"/>
			</rt_info>
			<output>
				<port id="0" precision="I64"/>
			</output>
		</layer>
		<layer id="27" name="Gather_20" type="Gather" version="opset8">
			<data batch_dims="0"/>
			<rt_info>
				<attribute name="fused_names" version="0" value="Constant_18, Constant_84, Gather_20"/>
			</rt_info>
			<input>
				<port id="0" precision="I64">
					<dim>3</dim>
				</port>
				<port id="1" precision="I64">
					<dim>1</dim>
				</port>
				<port id="2" precision="I64"/>
			</input>
			<output>
				<port id="3" precision="I64" names="51">
					<dim>1</dim>
				</port>
			</output>
		</layer>
		<layer id="28" name="Constant_21" type="Const" version="opset1">
			<data element_type="i64" shape="1" offset="16384" size="8"/>
			<rt_info>
				<attribute name="fused_names" version="0" value="Constant_21"/>
			</rt_info>
			<output>
				<port id="0" precision="I64" names="52">
					<dim>1</dim>
				</port>
			</output>
		</layer>
		<layer id="29" name="Equal_22" type="Equal" version="opset1">
			<data auto_broadcast="numpy"/>
			<rt_info>
				<attribute name="fused_names" version="0" value="Constant_21, Equal_22"/>
			</rt_info>
			<input>
				<port id="0" precision="I64">
					<dim>1</dim>
				</port>
				<port id="1" precision="I64">
					<dim>1</dim>
				</port>
			</input>
			<output>
				<port id="2" precision="BOOL" names="53">
					<dim>1</dim>
				</port>
			</output>
		</layer>
		<layer id="30" name="If_23" type="If" version="opset8">
			<else_port_map>
				<input external_port_id="2" internal_layer_id="0"/>
				<output external_port_id="3" internal_layer_id="1"/>
			</else_port_map>
			<then_port_map>
				<input external_port_id="1" internal_layer_id="0"/>
				<output external_port_id="3" internal_layer_id="3"/>
			</then_port_map>
			<rt_info>
				<attribute name="fused_names" version="0" value="If_23"/>
			</rt_info>
			<input>
				<port id="0" precision="BOOL">
					<dim>1</dim>
				</port>
				<port id="1" precision="FP32">
					<dim>1</dim>
					<dim>128</dim>
					<dim>128</dim>
				</port>
				<port id="2" precision="FP32">
					<dim>1</dim>
					<dim>128</dim>
					<dim>128</dim>
				</port>
			</input>
			<output>
				<port id="3" precision="FP32" names="54">
					<dim>128</dim>
					<dim>128</dim>
				</port>
			</output>
			<then_body>
				<layers>
					<layer id="0" name="Parameter_90" type="Parameter" version="opset1">
						<data shape="1,128,128" element_type="f32"/>
						<rt_info>
							<attribute name="old_api_map_element_type" version="0" value="f16"/>
						</rt_info>
						<output>
							<port id="0" precision="FP32">
								<dim>1</dim>
								<dim>128</dim>
								<dim>128</dim>
							</port>
						</output>
					</layer>
					<layer id="1" name="Constant_91" type="Const" version="opset1">
						<data element_type="u64" shape="1" offset="16396" size="8"/>
						<output>
							<port id="0" precision="U64">
								<dim>1</dim>
							</port>
						</output>
					</layer>
					<layer id="2" name="55" type="Squeeze" version="opset1">
						<input>
							<port id="0" precision="FP32">
								<dim>1</dim>
								<dim>128</dim>
								<dim>128</dim>
							</port>
							<port id="1" precision="U64">
								<dim>1</dim>
							</port>
						</input>
						<output>
							<port id="2" precision="FP32" names="55">
								<dim>128</dim>
								<dim>128</dim>
							</port>
						</output>
					</layer>
					<layer id="3" name="Result_94" type="Result" version="opset1">
						<input>
							<port id="0" precision="FP32">
								<dim>128</dim>
								<dim>128</dim>
							</port>
						</input>
					</layer>
				</layers>
				<edges>
					<edge from-layer="0" from-port="0" to-layer="2" to-port="0"/>
					<edge from-layer="1" from-port="0" to-layer="2" to-port="1"/>
					<edge from-layer="2" from-port="2" to-layer="3" to-port="0"/>
				</edges>
			</then_body>
			<else_body>
				<layers>
					<layer id="0" name="56" type="Parameter" version="opset1">
						<data shape="1,128,128" element_type="f32"/>
						<rt_info>
							<attribute name="old_api_map_element_type" version="0" value="f16"/>
						</rt_info>
						<output>
							<port id="0" precision="FP32" names="56">
								<dim>1</dim>
								<dim>128</dim>
								<dim>128</dim>
							</port>
						</output>
					</layer>
					<layer id="1" name="Result_95" type="Result" version="opset1">
						<input>
							<port id="0" precision="FP32">
								<dim>1</dim>
								<dim>128</dim>
								<dim>128</dim>
							</port>
						</input>
					</layer>
				</layers>
				<edges>
					<edge from-layer="0" from-port="0" to-layer="1" to-port="0"/>
				</edges>
			</else_body>
		</layer>
		<layer id="31" name="Cast_26" type="Convert" version="opset1">
			<data destination_type="boolean"/>
			<rt_info>
				<attribute name="fused_names" version="0" value="Cast_26"/>
			</rt_info>
			<input>
				<port id="0" precision="FP32">
					<dim>128</dim>
					<dim>128</dim>
				</port>
			</input>
			<output>
				<port id="1" precision="BOOL" names="57">
					<dim>128</dim>
					<dim>128</dim>
				</port>
			</output>
		</layer>
		<layer id="32" name="Not_27" type="LogicalNot" version="opset1">
			<rt_info>
				<attribute name="fused_names" version="0" value="Not_27"/>
			</rt_info>
			<input>
				<port id="0" precision="BOOL">
					<dim>128</dim>
					<dim>128</dim>
				</port>
			</input>
			<output>
				<port id="1" precision="BOOL" names="58">
					<dim>128</dim>
					<dim>128</dim>
				</port>
			</output>
		</layer>
		<layer id="33" name="Constant_127" type="Const" version="opset1">
			<data element_type="i64" shape="1" offset="16396" size="8"/>
			<rt_info>
				<attribute name="fused_names" version="0" value="Constant_127"/>
			</rt_info>
			<output>
				<port id="0" precision="I64">
					<dim>1</dim>
				</port>
			</output>
		</layer>
		<layer id="34" name="Unsqueeze_34" type="Unsqueeze" version="opset1">
			<rt_info>
				<attribute name="fused_names" version="0" value="Cast_35, Unsqueeze_34"/>
			</rt_info>
			<input>
				<port id="0" precision="BOOL">
					<dim>128</dim>
					<dim>128</dim>
				</port>
				<port id="1" precision="I64">
					<dim>1</dim>
				</port>
			</input>
			<output>
				<port id="2" precision="BOOL" names="65,66">
					<dim>1</dim>
					<dim>128</dim>
					<dim>128</dim>
				</port>
			</output>
		</layer>
		<layer id="35" name="Constant_717" type="Const" version="opset1">
			<data element_type="i64" shape="1" offset="16396" size="8"/>
			<rt_info>
				<attribute name="fused_names" version="0" value="Constant_717"/>
			</rt_info>
			<output>
				<port id="0" precision="I64">
					<dim>1</dim>
				</port>
			</output>
		</layer>
		<layer id="36" name="Unsqueeze_59" type="Unsqueeze" version="opset1">
			<rt_info>
				<attribute name="fused_names" version="0" value="Unsqueeze_59"/>
			</rt_info>
			<input>
				<port id="0" precision="BOOL">
					<dim>1</dim>
					<dim>128</dim>
					<dim>128</dim>
				</port>
				<port id="1" precision="I64">
					<dim>1</dim>
				</port>
			</input>
			<output>
				<port id="2" precision="BOOL" names="90">
					<dim>1</dim>
					<dim>1</dim>
					<dim>128</dim>
					<dim>128</dim>
				</port>
			</output>
		</layer>
		<layer id="37" name="Cast_60" type="Convert" version="opset1">
			<data destination_type="f32"/>
			<rt_info>
				<attribute name="fused_names" version="0" value="Cast_60"/>
			</rt_info>
			<input>
				<port id="0" precision="BOOL">
					<dim>1</dim>
					<dim>1</dim>
					<dim>128</dim>
					<dim>128</dim>
				</port>
			</input>
			<output>
				<port id="1" precision="FP32" names="91">
					<dim>1</dim>
					<dim>1</dim>
					<dim>128</dim>
					<dim>128</dim>
				</port>
			</output>
		</layer>
		<layer id="38" name="Shape_71" type="ShapeOf" version="opset3">
			<data output_type="i64"/>
			<rt_info>
				<attribute name="fused_names" version="0" value="ShapeOf_760, Shape_71"/>
			</rt_info>
			<input>
				<port id="0" precision="FP32">
					<dim>1</dim>
					<dim>1</dim>
					<dim>128</dim>
					<dim>128</dim>
				</port>
			</input>
			<output>
				<port id="1" precision="I64" names="102">
					<dim>4</dim>
				</port>
			</output>
		</layer>
		<layer id="39" name="Constant_73" type="Const" version="opset1">
			<data element_type="i64" shape="1" offset="16396" size="8"/>
			<rt_info>
				<attribute name="fused_names" version="0" value="Broadcast_740, Slice_75"/>
			</rt_info>
			<output>
				<port id="0" precision="I64" names="104">
					<dim>1</dim>
				</port>
			</output>
		</layer>
		<layer id="40" name="Constant_74" type="Const" version="opset1">
			<data element_type="i64" shape="1" offset="16404" size="8"/>
			<rt_info>
				<attribute name="fused_names" version="0" value="Broadcast_740, Slice_75"/>
			</rt_info>
			<output>
				<port id="0" precision="I64" names="105">
					<dim>1</dim>
				</port>
			</output>
		</layer>
		<layer id="41" name="Broadcast_740" type="Const" version="opset1">
			<data element_type="i64" shape="1" offset="16384" size="8"/>
			<rt_info>
				<attribute name="fused_names" version="0" value="Broadcast_740, Slice_75"/>
			</rt_info>
			<output>
				<port id="0" precision="I64">
					<dim>1</dim>
				</port>
			</output>
		</layer>
		<layer id="42" name="Slice_75" type="StridedSlice" version="opset1">
			<data begin_mask="0" end_mask="0" new_axis_mask="" shrink_axis_mask="" ellipsis_mask=""/>
			<rt_info>
				<attribute name="fused_names" version="0" value="Broadcast_740, Slice_75"/>
			</rt_info>
			<input>
				<port id="0" precision="I64">
					<dim>4</dim>
				</port>
				<port id="1" precision="I64">
					<dim>1</dim>
				</port>
				<port id="2" precision="I64">
					<dim>1</dim>
				</port>
				<port id="3" precision="I64">
					<dim>1</dim>
				</port>
			</input>
			<output>
				<port id="4" precision="I64" names="106">
					<dim>2</dim>
				</port>
			</output>
		</layer>
		<layer id="43" name="Constant_3441_compressed" type="Const" version="opset1">
			<data element_type="f16" shape="1, 1, 1, 1" offset="16412" size="2"/>
			<output>
				<port id="0" precision="FP16">
					<dim>1</dim>
					<dim>1</dim>
					<dim>1</dim>
					<dim>1</dim>
				</port>
			</output>
		</layer>
		<layer id="44" name="Constant_3441" type="Convert" version="opset1">
			<data destination_type="f32"/>
			<rt_info>
				<attribute name="decompression" version="0"/>
			</rt_info>
			<input>
				<port id="0" precision="FP16">
					<dim>1</dim>
					<dim>1</dim>
					<dim>1</dim>
					<dim>1</dim>
				</port>
			</input>
			<output>
				<port id="1" precision="FP32">
					<dim>1</dim>
					<dim>1</dim>
					<dim>1</dim>
					<dim>1</dim>
				</port>
			</output>
		</layer>
		<layer id="45" name="Div_29" type="Multiply" version="opset1">
			<data auto_broadcast="numpy"/>
			<rt_info>
				<attribute name="fused_names" version="0" value="Constant_28, Div_29"/>
			</rt_info>
			<input>
				<port id="0" precision="FP32">
					<dim>1</dim>
					<dim>3</dim>
					<dim>128</dim>
					<dim>128</dim>
				</port>
				<port id="1" precision="FP32">
					<dim>1</dim>
					<dim>1</dim>
					<dim>1</dim>
					<dim>1</dim>
				</port>
			</input>
			<output>
				<port id="2" precision="FP32" names="60">
					<dim>1</dim>
					<dim>3</dim>
					<dim>128</dim>
					<dim>128</dim>
				</port>
			</output>
		</layer>
		<layer id="46" name="Constant_30_compressed" type="Const" version="opset1">
			<data element_type="f16" shape="1, 3, 1, 1" offset="16414" size="6"/>
			<output>
				<port id="0" precision="FP16">
					<dim>1</dim>
					<dim>3</dim>
					<dim>1</dim>
					<dim>1</dim>
				</port>
			</output>
		</layer>
		<layer id="47" name="Constant_30" type="Convert" version="opset1">
			<data destination_type="f32"/>
			<rt_info>
				<attribute name="decompression" version="0"/>
				<attribute name="fused_names" version="0" value="Constant_30"/>
			</rt_info>
			<input>
				<port id="0" precision="FP16">
					<dim>1</dim>
					<dim>3</dim>
					<dim>1</dim>
					<dim>1</dim>
				</port>
			</input>
			<output>
				<port id="1" precision="FP32" names="61">
					<dim>1</dim>
					<dim>3</dim>
					<dim>1</dim>
					<dim>1</dim>
				</port>
			</output>
		</layer>
		<layer id="48" name="Sub_31" type="Subtract" version="opset1">
			<data auto_broadcast="numpy"/>
			<rt_info>
				<attribute name="fused_names" version="0" value="Sub_31"/>
			</rt_info>
			<input>
				<port id="0" precision="FP32">
					<dim>1</dim>
					<dim>3</dim>
					<dim>128</dim>
					<dim>128</dim>
				</port>
				<port id="1" precision="FP32">
					<dim>1</dim>
					<dim>3</dim>
					<dim>1</dim>
					<dim>1</dim>
				</port>
			</input>
			<output>
				<port id="2" precision="FP32" names="62">
					<dim>1</dim>
					<dim>3</dim>
					<dim>128</dim>
					<dim>128</dim>
				</port>
			</output>
		</layer>
		<layer id="49" name="Constant_3395_compressed" type="Const" version="opset1">
			<data element_type="f16" shape="48, 3, 3, 3" offset="16420" size="2592"/>
			<output>
				<port id="0" precision="FP16">
					<dim>48</dim>
					<dim>3</dim>
					<dim>3</dim>
					<dim>3</dim>
				</port>
			</output>
		</layer>
		<layer id="50" name="Constant_3395" type="Convert" version="opset1">
			<data destination_type="f32"/>
			<rt_info>
				<attribute name="decompression" version="0"/>
				<attribute name="fused_names" version="0" value="Constant_32, Conv_36/WithoutBiases, Div_33, backbone.body.stage0.rbr_reparam.weight"/>
			</rt_info>
			<input>
				<port id="0" precision="FP16">
					<dim>48</dim>
					<dim>3</dim>
					<dim>3</dim>
					<dim>3</dim>
				</port>
			</input>
			<output>
				<port id="1" precision="FP32">
					<dim>48</dim>
					<dim>3</dim>
					<dim>3</dim>
					<dim>3</dim>
				</port>
			</output>
		</layer>
		<layer id="51" name="Conv_36/WithoutBiases" type="Convolution" version="opset1">
			<data strides="2, 2" dilations="1, 1" pads_begin="1, 1" pads_end="1, 1" auto_pad="explicit"/>
			<rt_info>
				<attribute name="fused_names" version="0" value="Constant_32, Conv_36/WithoutBiases, Div_33, backbone.body.stage0.rbr_reparam.weight"/>
			</rt_info>
			<input>
				<port id="0" precision="FP32">
					<dim>1</dim>
					<dim>3</dim>
					<dim>128</dim>
					<dim>128</dim>
				</port>
				<port id="1" precision="FP32">
					<dim>48</dim>
					<dim>3</dim>
					<dim>3</dim>
					<dim>3</dim>
				</port>
			</input>
			<output>
				<port id="2" precision="FP32">
					<dim>1</dim>
					<dim>48</dim>
					<dim>64</dim>
					<dim>64</dim>
				</port>
			</output>
		</layer>
		<layer id="52" name="Reshape_150_compressed" type="Const" version="opset1">
			<data element_type="f16" shape="1, 48, 1, 1" offset="19012" size="96"/>
			<output>
				<port id="0" precision="FP16">
					<dim>1</dim>
					<dim>48</dim>
					<dim>1</dim>
					<dim>1</dim>
				</port>
			</output>
		</layer>
		<layer id="53" name="Reshape_150" type="Convert" version="opset1">
			<data destination_type="f32"/>
			<rt_info>
				<attribute name="decompression" version="0"/>
			</rt_info>
			<input>
				<port id="0" precision="FP16">
					<dim>1</dim>
					<dim>48</dim>
					<dim>1</dim>
					<dim>1</dim>
				</port>
			</input>
			<output>
				<port id="1" precision="FP32">
					<dim>1</dim>
					<dim>48</dim>
					<dim>1</dim>
					<dim>1</dim>
				</port>
			</output>
		</layer>
		<layer id="54" name="Conv_36" type="Add" version="opset1">
			<data auto_broadcast="numpy"/>
			<rt_info>
				<attribute name="fused_names" version="0" value="Concat_149, Conv_36, Reshape_150"/>
			</rt_info>
			<input>
				<port id="0" precision="FP32">
					<dim>1</dim>
					<dim>48</dim>
					<dim>64</dim>
					<dim>64</dim>
				</port>
				<port id="1" precision="FP32">
					<dim>1</dim>
					<dim>48</dim>
					<dim>1</dim>
					<dim>1</dim>
				</port>
			</input>
			<output>
				<port id="2" precision="FP32" names="67">
					<dim>1</dim>
					<dim>48</dim>
					<dim>64</dim>
					<dim>64</dim>
				</port>
			</output>
		</layer>
		<layer id="55" name="Relu_37" type="ReLU" version="opset1">
			<rt_info>
				<attribute name="fused_names" version="0" value="Relu_37"/>
			</rt_info>
			<input>
				<port id="0" precision="FP32">
					<dim>1</dim>
					<dim>48</dim>
					<dim>64</dim>
					<dim>64</dim>
				</port>
			</input>
			<output>
				<port id="1" precision="FP32" names="68">
					<dim>1</dim>
					<dim>48</dim>
					<dim>64</dim>
					<dim>64</dim>
				</port>
			</output>
		</layer>
		<layer id="56" name="backbone.body.stage1.0.rbr_reparam.weight_compressed" type="Const" version="opset1">
			<data element_type="f16" shape="48, 48, 3, 3" offset="19108" size="41472"/>
			<output>
				<port id="0" precision="FP16">
					<dim>48</dim>
					<dim>48</dim>
					<dim>3</dim>
					<dim>3</dim>
				</port>
			</output>
		</layer>
		<layer id="57" name="backbone.body.stage1.0.rbr_reparam.weight" type="Convert" version="opset1">
			<data destination_type="f32"/>
			<rt_info>
				<attribute name="decompression" version="0"/>
				<attribute name="fused_names" version="0" value="backbone.body.stage1.0.rbr_reparam.weight"/>
			</rt_info>
			<input>
				<port id="0" precision="FP16">
					<dim>48</dim>
					<dim>48</dim>
					<dim>3</dim>
					<dim>3</dim>
				</port>
			</input>
			<output>
				<port id="1" precision="FP32" names="backbone.body.stage1.0.rbr_reparam.weight">
					<dim>48</dim>
					<dim>48</dim>
					<dim>3</dim>
					<dim>3</dim>
				</port>
			</output>
		</layer>
		<layer id="58" name="Conv_38/WithoutBiases" type="Convolution" version="opset1">
			<data strides="2, 2" dilations="1, 1" pads_begin="1, 1" pads_end="1, 1" auto_pad="explicit"/>
			<rt_info>
				<attribute name="fused_names" version="0" value="Conv_38/WithoutBiases"/>
			</rt_info>
			<input>
				<port id="0" precision="FP32">
					<dim>1</dim>
					<dim>48</dim>
					<dim>64</dim>
					<dim>64</dim>
				</port>
				<port id="1" precision="FP32">
					<dim>48</dim>
					<dim>48</dim>
					<dim>3</dim>
					<dim>3</dim>
				</port>
			</input>
			<output>
				<port id="2" precision="FP32">
					<dim>1</dim>
					<dim>48</dim>
					<dim>32</dim>
					<dim>32</dim>
				</port>
			</output>
		</layer>
		<layer id="59" name="Reshape_199_compressed" type="Const" version="opset1">
			<data element_type="f16" shape="1, 48, 1, 1" offset="60580" size="96"/>
			<output>
				<port id="0" precision="FP16">
					<dim>1</dim>
					<dim>48</dim>
					<dim>1</dim>
					<dim>1</dim>
				</port>
			</output>
		</layer>
		<layer id="60" name="Reshape_199" type="Convert" version="opset1">
			<data destination_type="f32"/>
			<rt_info>
				<attribute name="decompression" version="0"/>
			</rt_info>
			<input>
				<port id="0" precision="FP16">
					<dim>1</dim>
					<dim>48</dim>
					<dim>1</dim>
					<dim>1</dim>
				</port>
			</input>
			<output>
				<port id="1" precision="FP32">
					<dim>1</dim>
					<dim>48</dim>
					<dim>1</dim>
					<dim>1</dim>
				</port>
			</output>
		</layer>
		<layer id="61" name="Conv_38" type="Add" version="opset1">
			<data auto_broadcast="numpy"/>
			<rt_info>
				<attribute name="fused_names" version="0" value="Concat_198, Conv_38, Reshape_199"/>
			</rt_info>
			<input>
				<port id="0" precision="FP32">
					<dim>1</dim>
					<dim>48</dim>
					<dim>32</dim>
					<dim>32</dim>
				</port>
				<port id="1" precision="FP32">
					<dim>1</dim>
					<dim>48</dim>
					<dim>1</dim>
					<dim>1</dim>
				</port>
			</input>
			<output>
				<port id="2" precision="FP32" names="69">
					<dim>1</dim>
					<dim>48</dim>
					<dim>32</dim>
					<dim>32</dim>
				</port>
			</output>
		</layer>
		<layer id="62" name="Relu_39" type="ReLU" version="opset1">
			<rt_info>
				<attribute name="fused_names" version="0" value="Relu_39"/>
			</rt_info>
			<input>
				<port id="0" precision="FP32">
					<dim>1</dim>
					<dim>48</dim>
					<dim>32</dim>
					<dim>32</dim>
				</port>
			</input>
			<output>
				<port id="1" precision="FP32" names="70">
					<dim>1</dim>
					<dim>48</dim>
					<dim>32</dim>
					<dim>32</dim>
				</port>
			</output>
		</layer>
		<layer id="63" name="backbone.body.stage1.1.rbr_reparam.weight_compressed" type="Const" version="opset1">
			<data element_type="f16" shape="48, 48, 3, 3" offset="60676" size="41472"/>
			<output>
				<port id="0" precision="FP16">
					<dim>48</dim>
					<dim>48</dim>
					<dim>3</dim>
					<dim>3</dim>
				</port>
			</output>
		</layer>
		<layer id="64" name="backbone.body.stage1.1.rbr_reparam.weight" type="Convert" version="opset1">
			<data destination_type="f32"/>
			<rt_info>
				<attribute name="decompression" version="0"/>
				<attribute name="fused_names" version="0" value="backbone.body.stage1.1.rbr_reparam.weight"/>
			</rt_info>
			<input>
				<port id="0" precision="FP16">
					<dim>48</dim>
					<dim>48</dim>
					<dim>3</dim>
					<dim>3</dim>
				</port>
			</input>
			<output>
				<port id="1" precision="FP32" names="backbone.body.stage1.1.rbr_reparam.weight">
					<dim>48</dim>
					<dim>48</dim>
					<dim>3</dim>
					<dim>3</dim>
				</port>
			</output>
		</layer>
		<layer id="65" name="Conv_40/WithoutBiases" type="Convolution" version="opset1">
			<data strides="1, 1" dilations="1, 1" pads_begin="1, 1" pads_end="1, 1" auto_pad="explicit"/>
			<rt_info>
				<attribute name="fused_names" version="0" value="Conv_40/WithoutBiases"/>
			</rt_info>
			<input>
				<port id="0" precision="FP32">
					<dim>1</dim>
					<dim>48</dim>
					<dim>32</dim>
					<dim>32</dim>
				</port>
				<port id="1" precision="FP32">
					<dim>48</dim>
					<dim>48</dim>
					<dim>3</dim>
					<dim>3</dim>
				</port>
			</input>
			<output>
				<port id="2" precision="FP32">
					<dim>1</dim>
					<dim>48</dim>
					<dim>32</dim>
					<dim>32</dim>
				</port>
			</output>
		</layer>
		<layer id="66" name="Reshape_248_compressed" type="Const" version="opset1">
			<data element_type="f16" shape="1, 48, 1, 1" offset="102148" size="96"/>
			<output>
				<port id="0" precision="FP16">
					<dim>1</dim>
					<dim>48</dim>
					<dim>1</dim>
					<dim>1</dim>
				</port>
			</output>
		</layer>
		<layer id="67" name="Reshape_248" type="Convert" version="opset1">
			<data destination_type="f32"/>
			<rt_info>
				<attribute name="decompression" version="0"/>
			</rt_info>
			<input>
				<port id="0" precision="FP16">
					<dim>1</dim>
					<dim>48</dim>
					<dim>1</dim>
					<dim>1</dim>
				</port>
			</input>
			<output>
				<port id="1" precision="FP32">
					<dim>1</dim>
					<dim>48</dim>
					<dim>1</dim>
					<dim>1</dim>
				</port>
			</output>
		</layer>
		<layer id="68" name="Conv_40" type="Add" version="opset1">
			<data auto_broadcast="numpy"/>
			<rt_info>
				<attribute name="fused_names" version="0" value="Concat_247, Conv_40, Reshape_248"/>
			</rt_info>
			<input>
				<port id="0" precision="FP32">
					<dim>1</dim>
					<dim>48</dim>
					<dim>32</dim>
					<dim>32</dim>
				</port>
				<port id="1" precision="FP32">
					<dim>1</dim>
					<dim>48</dim>
					<dim>1</dim>
					<dim>1</dim>
				</port>
			</input>
			<output>
				<port id="2" precision="FP32" names="71">
					<dim>1</dim>
					<dim>48</dim>
					<dim>32</dim>
					<dim>32</dim>
				</port>
			</output>
		</layer>
		<layer id="69" name="Relu_41" type="ReLU" version="opset1">
			<rt_info>
				<attribute name="fused_names" version="0" value="Relu_41"/>
			</rt_info>
			<input>
				<port id="0" precision="FP32">
					<dim>1</dim>
					<dim>48</dim>
					<dim>32</dim>
					<dim>32</dim>
				</port>
			</input>
			<output>
				<port id="1" precision="FP32" names="72">
					<dim>1</dim>
					<dim>48</dim>
					<dim>32</dim>
					<dim>32</dim>
				</port>
			</output>
		</layer>
		<layer id="70" name="backbone.body.stage2.0.rbr_reparam.weight_compressed" type="Const" version="opset1">
			<data element_type="f16" shape="96, 48, 3, 3" offset="102244" size="82944"/>
			<output>
				<port id="0" precision="FP16">
					<dim>96</dim>
					<dim>48</dim>
					<dim>3</dim>
					<dim>3</dim>
				</port>
			</output>
		</layer>
		<layer id="71" name="backbone.body.stage2.0.rbr_reparam.weight" type="Convert" version="opset1">
			<data destination_type="f32"/>
			<rt_info>
				<attribute name="decompression" version="0"/>
				<attribute name="fused_names" version="0" value="backbone.body.stage2.0.rbr_reparam.weight"/>
			</rt_info>
			<input>
				<port id="0" precision="FP16">
					<dim>96</dim>
					<dim>48</dim>
					<dim>3</dim>
					<dim>3</dim>
				</port>
			</input>
			<output>
				<port id="1" precision="FP32" names="backbone.body.stage2.0.rbr_reparam.weight">
					<dim>96</dim>
					<dim>48</dim>
					<dim>3</dim>
					<dim>3</dim>
				</port>
			</output>
		</layer>
		<layer id="72" name="Conv_42/WithoutBiases" type="Convolution" version="opset1">
			<data strides="2, 2" dilations="1, 1" pads_begin="1, 1" pads_end="1, 1" auto_pad="explicit"/>
			<rt_info>
				<attribute name="fused_names" version="0" value="Conv_42/WithoutBiases"/>
			</rt_info>
			<input>
				<port id="0" precision="FP32">
					<dim>1</dim>
					<dim>48</dim>
					<dim>32</dim>
					<dim>32</dim>
				</port>
				<port id="1" precision="FP32">
					<dim>96</dim>
					<dim>48</dim>
					<dim>3</dim>
					<dim>3</dim>
				</port>
			</input>
			<output>
				<port id="2" precision="FP32">
					<dim>1</dim>
					<dim>96</dim>
					<dim>16</dim>
					<dim>16</dim>
				</port>
			</output>
		</layer>
		<layer id="73" name="Reshape_297_compressed" type="Const" version="opset1">
			<data element_type="f16" shape="1, 96, 1, 1" offset="185188" size="192"/>
			<output>
				<port id="0" precision="FP16">
					<dim>1</dim>
					<dim>96</dim>
					<dim>1</dim>
					<dim>1</dim>
				</port>
			</output>
		</layer>
		<layer id="74" name="Reshape_297" type="Convert" version="opset1">
			<data destination_type="f32"/>
			<rt_info>
				<attribute name="decompression" version="0"/>
			</rt_info>
			<input>
				<port id="0" precision="FP16">
					<dim>1</dim>
					<dim>96</dim>
					<dim>1</dim>
					<dim>1</dim>
				</port>
			</input>
			<output>
				<port id="1" precision="FP32">
					<dim>1</dim>
					<dim>96</dim>
					<dim>1</dim>
					<dim>1</dim>
				</port>
			</output>
		</layer>
		<layer id="75" name="Conv_42" type="Add" version="opset1">
			<data auto_broadcast="numpy"/>
			<rt_info>
				<attribute name="fused_names" version="0" value="Concat_296, Conv_42, Reshape_297"/>
			</rt_info>
			<input>
				<port id="0" precision="FP32">
					<dim>1</dim>
					<dim>96</dim>
					<dim>16</dim>
					<dim>16</dim>
				</port>
				<port id="1" precision="FP32">
					<dim>1</dim>
					<dim>96</dim>
					<dim>1</dim>
					<dim>1</dim>
				</port>
			</input>
			<output>
				<port id="2" precision="FP32" names="73">
					<dim>1</dim>
					<dim>96</dim>
					<dim>16</dim>
					<dim>16</dim>
				</port>
			</output>
		</layer>
		<layer id="76" name="Relu_43" type="ReLU" version="opset1">
			<rt_info>
				<attribute name="fused_names" version="0" value="Relu_43"/>
			</rt_info>
			<input>
				<port id="0" precision="FP32">
					<dim>1</dim>
					<dim>96</dim>
					<dim>16</dim>
					<dim>16</dim>
				</port>
			</input>
			<output>
				<port id="1" precision="FP32" names="74">
					<dim>1</dim>
					<dim>96</dim>
					<dim>16</dim>
					<dim>16</dim>
				</port>
			</output>
		</layer>
		<layer id="77" name="backbone.body.stage2.1.rbr_reparam.weight_compressed" type="Const" version="opset1">
			<data element_type="f16" shape="96, 96, 3, 3" offset="185380" size="165888"/>
			<output>
				<port id="0" precision="FP16">
					<dim>96</dim>
					<dim>96</dim>
					<dim>3</dim>
					<dim>3</dim>
				</port>
			</output>
		</layer>
		<layer id="78" name="backbone.body.stage2.1.rbr_reparam.weight" type="Convert" version="opset1">
			<data destination_type="f32"/>
			<rt_info>
				<attribute name="decompression" version="0"/>
				<attribute name="fused_names" version="0" value="backbone.body.stage2.1.rbr_reparam.weight"/>
			</rt_info>
			<input>
				<port id="0" precision="FP16">
					<dim>96</dim>
					<dim>96</dim>
					<dim>3</dim>
					<dim>3</dim>
				</port>
			</input>
			<output>
				<port id="1" precision="FP32" names="backbone.body.stage2.1.rbr_reparam.weight">
					<dim>96</dim>
					<dim>96</dim>
					<dim>3</dim>
					<dim>3</dim>
				</port>
			</output>
		</layer>
		<layer id="79" name="Conv_44/WithoutBiases" type="Convolution" version="opset1">
			<data strides="1, 1" dilations="1, 1" pads_begin="1, 1" pads_end="1, 1" auto_pad="explicit"/>
			<rt_info>
				<attribute name="fused_names" version="0" value="Conv_44/WithoutBiases"/>
			</rt_info>
			<input>
				<port id="0" precision="FP32">
					<dim>1</dim>
					<dim>96</dim>
					<dim>16</dim>
					<dim>16</dim>
				</port>
				<port id="1" precision="FP32">
					<dim>96</dim>
					<dim>96</dim>
					<dim>3</dim>
					<dim>3</dim>
				</port>
			</input>
			<output>
				<port id="2" precision="FP32">
					<dim>1</dim>
					<dim>96</dim>
					<dim>16</dim>
					<dim>16</dim>
				</port>
			</output>
		</layer>
		<layer id="80" name="Reshape_346_compressed" type="Const" version="opset1">
			<data element_type="f16" shape="1, 96, 1, 1" offset="351268" size="192"/>
			<output>
				<port id="0" precision="FP16">
					<dim>1</dim>
					<dim>96</dim>
					<dim>1</dim>
					<dim>1</dim>
				</port>
			</output>
		</layer>
		<layer id="81" name="Reshape_346" type="Convert" version="opset1">
			<data destination_type="f32"/>
			<rt_info>
				<attribute name="decompression" version="0"/>
			</rt_info>
			<input>
				<port id="0" precision="FP16">
					<dim>1</dim>
					<dim>96</dim>
					<dim>1</dim>
					<dim>1</dim>
				</port>
			</input>
			<output>
				<port id="1" precision="FP32">
					<dim>1</dim>
					<dim>96</dim>
					<dim>1</dim>
					<dim>1</dim>
				</port>
			</output>
		</layer>
		<layer id="82" name="Conv_44" type="Add" version="opset1">
			<data auto_broadcast="numpy"/>
			<rt_info>
				<attribute name="fused_names" version="0" value="Concat_345, Conv_44, Reshape_346"/>
			</rt_info>
			<input>
				<port id="0" precision="FP32">
					<dim>1</dim>
					<dim>96</dim>
					<dim>16</dim>
					<dim>16</dim>
				</port>
				<port id="1" precision="FP32">
					<dim>1</dim>
					<dim>96</dim>
					<dim>1</dim>
					<dim>1</dim>
				</port>
			</input>
			<output>
				<port id="2" precision="FP32" names="75">
					<dim>1</dim>
					<dim>96</dim>
					<dim>16</dim>
					<dim>16</dim>
				</port>
			</output>
		</layer>
		<layer id="83" name="Relu_45" type="ReLU" version="opset1">
			<rt_info>
				<attribute name="fused_names" version="0" value="Relu_45"/>
			</rt_info>
			<input>
				<port id="0" precision="FP32">
					<dim>1</dim>
					<dim>96</dim>
					<dim>16</dim>
					<dim>16</dim>
				</port>
			</input>
			<output>
				<port id="1" precision="FP32" names="76">
					<dim>1</dim>
					<dim>96</dim>
					<dim>16</dim>
					<dim>16</dim>
				</port>
			</output>
		</layer>
		<layer id="84" name="backbone.body.stage2.2.rbr_reparam.weight_compressed" type="Const" version="opset1">
			<data element_type="f16" shape="96, 96, 3, 3" offset="351460" size="165888"/>
			<output>
				<port id="0" precision="FP16">
					<dim>96</dim>
					<dim>96</dim>
					<dim>3</dim>
					<dim>3</dim>
				</port>
			</output>
		</layer>
		<layer id="85" name="backbone.body.stage2.2.rbr_reparam.weight" type="Convert" version="opset1">
			<data destination_type="f32"/>
			<rt_info>
				<attribute name="decompression" version="0"/>
				<attribute name="fused_names" version="0" value="backbone.body.stage2.2.rbr_reparam.weight"/>
			</rt_info>
			<input>
				<port id="0" precision="FP16">
					<dim>96</dim>
					<dim>96</dim>
					<dim>3</dim>
					<dim>3</dim>
				</port>
			</input>
			<output>
				<port id="1" precision="FP32" names="backbone.body.stage2.2.rbr_reparam.weight">
					<dim>96</dim>
					<dim>96</dim>
					<dim>3</dim>
					<dim>3</dim>
				</port>
			</output>
		</layer>
		<layer id="86" name="Conv_46/WithoutBiases" type="Convolution" version="opset1">
			<data strides="1, 1" dilations="1, 1" pads_begin="1, 1" pads_end="1, 1" auto_pad="explicit"/>
			<rt_info>
				<attribute name="fused_names" version="0" value="Conv_46/WithoutBiases"/>
			</rt_info>
			<input>
				<port id="0" precision="FP32">
					<dim>1</dim>
					<dim>96</dim>
					<dim>16</dim>
					<dim>16</dim>
				</port>
				<port id="1" precision="FP32">
					<dim>96</dim>
					<dim>96</dim>
					<dim>3</dim>
					<dim>3</dim>
				</port>
			</input>
			<output>
				<port id="2" precision="FP32">
					<dim>1</dim>
					<dim>96</dim>
					<dim>16</dim>
					<dim>16</dim>
				</port>
			</output>
		</layer>
		<layer id="87" name="Reshape_395_compressed" type="Const" version="opset1">
			<data element_type="f16" shape="1, 96, 1, 1" offset="517348" size="192"/>
			<output>
				<port id="0" precision="FP16">
					<dim>1</dim>
					<dim>96</dim>
					<dim>1</dim>
					<dim>1</dim>
				</port>
			</output>
		</layer>
		<layer id="88" name="Reshape_395" type="Convert" version="opset1">
			<data destination_type="f32"/>
			<rt_info>
				<attribute name="decompression" version="0"/>
			</rt_info>
			<input>
				<port id="0" precision="FP16">
					<dim>1</dim>
					<dim>96</dim>
					<dim>1</dim>
					<dim>1</dim>
				</port>
			</input>
			<output>
				<port id="1" precision="FP32">
					<dim>1</dim>
					<dim>96</dim>
					<dim>1</dim>
					<dim>1</dim>
				</port>
			</output>
		</layer>
		<layer id="89" name="Conv_46" type="Add" version="opset1">
			<data auto_broadcast="numpy"/>
			<rt_info>
				<attribute name="fused_names" version="0" value="Concat_394, Conv_46, Reshape_395"/>
			</rt_info>
			<input>
				<port id="0" precision="FP32">
					<dim>1</dim>
					<dim>96</dim>
					<dim>16</dim>
					<dim>16</dim>
				</port>
				<port id="1" precision="FP32">
					<dim>1</dim>
					<dim>96</dim>
					<dim>1</dim>
					<dim>1</dim>
				</port>
			</input>
			<output>
				<port id="2" precision="FP32" names="77">
					<dim>1</dim>
					<dim>96</dim>
					<dim>16</dim>
					<dim>16</dim>
				</port>
			</output>
		</layer>
		<layer id="90" name="Relu_47" type="ReLU" version="opset1">
			<rt_info>
				<attribute name="fused_names" version="0" value="Relu_47"/>
			</rt_info>
			<input>
				<port id="0" precision="FP32">
					<dim>1</dim>
					<dim>96</dim>
					<dim>16</dim>
					<dim>16</dim>
				</port>
			</input>
			<output>
				<port id="1" precision="FP32" names="78">
					<dim>1</dim>
					<dim>96</dim>
					<dim>16</dim>
					<dim>16</dim>
				</port>
			</output>
		</layer>
		<layer id="91" name="backbone.body.stage2.3.rbr_reparam.weight_compressed" type="Const" version="opset1">
			<data element_type="f16" shape="96, 96, 3, 3" offset="517540" size="165888"/>
			<output>
				<port id="0" precision="FP16">
					<dim>96</dim>
					<dim>96</dim>
					<dim>3</dim>
					<dim>3</dim>
				</port>
			</output>
		</layer>
		<layer id="92" name="backbone.body.stage2.3.rbr_reparam.weight" type="Convert" version="opset1">
			<data destination_type="f32"/>
			<rt_info>
				<attribute name="decompression" version="0"/>
				<attribute name="fused_names" version="0" value="backbone.body.stage2.3.rbr_reparam.weight"/>
			</rt_info>
			<input>
				<port id="0" precision="FP16">
					<dim>96</dim>
					<dim>96</dim>
					<dim>3</dim>
					<dim>3</dim>
				</port>
			</input>
			<output>
				<port id="1" precision="FP32" names="backbone.body.stage2.3.rbr_reparam.weight">
					<dim>96</dim>
					<dim>96</dim>
					<dim>3</dim>
					<dim>3</dim>
				</port>
			</output>
		</layer>
		<layer id="93" name="Conv_48/WithoutBiases" type="Convolution" version="opset1">
			<data strides="1, 1" dilations="1, 1" pads_begin="1, 1" pads_end="1, 1" auto_pad="explicit"/>
			<rt_info>
				<attribute name="fused_names" version="0" value="Conv_48/WithoutBiases"/>
			</rt_info>
			<input>
				<port id="0" precision="FP32">
					<dim>1</dim>
					<dim>96</dim>
					<dim>16</dim>
					<dim>16</dim>
				</port>
				<port id="1" precision="FP32">
					<dim>96</dim>
					<dim>96</dim>
					<dim>3</dim>
					<dim>3</dim>
				</port>
			</input>
			<output>
				<port id="2" precision="FP32">
					<dim>1</dim>
					<dim>96</dim>
					<dim>16</dim>
					<dim>16</dim>
				</port>
			</output>
		</layer>
		<layer id="94" name="Reshape_444_compressed" type="Const" version="opset1">
			<data element_type="f16" shape="1, 96, 1, 1" offset="683428" size="192"/>
			<output>
				<port id="0" precision="FP16">
					<dim>1</dim>
					<dim>96</dim>
					<dim>1</dim>
					<dim>1</dim>
				</port>
			</output>
		</layer>
		<layer id="95" name="Reshape_444" type="Convert" version="opset1">
			<data destination_type="f32"/>
			<rt_info>
				<attribute name="decompression" version="0"/>
			</rt_info>
			<input>
				<port id="0" precision="FP16">
					<dim>1</dim>
					<dim>96</dim>
					<dim>1</dim>
					<dim>1</dim>
				</port>
			</input>
			<output>
				<port id="1" precision="FP32">
					<dim>1</dim>
					<dim>96</dim>
					<dim>1</dim>
					<dim>1</dim>
				</port>
			</output>
		</layer>
		<layer id="96" name="Conv_48" type="Add" version="opset1">
			<data auto_broadcast="numpy"/>
			<rt_info>
				<attribute name="fused_names" version="0" value="Concat_443, Conv_48, Reshape_444"/>
			</rt_info>
			<input>
				<port id="0" precision="FP32">
					<dim>1</dim>
					<dim>96</dim>
					<dim>16</dim>
					<dim>16</dim>
				</port>
				<port id="1" precision="FP32">
					<dim>1</dim>
					<dim>96</dim>
					<dim>1</dim>
					<dim>1</dim>
				</port>
			</input>
			<output>
				<port id="2" precision="FP32" names="79">
					<dim>1</dim>
					<dim>96</dim>
					<dim>16</dim>
					<dim>16</dim>
				</port>
			</output>
		</layer>
		<layer id="97" name="Relu_49" type="ReLU" version="opset1">
			<rt_info>
				<attribute name="fused_names" version="0" value="Relu_49"/>
			</rt_info>
			<input>
				<port id="0" precision="FP32">
					<dim>1</dim>
					<dim>96</dim>
					<dim>16</dim>
					<dim>16</dim>
				</port>
			</input>
			<output>
				<port id="1" precision="FP32" names="80">
					<dim>1</dim>
					<dim>96</dim>
					<dim>16</dim>
					<dim>16</dim>
				</port>
			</output>
		</layer>
		<layer id="98" name="backbone.body.stage3.0.rbr_reparam.weight_compressed" type="Const" version="opset1">
			<data element_type="f16" shape="192, 96, 3, 3" offset="683620" size="331776"/>
			<output>
				<port id="0" precision="FP16">
					<dim>192</dim>
					<dim>96</dim>
					<dim>3</dim>
					<dim>3</dim>
				</port>
			</output>
		</layer>
		<layer id="99" name="backbone.body.stage3.0.rbr_reparam.weight" type="Convert" version="opset1">
			<data destination_type="f32"/>
			<rt_info>
				<attribute name="decompression" version="0"/>
				<attribute name="fused_names" version="0" value="backbone.body.stage3.0.rbr_reparam.weight"/>
			</rt_info>
			<input>
				<port id="0" precision="FP16">
					<dim>192</dim>
					<dim>96</dim>
					<dim>3</dim>
					<dim>3</dim>
				</port>
			</input>
			<output>
				<port id="1" precision="FP32" names="backbone.body.stage3.0.rbr_reparam.weight">
					<dim>192</dim>
					<dim>96</dim>
					<dim>3</dim>
					<dim>3</dim>
				</port>
			</output>
		</layer>
		<layer id="100" name="Conv_50/WithoutBiases" type="Convolution" version="opset1">
			<data strides="2, 2" dilations="1, 1" pads_begin="1, 1" pads_end="1, 1" auto_pad="explicit"/>
			<rt_info>
				<attribute name="fused_names" version="0" value="Conv_50/WithoutBiases"/>
			</rt_info>
			<input>
				<port id="0" precision="FP32">
					<dim>1</dim>
					<dim>96</dim>
					<dim>16</dim>
					<dim>16</dim>
				</port>
				<port id="1" precision="FP32">
					<dim>192</dim>
					<dim>96</dim>
					<dim>3</dim>
					<dim>3</dim>
				</port>
			</input>
			<output>
				<port id="2" precision="FP32">
					<dim>1</dim>
					<dim>192</dim>
					<dim>8</dim>
					<dim>8</dim>
				</port>
			</output>
		</layer>
		<layer id="101" name="Reshape_493_compressed" type="Const" version="opset1">
			<data element_type="f16" shape="1, 192, 1, 1" offset="1015396" size="384"/>
			<output>
				<port id="0" precision="FP16">
					<dim>1</dim>
					<dim>192</dim>
					<dim>1</dim>
					<dim>1</dim>
				</port>
			</output>
		</layer>
		<layer id="102" name="Reshape_493" type="Convert" version="opset1">
			<data destination_type="f32"/>
			<rt_info>
				<attribute name="decompression" version="0"/>
			</rt_info>
			<input>
				<port id="0" precision="FP16">
					<dim>1</dim>
					<dim>192</dim>
					<dim>1</dim>
					<dim>1</dim>
				</port>
			</input>
			<output>
				<port id="1" precision="FP32">
					<dim>1</dim>
					<dim>192</dim>
					<dim>1</dim>
					<dim>1</dim>
				</port>
			</output>
		</layer>
		<layer id="103" name="Conv_50" type="Add" version="opset1">
			<data auto_broadcast="numpy"/>
			<rt_info>
				<attribute name="fused_names" version="0" value="Concat_492, Conv_50, Reshape_493"/>
			</rt_info>
			<input>
				<port id="0" precision="FP32">
					<dim>1</dim>
					<dim>192</dim>
					<dim>8</dim>
					<dim>8</dim>
				</port>
				<port id="1" precision="FP32">
					<dim>1</dim>
					<dim>192</dim>
					<dim>1</dim>
					<dim>1</dim>
				</port>
			</input>
			<output>
				<port id="2" precision="FP32" names="81">
					<dim>1</dim>
					<dim>192</dim>
					<dim>8</dim>
					<dim>8</dim>
				</port>
			</output>
		</layer>
		<layer id="104" name="Relu_51" type="ReLU" version="opset1">
			<rt_info>
				<attribute name="fused_names" version="0" value="Relu_51"/>
			</rt_info>
			<input>
				<port id="0" precision="FP32">
					<dim>1</dim>
					<dim>192</dim>
					<dim>8</dim>
					<dim>8</dim>
				</port>
			</input>
			<output>
				<port id="1" precision="FP32" names="82">
					<dim>1</dim>
					<dim>192</dim>
					<dim>8</dim>
					<dim>8</dim>
				</port>
			</output>
		</layer>
		<layer id="105" name="backbone.body.stage3.1.rbr_reparam.weight_compressed" type="Const" version="opset1">
			<data element_type="f16" shape="192, 192, 3, 3" offset="1015780" size="663552"/>
			<output>
				<port id="0" precision="FP16">
					<dim>192</dim>
					<dim>192</dim>
					<dim>3</dim>
					<dim>3</dim>
				</port>
			</output>
		</layer>
		<layer id="106" name="backbone.body.stage3.1.rbr_reparam.weight" type="Convert" version="opset1">
			<data destination_type="f32"/>
			<rt_info>
				<attribute name="decompression" version="0"/>
				<attribute name="fused_names" version="0" value="backbone.body.stage3.1.rbr_reparam.weight"/>
			</rt_info>
			<input>
				<port id="0" precision="FP16">
					<dim>192</dim>
					<dim>192</dim>
					<dim>3</dim>
					<dim>3</dim>
				</port>
			</input>
			<output>
				<port id="1" precision="FP32" names="backbone.body.stage3.1.rbr_reparam.weight">
					<dim>192</dim>
					<dim>192</dim>
					<dim>3</dim>
					<dim>3</dim>
				</port>
			</output>
		</layer>
		<layer id="107" name="Conv_52/WithoutBiases" type="Convolution" version="opset1">
			<data strides="1, 1" dilations="1, 1" pads_begin="1, 1" pads_end="1, 1" auto_pad="explicit"/>
			<rt_info>
				<attribute name="fused_names" version="0" value="Conv_52/WithoutBiases"/>
			</rt_info>
			<input>
				<port id="0" precision="FP32">
					<dim>1</dim>
					<dim>192</dim>
					<dim>8</dim>
					<dim>8</dim>
				</port>
				<port id="1" precision="FP32">
					<dim>192</dim>
					<dim>192</dim>
					<dim>3</dim>
					<dim>3</dim>
				</port>
			</input>
			<output>
				<port id="2" precision="FP32">
					<dim>1</dim>
					<dim>192</dim>
					<dim>8</dim>
					<dim>8</dim>
				</port>
			</output>
		</layer>
		<layer id="108" name="Reshape_542_compressed" type="Const" version="opset1">
			<data element_type="f16" shape="1, 192, 1, 1" offset="1679332" size="384"/>
			<output>
				<port id="0" precision="FP16">
					<dim>1</dim>
					<dim>192</dim>
					<dim>1</dim>
					<dim>1</dim>
				</port>
			</output>
		</layer>
		<layer id="109" name="Reshape_542" type="Convert" version="opset1">
			<data destination_type="f32"/>
			<rt_info>
				<attribute name="decompression" version="0"/>
			</rt_info>
			<input>
				<port id="0" precision="FP16">
					<dim>1</dim>
					<dim>192</dim>
					<dim>1</dim>
					<dim>1</dim>
				</port>
			</input>
			<output>
				<port id="1" precision="FP32">
					<dim>1</dim>
					<dim>192</dim>
					<dim>1</dim>
					<dim>1</dim>
				</port>
			</output>
		</layer>
		<layer id="110" name="Conv_52" type="Add" version="opset1">
			<data auto_broadcast="numpy"/>
			<rt_info>
				<attribute name="fused_names" version="0" value="Concat_541, Conv_52, Reshape_542"/>
			</rt_info>
			<input>
				<port id="0" precision="FP32">
					<dim>1</dim>
					<dim>192</dim>
					<dim>8</dim>
					<dim>8</dim>
				</port>
				<port id="1" precision="FP32">
					<dim>1</dim>
					<dim>192</dim>
					<dim>1</dim>
					<dim>1</dim>
				</port>
			</input>
			<output>
				<port id="2" precision="FP32" names="83">
					<dim>1</dim>
					<dim>192</dim>
					<dim>8</dim>
					<dim>8</dim>
				</port>
			</output>
		</layer>
		<layer id="111" name="Relu_53" type="ReLU" version="opset1">
			<rt_info>
				<attribute name="fused_names" version="0" value="Relu_53"/>
			</rt_info>
			<input>
				<port id="0" precision="FP32">
					<dim>1</dim>
					<dim>192</dim>
					<dim>8</dim>
					<dim>8</dim>
				</port>
			</input>
			<output>
				<port id="1" precision="FP32" names="84">
					<dim>1</dim>
					<dim>192</dim>
					<dim>8</dim>
					<dim>8</dim>
				</port>
			</output>
		</layer>
		<layer id="112" name="backbone.body.stage3.2.rbr_reparam.weight_compressed" type="Const" version="opset1">
			<data element_type="f16" shape="192, 192, 3, 3" offset="1679716" size="663552"/>
			<output>
				<port id="0" precision="FP16">
					<dim>192</dim>
					<dim>192</dim>
					<dim>3</dim>
					<dim>3</dim>
				</port>
			</output>
		</layer>
		<layer id="113" name="backbone.body.stage3.2.rbr_reparam.weight" type="Convert" version="opset1">
			<data destination_type="f32"/>
			<rt_info>
				<attribute name="decompression" version="0"/>
				<attribute name="fused_names" version="0" value="backbone.body.stage3.2.rbr_reparam.weight"/>
			</rt_info>
			<input>
				<port id="0" precision="FP16">
					<dim>192</dim>
					<dim>192</dim>
					<dim>3</dim>
					<dim>3</dim>
				</port>
			</input>
			<output>
				<port id="1" precision="FP32" names="backbone.body.stage3.2.rbr_reparam.weight">
					<dim>192</dim>
					<dim>192</dim>
					<dim>3</dim>
					<dim>3</dim>
				</port>
			</output>
		</layer>
		<layer id="114" name="Conv_54/WithoutBiases" type="Convolution" version="opset1">
			<data strides="1, 1" dilations="1, 1" pads_begin="1, 1" pads_end="1, 1" auto_pad="explicit"/>
			<rt_info>
				<attribute name="fused_names" version="0" value="Conv_54/WithoutBiases"/>
			</rt_info>
			<input>
				<port id="0" precision="FP32">
					<dim>1</dim>
					<dim>192</dim>
					<dim>8</dim>
					<dim>8</dim>
				</port>
				<port id="1" precision="FP32">
					<dim>192</dim>
					<dim>192</dim>
					<dim>3</dim>
					<dim>3</dim>
				</port>
			</input>
			<output>
				<port id="2" precision="FP32">
					<dim>1</dim>
					<dim>192</dim>
					<dim>8</dim>
					<dim>8</dim>
				</port>
			</output>
		</layer>
		<layer id="115" name="Reshape_591_compressed" type="Const" version="opset1">
			<data element_type="f16" shape="1, 192, 1, 1" offset="2343268" size="384"/>
			<output>
				<port id="0" precision="FP16">
					<dim>1</dim>
					<dim>192</dim>
					<dim>1</dim>
					<dim>1</dim>
				</port>
			</output>
		</layer>
		<layer id="116" name="Reshape_591" type="Convert" version="opset1">
			<data destination_type="f32"/>
			<rt_info>
				<attribute name="decompression" version="0"/>
			</rt_info>
			<input>
				<port id="0" precision="FP16">
					<dim>1</dim>
					<dim>192</dim>
					<dim>1</dim>
					<dim>1</dim>
				</port>
			</input>
			<output>
				<port id="1" precision="FP32">
					<dim>1</dim>
					<dim>192</dim>
					<dim>1</dim>
					<dim>1</dim>
				</port>
			</output>
		</layer>
		<layer id="117" name="Conv_54" type="Add" version="opset1">
			<data auto_broadcast="numpy"/>
			<rt_info>
				<attribute name="fused_names" version="0" value="Concat_590, Conv_54, Reshape_591"/>
			</rt_info>
			<input>
				<port id="0" precision="FP32">
					<dim>1</dim>
					<dim>192</dim>
					<dim>8</dim>
					<dim>8</dim>
				</port>
				<port id="1" precision="FP32">
					<dim>1</dim>
					<dim>192</dim>
					<dim>1</dim>
					<dim>1</dim>
				</port>
			</input>
			<output>
				<port id="2" precision="FP32" names="85">
					<dim>1</dim>
					<dim>192</dim>
					<dim>8</dim>
					<dim>8</dim>
				</port>
			</output>
		</layer>
		<layer id="118" name="Relu_55" type="ReLU" version="opset1">
			<rt_info>
				<attribute name="fused_names" version="0" value="Relu_55"/>
			</rt_info>
			<input>
				<port id="0" precision="FP32">
					<dim>1</dim>
					<dim>192</dim>
					<dim>8</dim>
					<dim>8</dim>
				</port>
			</input>
			<output>
				<port id="1" precision="FP32" names="86">
					<dim>1</dim>
					<dim>192</dim>
					<dim>8</dim>
					<dim>8</dim>
				</port>
			</output>
		</layer>
		<layer id="119" name="backbone.body.stage3.3.rbr_reparam.weight_compressed" type="Const" version="opset1">
			<data element_type="f16" shape="192, 192, 3, 3" offset="2343652" size="663552"/>
			<output>
				<port id="0" precision="FP16">
					<dim>192</dim>
					<dim>192</dim>
					<dim>3</dim>
					<dim>3</dim>
				</port>
			</output>
		</layer>
		<layer id="120" name="backbone.body.stage3.3.rbr_reparam.weight" type="Convert" version="opset1">
			<data destination_type="f32"/>
			<rt_info>
				<attribute name="decompression" version="0"/>
				<attribute name="fused_names" version="0" value="backbone.body.stage3.3.rbr_reparam.weight"/>
			</rt_info>
			<input>
				<port id="0" precision="FP16">
					<dim>192</dim>
					<dim>192</dim>
					<dim>3</dim>
					<dim>3</dim>
				</port>
			</input>
			<output>
				<port id="1" precision="FP32" names="backbone.body.stage3.3.rbr_reparam.weight">
					<dim>192</dim>
					<dim>192</dim>
					<dim>3</dim>
					<dim>3</dim>
				</port>
			</output>
		</layer>
		<layer id="121" name="Conv_56/WithoutBiases" type="Convolution" version="opset1">
			<data strides="1, 1" dilations="1, 1" pads_begin="1, 1" pads_end="1, 1" auto_pad="explicit"/>
			<rt_info>
				<attribute name="fused_names" version="0" value="Conv_56/WithoutBiases"/>
			</rt_info>
			<input>
				<port id="0" precision="FP32">
					<dim>1</dim>
					<dim>192</dim>
					<dim>8</dim>
					<dim>8</dim>
				</port>
				<port id="1" precision="FP32">
					<dim>192</dim>
					<dim>192</dim>
					<dim>3</dim>
					<dim>3</dim>
				</port>
			</input>
			<output>
				<port id="2" precision="FP32">
					<dim>1</dim>
					<dim>192</dim>
					<dim>8</dim>
					<dim>8</dim>
				</port>
			</output>
		</layer>
		<layer id="122" name="Reshape_640_compressed" type="Const" version="opset1">
			<data element_type="f16" shape="1, 192, 1, 1" offset="3007204" size="384"/>
			<output>
				<port id="0" precision="FP16">
					<dim>1</dim>
					<dim>192</dim>
					<dim>1</dim>
					<dim>1</dim>
				</port>
			</output>
		</layer>
		<layer id="123" name="Reshape_640" type="Convert" version="opset1">
			<data destination_type="f32"/>
			<rt_info>
				<attribute name="decompression" version="0"/>
			</rt_info>
			<input>
				<port id="0" precision="FP16">
					<dim>1</dim>
					<dim>192</dim>
					<dim>1</dim>
					<dim>1</dim>
				</port>
			</input>
			<output>
				<port id="1" precision="FP32">
					<dim>1</dim>
					<dim>192</dim>
					<dim>1</dim>
					<dim>1</dim>
				</port>
			</output>
		</layer>
		<layer id="124" name="Conv_56" type="Add" version="opset1">
			<data auto_broadcast="numpy"/>
			<rt_info>
				<attribute name="fused_names" version="0" value="Concat_639, Conv_56, Reshape_640"/>
			</rt_info>
			<input>
				<port id="0" precision="FP32">
					<dim>1</dim>
					<dim>192</dim>
					<dim>8</dim>
					<dim>8</dim>
				</port>
				<port id="1" precision="FP32">
					<dim>1</dim>
					<dim>192</dim>
					<dim>1</dim>
					<dim>1</dim>
				</port>
			</input>
			<output>
				<port id="2" precision="FP32" names="87">
					<dim>1</dim>
					<dim>192</dim>
					<dim>8</dim>
					<dim>8</dim>
				</port>
			</output>
		</layer>
		<layer id="125" name="Relu_57" type="ReLU" version="opset1">
			<rt_info>
				<attribute name="fused_names" version="0" value="Relu_57"/>
			</rt_info>
			<input>
				<port id="0" precision="FP32">
					<dim>1</dim>
					<dim>192</dim>
					<dim>8</dim>
					<dim>8</dim>
				</port>
			</input>
			<output>
				<port id="1" precision="FP32" names="88">
					<dim>1</dim>
					<dim>192</dim>
					<dim>8</dim>
					<dim>8</dim>
				</port>
			</output>
		</layer>
		<layer id="126" name="bottleneck.weight_compressed" type="Const" version="opset1">
			<data element_type="f16" shape="128, 192, 1, 1" offset="3007588" size="49152"/>
			<output>
				<port id="0" precision="FP16">
					<dim>128</dim>
					<dim>192</dim>
					<dim>1</dim>
					<dim>1</dim>
				</port>
			</output>
		</layer>
		<layer id="127" name="bottleneck.weight" type="Convert" version="opset1">
			<data destination_type="f32"/>
			<rt_info>
				<attribute name="decompression" version="0"/>
				<attribute name="fused_names" version="0" value="bottleneck.weight"/>
			</rt_info>
			<input>
				<port id="0" precision="FP16">
					<dim>128</dim>
					<dim>192</dim>
					<dim>1</dim>
					<dim>1</dim>
				</port>
			</input>
			<output>
				<port id="1" precision="FP32" names="bottleneck.weight">
					<dim>128</dim>
					<dim>192</dim>
					<dim>1</dim>
					<dim>1</dim>
				</port>
			</output>
		</layer>
		<layer id="128" name="Conv_58/WithoutBiases" type="Convolution" version="opset1">
			<data strides="1, 1" dilations="1, 1" pads_begin="0, 0" pads_end="0, 0" auto_pad="explicit"/>
			<rt_info>
				<attribute name="fused_names" version="0" value="Conv_58/WithoutBiases"/>
			</rt_info>
			<input>
				<port id="0" precision="FP32">
					<dim>1</dim>
					<dim>192</dim>
					<dim>8</dim>
					<dim>8</dim>
				</port>
				<port id="1" precision="FP32">
					<dim>128</dim>
					<dim>192</dim>
					<dim>1</dim>
					<dim>1</dim>
				</port>
			</input>
			<output>
				<port id="2" precision="FP32">
					<dim>1</dim>
					<dim>128</dim>
					<dim>8</dim>
					<dim>8</dim>
				</port>
			</output>
		</layer>
		<layer id="129" name="Reshape_689_compressed" type="Const" version="opset1">
			<data element_type="f16" shape="1, 128, 1, 1" offset="3056740" size="256"/>
			<output>
				<port id="0" precision="FP16">
					<dim>1</dim>
					<dim>128</dim>
					<dim>1</dim>
					<dim>1</dim>
				</port>
			</output>
		</layer>
		<layer id="130" name="Reshape_689" type="Convert" version="opset1">
			<data destination_type="f32"/>
			<rt_info>
				<attribute name="decompression" version="0"/>
			</rt_info>
			<input>
				<port id="0" precision="FP16">
					<dim>1</dim>
					<dim>128</dim>
					<dim>1</dim>
					<dim>1</dim>
				</port>
			</input>
			<output>
				<port id="1" precision="FP32">
					<dim>1</dim>
					<dim>128</dim>
					<dim>1</dim>
					<dim>1</dim>
				</port>
			</output>
		</layer>
		<layer id="131" name="Conv_58" type="Add" version="opset1">
			<data auto_broadcast="numpy"/>
			<rt_info>
				<attribute name="fused_names" version="0" value="Concat_688, Conv_58, Reshape_689"/>
			</rt_info>
			<input>
				<port id="0" precision="FP32">
					<dim>1</dim>
					<dim>128</dim>
					<dim>8</dim>
					<dim>8</dim>
				</port>
				<port id="1" precision="FP32">
					<dim>1</dim>
					<dim>128</dim>
					<dim>1</dim>
					<dim>1</dim>
				</port>
			</input>
			<output>
				<port id="2" precision="FP32" names="89">
					<dim>1</dim>
					<dim>128</dim>
					<dim>8</dim>
					<dim>8</dim>
				</port>
			</output>
		</layer>
		<layer id="132" name="Shape_61" type="ShapeOf" version="opset3">
			<data output_type="i64"/>
			<rt_info>
				<attribute name="fused_names" version="0" value="Shape_104, Shape_61, Shape_64"/>
			</rt_info>
			<input>
				<port id="0" precision="FP32">
					<dim>1</dim>
					<dim>128</dim>
					<dim>8</dim>
					<dim>8</dim>
				</port>
			</input>
			<output>
				<port id="1" precision="I64" names="138,92,95">
					<dim>4</dim>
				</port>
			</output>
		</layer>
		<layer id="133" name="Constant_3046" type="Const" version="opset1">
			<data element_type="i64" shape="2" offset="3056996" size="16"/>
			<rt_info>
				<attribute name="fused_names" version="0" value="Concat_69"/>
			</rt_info>
			<output>
				<port id="0" precision="I64">
					<dim>2</dim>
				</port>
			</output>
		</layer>
		<layer id="134" name="Constant_3047" type="Const" version="opset1">
			<data element_type="i64" shape="" offset="16396" size="8"/>
			<output>
				<port id="0" precision="I64"/>
			</output>
		</layer>
		<layer id="135" name="Gather_3048" type="Gather" version="opset8">
			<data batch_dims="0"/>
			<rt_info>
				<attribute name="fused_names" version="0" value="Cast_76, Concat_69"/>
			</rt_info>
			<input>
				<port id="0" precision="I64">
					<dim>4</dim>
				</port>
				<port id="1" precision="I64">
					<dim>2</dim>
				</port>
				<port id="2" precision="I64"/>
			</input>
			<output>
				<port id="3" precision="I64" names="100,107">
					<dim>2</dim>
				</port>
			</output>
		</layer>
		<layer id="136" name="Concat_77" type="Concat" version="opset1">
			<data axis="0"/>
			<rt_info>
				<attribute name="fused_names" version="0" value="Concat_77"/>
			</rt_info>
			<input>
				<port id="0" precision="I64">
					<dim>2</dim>
				</port>
				<port id="1" precision="I64">
					<dim>2</dim>
				</port>
			</input>
			<output>
				<port id="2" precision="I64" names="108">
					<dim>4</dim>
				</port>
			</output>
		</layer>
		<layer id="137" name="Convert_762" type="Convert" version="opset1">
			<data destination_type="f32"/>
			<rt_info>
				<attribute name="fused_names" version="0" value="Convert_762"/>
			</rt_info>
			<input>
				<port id="0" precision="I64">
					<dim>4</dim>
				</port>
			</input>
			<output>
				<port id="1" precision="FP32">
					<dim>4</dim>
				</port>
			</output>
		</layer>
		<layer id="138" name="Convert_761" type="Convert" version="opset1">
			<data destination_type="f32"/>
			<rt_info>
				<attribute name="fused_names" version="0" value="Convert_761"/>
			</rt_info>
			<input>
				<port id="0" precision="I64">
					<dim>4</dim>
				</port>
			</input>
			<output>
				<port id="1" precision="FP32">
					<dim>4</dim>
				</port>
			</output>
		</layer>
		<layer id="139" name="Divide_763" type="Divide" version="opset1">
			<data auto_broadcast="numpy" m_pythondiv="true"/>
			<rt_info>
				<attribute name="fused_names" version="0" value="Divide_763"/>
			</rt_info>
			<input>
				<port id="0" precision="FP32">
					<dim>4</dim>
				</port>
				<port id="1" precision="FP32">
					<dim>4</dim>
				</port>
			</input>
			<output>
				<port id="2" precision="FP32">
					<dim>4</dim>
				</port>
			</output>
		</layer>
		<layer id="140" name="Constant_3442" type="Const" version="opset1">
			<data element_type="f32" shape="1" offset="3057012" size="4"/>
			<output>
				<port id="0" precision="FP32">
					<dim>1</dim>
				</port>
			</output>
		</layer>
		<layer id="141" name="Add_765" type="Add" version="opset1">
			<data auto_broadcast="numpy"/>
			<rt_info>
				<attribute name="fused_names" version="0" value="Add_765"/>
			</rt_info>
			<input>
				<port id="0" precision="FP32">
					<dim>4</dim>
				</port>
				<port id="1" precision="FP32">
					<dim>1</dim>
				</port>
			</input>
			<output>
				<port id="2" precision="FP32">
					<dim>4</dim>
				</port>
			</output>
		</layer>
		<layer id="142" name="Resize_79" type="Interpolate" version="opset4">
			<data mode="nearest" shape_calculation_mode="sizes" coordinate_transformation_mode="asymmetric" nearest_mode="floor" antialias="false" pads_begin="0, 0, 0, 0" pads_end="0, 0, 0, 0" cube_coeff="-0.75"/>
			<rt_info>
				<attribute name="fused_names" version="0" value="Resize_79"/>
			</rt_info>
			<input>
				<port id="0" precision="FP32">
					<dim>1</dim>
					<dim>1</dim>
					<dim>128</dim>
					<dim>128</dim>
				</port>
				<port id="1" precision="I64">
					<dim>4</dim>
				</port>
				<port id="2" precision="FP32">
					<dim>4</dim>
				</port>
			</input>
			<output>
				<port id="3" precision="FP32" names="110">
					<dim>1</dim>
					<dim>1</dim>
					<dim>8</dim>
					<dim>8</dim>
				</port>
			</output>
		</layer>
		<layer id="143" name="Cast_80" type="Convert" version="opset1">
			<data destination_type="boolean"/>
			<rt_info>
				<attribute name="fused_names" version="0" value="Cast_80"/>
			</rt_info>
			<input>
				<port id="0" precision="FP32">
					<dim>1</dim>
					<dim>1</dim>
					<dim>8</dim>
					<dim>8</dim>
				</port>
			</input>
			<output>
				<port id="1" precision="BOOL" names="111">
					<dim>1</dim>
					<dim>1</dim>
					<dim>8</dim>
					<dim>8</dim>
				</port>
			</output>
		</layer>
		<layer id="144" name="Constant_81" type="Const" version="opset1">
			<data element_type="i64" shape="" offset="16396" size="8"/>
			<rt_info>
				<attribute name="fused_names" version="0" value="Constant_81"/>
			</rt_info>
			<output>
				<port id="0" precision="I64" names="112"/>
			</output>
		</layer>
		<layer id="145" name="Constant_844" type="Const" version="opset1">
			<data element_type="i64" shape="" offset="16396" size="8"/>
			<rt_info>
				<attribute name="fused_names" version="0" value="Constant_844"/>
			</rt_info>
			<output>
				<port id="0" precision="I64"/>
			</output>
		</layer>
		<layer id="146" name="Gather_82" type="Gather" version="opset8">
			<data batch_dims="0"/>
			<rt_info>
				<attribute name="fused_names" version="0" value="Gather_82"/>
			</rt_info>
			<input>
				<port id="0" precision="BOOL">
					<dim>1</dim>
					<dim>1</dim>
					<dim>8</dim>
					<dim>8</dim>
				</port>
				<port id="1" precision="I64"/>
				<port id="2" precision="I64"/>
			</input>
			<output>
				<port id="3" precision="BOOL" names="113">
					<dim>1</dim>
					<dim>8</dim>
					<dim>8</dim>
				</port>
			</output>
		</layer>
		<layer id="147" name="Constant_1083" type="Const" version="opset1">
			<data element_type="i64" shape="2" offset="3057016" size="16"/>
			<rt_info>
				<attribute name="fused_names" version="0" value="Constant_1083"/>
			</rt_info>
			<output>
				<port id="0" precision="I64">
					<dim>2</dim>
				</port>
			</output>
		</layer>
		<layer id="148" name="mask_z" type="Reshape" version="opset1">
			<data special_zero="true"/>
			<rt_info>
				<attribute name="fused_names" version="0" value="mask_z"/>
			</rt_info>
			<input>
				<port id="0" precision="BOOL">
					<dim>1</dim>
					<dim>8</dim>
					<dim>8</dim>
				</port>
				<port id="1" precision="I64">
					<dim>2</dim>
				</port>
			</input>
			<output>
				<port id="2" precision="BOOL" names="mask_z">
					<dim>1</dim>
					<dim>64</dim>
				</port>
			</output>
		</layer>
		<layer id="150" name="Constant_106" type="Const" version="opset1">
			<data element_type="i64" shape="1" offset="16396" size="8"/>
			<rt_info>
				<attribute name="fused_names" version="0" value="Broadcast_969, Constant_105, Constant_106, Constant_107, ShapeOf_968, Slice_108"/>
			</rt_info>
			<output>
				<port id="0" precision="I64" names="140">
					<dim>1</dim>
				</port>
			</output>
		</layer>
		<layer id="151" name="Constant_107" type="Const" version="opset1">
			<data element_type="i64" shape="1" offset="16404" size="8"/>
			<rt_info>
				<attribute name="fused_names" version="0" value="Broadcast_969, Constant_105, Constant_106, Constant_107, ShapeOf_968, Slice_108"/>
			</rt_info>
			<output>
				<port id="0" precision="I64" names="141">
					<dim>1</dim>
				</port>
			</output>
		</layer>
		<layer id="152" name="Broadcast_969" type="Const" version="opset1">
			<data element_type="i64" shape="1" offset="16384" size="8"/>
			<rt_info>
				<attribute name="fused_names" version="0" value="Broadcast_969, Constant_105, Constant_106, Constant_107, ShapeOf_968, Slice_108"/>
			</rt_info>
			<output>
				<port id="0" precision="I64">
					<dim>1</dim>
				</port>
			</output>
		</layer>
		<layer id="153" name="Slice_108" type="StridedSlice" version="opset1">
			<data begin_mask="0" end_mask="0" new_axis_mask="" shrink_axis_mask="" ellipsis_mask=""/>
			<rt_info>
				<attribute name="fused_names" version="0" value="Broadcast_969, Constant_105, Constant_106, Constant_107, ShapeOf_968, Slice_108"/>
			</rt_info>
			<input>
				<port id="0" precision="I64">
					<dim>4</dim>
				</port>
				<port id="1" precision="I64">
					<dim>1</dim>
				</port>
				<port id="2" precision="I64">
					<dim>1</dim>
				</port>
				<port id="3" precision="I64">
					<dim>1</dim>
				</port>
			</input>
			<output>
				<port id="4" precision="I64" names="142">
					<dim>2</dim>
				</port>
			</output>
		</layer>
		<layer id="154" name="Constant_109" type="Const" version="opset1">
			<data element_type="i64" shape="1" offset="3057032" size="8"/>
			<rt_info>
				<attribute name="fused_names" version="0" value="Constant_109"/>
			</rt_info>
			<output>
				<port id="0" precision="I64" names="143">
					<dim>1</dim>
				</port>
			</output>
		</layer>
		<layer id="155" name="Concat_110" type="Concat" version="opset1">
			<data axis="0"/>
			<rt_info>
				<attribute name="fused_names" version="0" value="Concat_110, Constant_109"/>
			</rt_info>
			<input>
				<port id="0" precision="I64">
					<dim>2</dim>
				</port>
				<port id="1" precision="I64">
					<dim>1</dim>
				</port>
			</input>
			<output>
				<port id="2" precision="I64" names="144">
					<dim>3</dim>
				</port>
			</output>
		</layer>
		<layer id="156" name="Reshape_111" type="Reshape" version="opset1">
			<data special_zero="true"/>
			<rt_info>
				<attribute name="fused_names" version="0" value="Reshape_111"/>
			</rt_info>
			<input>
				<port id="0" precision="FP32">
					<dim>1</dim>
					<dim>128</dim>
					<dim>8</dim>
					<dim>8</dim>
				</port>
				<port id="1" precision="I64">
					<dim>3</dim>
				</port>
			</input>
			<output>
				<port id="2" precision="FP32" names="145">
					<dim>1</dim>
					<dim>128</dim>
					<dim>64</dim>
				</port>
			</output>
		</layer>
		<layer id="157" name="Constant_1021" type="Const" version="opset1">
			<data element_type="i64" shape="3" offset="3057040" size="24"/>
			<rt_info>
				<attribute name="fused_names" version="0" value="Constant_1021"/>
			</rt_info>
			<output>
				<port id="0" precision="I64">
					<dim>3</dim>
				</port>
			</output>
		</layer>
		<layer id="158" name="feat_z" type="Transpose" version="opset1">
			<rt_info>
				<attribute name="fused_names" version="0" value="feat_z"/>
			</rt_info>
			<input>
				<port id="0" precision="FP32">
					<dim>1</dim>
					<dim>128</dim>
					<dim>64</dim>
				</port>
				<port id="1" precision="I64">
					<dim>3</dim>
				</port>
			</input>
			<output>
				<port id="2" precision="FP32" names="feat_z">
					<dim>64</dim>
					<dim>1</dim>
					<dim>128</dim>
				</port>
			</output>
		</layer>
		<layer id="159" name="feat_z/sink_port_0" type="Result" version="opset1">
			<rt_info>
				<attribute name="fused_names" version="0" value="feat_z/sink_port_0"/>
			</rt_info>
			<input>
				<port id="0" precision="FP32">
					<dim>64</dim>
					<dim>1</dim>
					<dim>128</dim>
				</port>
			</input>
		</layer>
		<layer id="149" name="mask_z/sink_port_0" type="Result" version="opset1">
			<rt_info>
				<attribute name="fused_names" version="0" value="mask_z/sink_port_0"/>
			</rt_info>
			<input>
				<port id="0" precision="BOOL">
					<dim>1</dim>
					<dim>64</dim>
				</port>
			</input>
		</layer>
		<layer id="3" name="pos_z/sink_port_0" type="Result" version="opset1">
			<rt_info>
				<attribute name="fused_names" version="0" value="Concat_97, ConstantOfShape_101, ConstantOfShape_89, ConstantOfShape_94, Convert_875, Convert_911, Convert_950, Expand_102, Expand_90, Expand_95, Gather_85, Gather_86, Reshape_120, Tile_103, Tile_91, Tile_96, Transpose_98, Unsqueeze_87, Unsqueeze_92, Unsqueeze_99, pos_z, pos_z/sink_port_0"/>
			</rt_info>
			<input>
				<port id="0" precision="FP32">
					<dim>64</dim>
					<dim>1</dim>
					<dim>128</dim>
				</port>
			</input>
		</layer>
	</layers>
	<edges>
		<edge from-layer="0" from-port="0" to-layer="45" to-port="0"/>
		<edge from-layer="0" from-port="0" to-layer="5" to-port="0"/>
		<edge from-layer="1" from-port="0" to-layer="2" to-port="0"/>
		<edge from-layer="2" from-port="1" to-layer="3" to-port="0"/>
		<edge from-layer="4" from-port="0" to-layer="5" to-port="1"/>
		<edge from-layer="5" from-port="2" to-layer="8" to-port="0"/>
		<edge from-layer="6" from-port="0" to-layer="7" to-port="0"/>
		<edge from-layer="7" from-port="1" to-layer="8" to-port="1"/>
		<edge from-layer="8" from-port="2" to-layer="9" to-port="0"/>
		<edge from-layer="9" from-port="1" to-layer="12" to-port="0"/>
		<edge from-layer="10" from-port="0" to-layer="11" to-port="0"/>
		<edge from-layer="11" from-port="1" to-layer="12" to-port="1"/>
		<edge from-layer="12" from-port="2" to-layer="14" to-port="0"/>
		<edge from-layer="13" from-port="0" to-layer="14" to-port="1"/>
		<edge from-layer="14" from-port="2" to-layer="15" to-port="0"/>
		<edge from-layer="15" from-port="1" to-layer="16" to-port="0"/>
		<edge from-layer="16" from-port="1" to-layer="17" to-port="0"/>
		<edge from-layer="16" from-port="1" to-layer="23" to-port="2"/>
		<edge from-layer="16" from-port="1" to-layer="23" to-port="1"/>
		<edge from-layer="17" from-port="1" to-layer="20" to-port="0"/>
		<edge from-layer="18" from-port="0" to-layer="20" to-port="1"/>
		<edge from-layer="19" from-port="0" to-layer="20" to-port="2"/>
		<edge from-layer="20" from-port="3" to-layer="22" to-port="0"/>
		<edge from-layer="21" from-port="0" to-layer="22" to-port="1"/>
		<edge from-layer="22" from-port="2" to-layer="23" to-port="0"/>
		<edge from-layer="23" from-port="3" to-layer="24" to-port="0"/>
		<edge from-layer="23" from-port="3" to-layer="30" to-port="2"/>
		<edge from-layer="23" from-port="3" to-layer="30" to-port="1"/>
		<edge from-layer="24" from-port="1" to-layer="27" to-port="0"/>
		<edge from-layer="25" from-port="0" to-layer="27" to-port="1"/>
		<edge from-layer="26" from-port="0" to-layer="27" to-port="2"/>
		<edge from-layer="27" from-port="3" to-layer="29" to-port="0"/>
		<edge from-layer="28" from-port="0" to-layer="29" to-port="1"/>
		<edge from-layer="29" from-port="2" to-layer="30" to-port="0"/>
		<edge from-layer="30" from-port="3" to-layer="31" to-port="0"/>
		<edge from-layer="31" from-port="1" to-layer="32" to-port="0"/>
		<edge from-layer="32" from-port="1" to-layer="34" to-port="0"/>
		<edge from-layer="33" from-port="0" to-layer="34" to-port="1"/>
		<edge from-layer="34" from-port="2" to-layer="36" to-port="0"/>
		<edge from-layer="35" from-port="0" to-layer="36" to-port="1"/>
		<edge from-layer="36" from-port="2" to-layer="37" to-port="0"/>
		<edge from-layer="37" from-port="1" to-layer="38" to-port="0"/>
		<edge from-layer="37" from-port="1" to-layer="142" to-port="0"/>
		<edge from-layer="38" from-port="1" to-layer="42" to-port="0"/>
		<edge from-layer="38" from-port="1" to-layer="138" to-port="0"/>
		<edge from-layer="39" from-port="0" to-layer="42" to-port="1"/>
		<edge from-layer="40" from-port="0" to-layer="42" to-port="2"/>
		<edge from-layer="41" from-port="0" to-layer="42" to-port="3"/>
		<edge from-layer="42" from-port="4" to-layer="136" to-port="0"/>
		<edge from-layer="43" from-port="0" to-layer="44" to-port="0"/>
		<edge from-layer="44" from-port="1" to-layer="45" to-port="1"/>
		<edge from-layer="45" from-port="2" to-layer="48" to-port="0"/>
		<edge from-layer="46" from-port="0" to-layer="47" to-port="0"/>
		<edge from-layer="47" from-port="1" to-layer="48" to-port="1"/>
		<edge from-layer="48" from-port="2" to-layer="51" to-port="0"/>
		<edge from-layer="49" from-port="0" to-layer="50" to-port="0"/>
		<edge from-layer="50" from-port="1" to-layer="51" to-port="1"/>
		<edge from-layer="51" from-port="2" to-layer="54" to-port="0"/>
		<edge from-layer="52" from-port="0" to-layer="53" to-port="0"/>
		<edge from-layer="53" from-port="1" to-layer="54" to-port="1"/>
		<edge from-layer="54" from-port="2" to-layer="55" to-port="0"/>
		<edge from-layer="55" from-port="1" to-layer="58" to-port="0"/>
		<edge from-layer="56" from-port="0" to-layer="57" to-port="0"/>
		<edge from-layer="57" from-port="1" to-layer="58" to-port="1"/>
		<edge from-layer="58" from-port="2" to-layer="61" to-port="0"/>
		<edge from-layer="59" from-port="0" to-layer="60" to-port="0"/>
		<edge from-layer="60" from-port="1" to-layer="61" to-port="1"/>
		<edge from-layer="61" from-port="2" to-layer="62" to-port="0"/>
		<edge from-layer="62" from-port="1" to-layer="65" to-port="0"/>
		<edge from-layer="63" from-port="0" to-layer="64" to-port="0"/>
		<edge from-layer="64" from-port="1" to-layer="65" to-port="1"/>
		<edge from-layer="65" from-port="2" to-layer="68" to-port="0"/>
		<edge from-layer="66" from-port="0" to-layer="67" to-port="0"/>
		<edge from-layer="67" from-port="1" to-layer="68" to-port="1"/>
		<edge from-layer="68" from-port="2" to-layer="69" to-port="0"/>
		<edge from-layer="69" from-port="1" to-layer="72" to-port="0"/>
		<edge from-layer="70" from-port="0" to-layer="71" to-port="0"/>
		<edge from-layer="71" from-port="1" to-layer="72" to-port="1"/>
		<edge from-layer="72" from-port="2" to-layer="75" to-port="0"/>
		<edge from-layer="73" from-port="0" to-layer="74" to-port="0"/>
		<edge from-layer="74" from-port="1" to-layer="75" to-port="1"/>
		<edge from-layer="75" from-port="2" to-layer="76" to-port="0"/>
		<edge from-layer="76" from-port="1" to-layer="79" to-port="0"/>
		<edge from-layer="77" from-port="0" to-layer="78" to-port="0"/>
		<edge from-layer="78" from-port="1" to-layer="79" to-port="1"/>
		<edge from-layer="79" from-port="2" to-layer="82" to-port="0"/>
		<edge from-layer="80" from-port="0" to-layer="81" to-port="0"/>
		<edge from-layer="81" from-port="1" to-layer="82" to-port="1"/>
		<edge from-layer="82" from-port="2" to-layer="83" to-port="0"/>
		<edge from-layer="83" from-port="1" to-layer="86" to-port="0"/>
		<edge from-layer="84" from-port="0" to-layer="85" to-port="0"/>
		<edge from-layer="85" from-port="1" to-layer="86" to-port="1"/>
		<edge from-layer="86" from-port="2" to-layer="89" to-port="0"/>
		<edge from-layer="87" from-port="0" to-layer="88" to-port="0"/>
		<edge from-layer="88" from-port="1" to-layer="89" to-port="1"/>
		<edge from-layer="89" from-port="2" to-layer="90" to-port="0"/>
		<edge from-layer="90" from-port="1" to-layer="93" to-port="0"/>
		<edge from-layer="91" from-port="0" to-layer="92" to-port="0"/>
		<edge from-layer="92" from-port="1" to-layer="93" to-port="1"/>
		<edge from-layer="93" from-port="2" to-layer="96" to-port="0"/>
		<edge from-layer="94" from-port="0" to-layer="95" to-port="0"/>
		<edge from-layer="95" from-port="1" to-layer="96" to-port="1"/>
		<edge from-layer="96" from-port="2" to-layer="97" to-port="0"/>
		<edge from-layer="97" from-port="1" to-layer="100" to-port="0"/>
		<edge from-layer="98" from-port="0" to-layer="99" to-port="0"/>
		<edge from-layer="99" from-port="1" to-layer="100" to-port="1"/>
		<edge from-layer="100" from-port="2" to-layer="103" to-port="0"/>
		<edge from-layer="101" from-port="0" to-layer="102" to-port="0"/>
		<edge from-layer="102" from-port="1" to-layer="103" to-port="1"/>
		<edge from-layer="103" from-port="2" to-layer="104" to-port="0"/>
		<edge from-layer="104" from-port="1" to-layer="107" to-port="0"/>
		<edge from-layer="105" from-port="0" to-layer="106" to-port="0"/>
		<edge from-layer="106" from-port="1" to-layer="107" to-port="1"/>
		<edge from-layer="107" from-port="2" to-layer="110" to-port="0"/>
		<edge from-layer="108" from-port="0" to-layer="109" to-port="0"/>
		<edge from-layer="109" from-port="1" to-layer="110" to-port="1"/>
		<edge from-layer="110" from-port="2" to-layer="111" to-port="0"/>
		<edge from-layer="111" from-port="1" to-layer="114" to-port="0"/>
		<edge from-layer="112" from-port="0" to-layer="113" to-port="0"/>
		<edge from-layer="113" from-port="1" to-layer="114" to-port="1"/>
		<edge from-layer="114" from-port="2" to-layer="117" to-port="0"/>
		<edge from-layer="115" from-port="0" to-layer="116" to-port="0"/>
		<edge from-layer="116" from-port="1" to-layer="117" to-port="1"/>
		<edge from-layer="117" from-port="2" to-layer="118" to-port="0"/>
		<edge from-layer="118" from-port="1" to-layer="121" to-port="0"/>
		<edge from-layer="119" from-port="0" to-layer="120" to-port="0"/>
		<edge from-layer="120" from-port="1" to-layer="121" to-port="1"/>
		<edge from-layer="121" from-port="2" to-layer="124" to-port="0"/>
		<edge from-layer="122" from-port="0" to-layer="123" to-port="0"/>
		<edge from-layer="123" from-port="1" to-layer="124" to-port="1"/>
		<edge from-layer="124" from-port="2" to-layer="125" to-port="0"/>
		<edge from-layer="125" from-port="1" to-layer="128" to-port="0"/>
		<edge from-layer="126" from-port="0" to-layer="127" to-port="0"/>
		<edge from-layer="127" from-port="1" to-layer="128" to-port="1"/>
		<edge from-layer="128" from-port="2" to-layer="131" to-port="0"/>
		<edge from-layer="129" from-port="0" to-layer="130" to-port="0"/>
		<edge from-layer="130" from-port="1" to-layer="131" to-port="1"/>
		<edge from-layer="131" from-port="2" to-layer="132" to-port="0"/>
		<edge from-layer="131" from-port="2" to-layer="156" to-port="0"/>
		<edge from-layer="132" from-port="1" to-layer="153" to-port="0"/>
		<edge from-layer="132" from-port="1" to-layer="135" to-port="0"/>
		<edge from-layer="133" from-port="0" to-layer="135" to-port="1"/>
		<edge from-layer="134" from-port="0" to-layer="135" to-port="2"/>
		<edge from-layer="135" from-port="3" to-layer="136" to-port="1"/>
		<edge from-layer="136" from-port="2" to-layer="137" to-port="0"/>
		<edge from-layer="136" from-port="2" to-layer="142" to-port="1"/>
		<edge from-layer="137" from-port="1" to-layer="139" to-port="0"/>
		<edge from-layer="138" from-port="1" to-layer="139" to-port="1"/>
		<edge from-layer="139" from-port="2" to-layer="141" to-port="0"/>
		<edge from-layer="140" from-port="0" to-layer="141" to-port="1"/>
		<edge from-layer="141" from-port="2" to-layer="142" to-port="2"/>
		<edge from-layer="142" from-port="3" to-layer="143" to-port="0"/>
		<edge from-layer="143" from-port="1" to-layer="146" to-port="0"/>
		<edge from-layer="144" from-port="0" to-layer="146" to-port="1"/>
		<edge from-layer="145" from-port="0" to-layer="146" to-port="2"/>
		<edge from-layer="146" from-port="3" to-layer="148" to-port="0"/>
		<edge from-layer="147" from-port="0" to-layer="148" to-port="1"/>
		<edge from-layer="148" from-port="2" to-layer="149" to-port="0"/>
		<edge from-layer="150" from-port="0" to-layer="153" to-port="1"/>
		<edge from-layer="151" from-port="0" to-layer="153" to-port="2"/>
		<edge from-layer="152" from-port="0" to-layer="153" to-port="3"/>
		<edge from-layer="153" from-port="4" to-layer="155" to-port="0"/>
		<edge from-layer="154" from-port="0" to-layer="155" to-port="1"/>
		<edge from-layer="155" from-port="2" to-layer="156" to-port="1"/>
		<edge from-layer="156" from-port="2" to-layer="158" to-port="0"/>
		<edge from-layer="157" from-port="0" to-layer="158" to-port="1"/>
		<edge from-layer="158" from-port="2" to-layer="159" to-port="0"/>
	</edges>
	<meta_data>
		<MO_version value="2022.2.0-7713-af16ea1d79a-releases/2022/2"/>
		<Runtime_version value="2022.2.0-7713-af16ea1d79a-releases/2022/2"/>
		<legacy_path value="False"/>
		<cli_parameters>
			<caffe_parser_path value="DIR"/>
			<compress_fp16 value="True"/>
			<data_type value="FP32"/>
			<disable_nhwc_to_nchw value="False"/>
			<disable_omitting_optional value="False"/>
			<disable_resnet_optimization value="False"/>
			<disable_weights_compression value="False"/>
			<enable_concat_optimization value="False"/>
			<enable_flattening_nested_params value="False"/>
			<enable_ssd_gluoncv value="False"/>
			<extensions value="DIR"/>
			<framework value="onnx"/>
			<freeze_placeholder_with_value value="{}"/>
			<input value="img"/>
			<input_model value="DIR/backbone_bottleneck_pe.onnx"/>
			<input_model_is_text value="False"/>
			<input_shape value="[1,3,128,128]"/>
			<k value="DIR/CustomLayersMapping.xml"/>
			<layout value="()"/>
			<layout_values value="{}"/>
			<legacy_mxnet_model value="False"/>
			<log_level value="DEBUG"/>
			<mean_scale_values value="{}"/>
			<mean_values value="()"/>
			<model_name value="backbone_bottleneck_pe"/>
			<output value="['feat_z', 'mask_z', 'pos_z']"/>
			<output_dir value="DIR"/>
			<placeholder_data_types value="{}"/>
			<placeholder_shapes value="{'img': (1, 3, 128, 128)}"/>
			<progress value="False"/>
			<remove_memory value="False"/>
			<remove_output_softmax value="False"/>
			<reverse_input_channels value="False"/>
			<save_params_from_nd value="False"/>
			<scale_values value="()"/>
			<silent value="False"/>
			<source_layout value="()"/>
			<static_shape value="False"/>
			<stream_output value="False"/>
			<target_layout value="()"/>
			<transform value=""/>
			<use_legacy_frontend value="False"/>
			<use_new_frontend value="False"/>
			<unset unset_cli_parameters="batch, counts, disable_fusing, finegrain_fusing, input_checkpoint, input_meta_graph, input_proto, input_symbol, mean_file, mean_file_offsets, nd_prefix_name, pretrained_model_name, saved_model_dir, saved_model_tags, scale, tensorboard_logdir, tensorflow_custom_layer_libraries, tensorflow_custom_operations_config_update, tensorflow_object_detection_api_pipeline_config, tensorflow_use_custom_operations_config, transformations_config"/>
		</cli_parameters>
	</meta_data>
</net>
