<?xml version="1.0" ?>
<net name="torch-jit-export" version="11">
	<layers>
		<layer id="3" name="img_x" type="Parameter" version="opset1">
			<data shape="1,3,320,320" element_type="f32"/>
			<rt_info>
				<attribute name="fused_names" version="0" value="Cast_0, img_x"/>
				<attribute name="old_api_map_element_type" version="0" value="f16"/>
			</rt_info>
			<output>
				<port id="0" precision="FP32" names="48,img_x">
					<dim>1</dim>
					<dim>3</dim>
					<dim>320</dim>
					<dim>320</dim>
				</port>
			</output>
		</layer>
		<layer id="2" name="feat_z" type="Parameter" version="opset1">
			<data shape="64,1,128" element_type="f32"/>
			<rt_info>
				<attribute name="fused_names" version="0" value="feat_z"/>
				<attribute name="old_api_map_element_type" version="0" value="f16"/>
			</rt_info>
			<output>
				<port id="0" precision="FP32" names="feat_z">
					<dim>64</dim>
					<dim>1</dim>
					<dim>128</dim>
				</port>
			</output>
		</layer>
		<layer id="1" name="mask_z" type="Parameter" version="opset1">
			<data shape="1,64" element_type="boolean"/>
			<rt_info>
				<attribute name="fused_names" version="0" value="mask_z"/>
			</rt_info>
			<output>
				<port id="0" precision="BOOL" names="mask_z">
					<dim>1</dim>
					<dim>64</dim>
				</port>
			</output>
		</layer>
		<layer id="0" name="pos_z" type="Parameter" version="opset1">
			<data shape="64,1,128" element_type="f32"/>
			<rt_info>
				<attribute name="fused_names" version="0" value="pos_z"/>
				<attribute name="old_api_map_element_type" version="0" value="f16"/>
			</rt_info>
			<output>
				<port id="0" precision="FP32" names="pos_z">
					<dim>64</dim>
					<dim>1</dim>
					<dim>128</dim>
				</port>
			</output>
		</layer>
		<layer id="4" name="Constant_13368_compressed" type="Const" version="opset1">
			<data element_type="f16" shape="1, 400" offset="0" size="800"/>
			<output>
				<port id="0" precision="FP16">
					<dim>1</dim>
					<dim>400</dim>
				</port>
			</output>
		</layer>
		<layer id="5" name="Constant_13368" type="Convert" version="opset1">
			<data destination_type="f32"/>
			<rt_info>
				<attribute name="decompression" version="0"/>
			</rt_info>
			<input>
				<port id="0" precision="FP16">
					<dim>1</dim>
					<dim>400</dim>
				</port>
			</input>
			<output>
				<port id="1" precision="FP32">
					<dim>1</dim>
					<dim>400</dim>
				</port>
			</output>
		</layer>
		<layer id="6" name="Constant_13357_compressed" type="Const" version="opset1">
			<data element_type="f16" shape="1, 1, 1, 1" offset="800" size="2"/>
			<output>
				<port id="0" precision="FP16">
					<dim>1</dim>
					<dim>1</dim>
					<dim>1</dim>
					<dim>1</dim>
				</port>
			</output>
		</layer>
		<layer id="7" name="Constant_13357" type="Convert" version="opset1">
			<data destination_type="f32"/>
			<rt_info>
				<attribute name="decompression" version="0"/>
			</rt_info>
			<input>
				<port id="0" precision="FP16">
					<dim>1</dim>
					<dim>1</dim>
					<dim>1</dim>
					<dim>1</dim>
				</port>
			</input>
			<output>
				<port id="1" precision="FP32">
					<dim>1</dim>
					<dim>1</dim>
					<dim>1</dim>
					<dim>1</dim>
				</port>
			</output>
		</layer>
		<layer id="8" name="Div_26" type="Multiply" version="opset1">
			<data auto_broadcast="numpy"/>
			<rt_info>
				<attribute name="fused_names" version="0" value="Constant_25, Div_26"/>
			</rt_info>
			<input>
				<port id="0" precision="FP32">
					<dim>1</dim>
					<dim>3</dim>
					<dim>320</dim>
					<dim>320</dim>
				</port>
				<port id="1" precision="FP32">
					<dim>1</dim>
					<dim>1</dim>
					<dim>1</dim>
					<dim>1</dim>
				</port>
			</input>
			<output>
				<port id="2" precision="FP32" names="74">
					<dim>1</dim>
					<dim>3</dim>
					<dim>320</dim>
					<dim>320</dim>
				</port>
			</output>
		</layer>
		<layer id="9" name="Constant_27_compressed" type="Const" version="opset1">
			<data element_type="f16" shape="1, 3, 1, 1" offset="802" size="6"/>
			<output>
				<port id="0" precision="FP16">
					<dim>1</dim>
					<dim>3</dim>
					<dim>1</dim>
					<dim>1</dim>
				</port>
			</output>
		</layer>
		<layer id="10" name="Constant_27" type="Convert" version="opset1">
			<data destination_type="f32"/>
			<rt_info>
				<attribute name="decompression" version="0"/>
				<attribute name="fused_names" version="0" value="Constant_27"/>
			</rt_info>
			<input>
				<port id="0" precision="FP16">
					<dim>1</dim>
					<dim>3</dim>
					<dim>1</dim>
					<dim>1</dim>
				</port>
			</input>
			<output>
				<port id="1" precision="FP32" names="75">
					<dim>1</dim>
					<dim>3</dim>
					<dim>1</dim>
					<dim>1</dim>
				</port>
			</output>
		</layer>
		<layer id="11" name="Sub_28" type="Subtract" version="opset1">
			<data auto_broadcast="numpy"/>
			<rt_info>
				<attribute name="fused_names" version="0" value="Sub_28"/>
			</rt_info>
			<input>
				<port id="0" precision="FP32">
					<dim>1</dim>
					<dim>3</dim>
					<dim>320</dim>
					<dim>320</dim>
				</port>
				<port id="1" precision="FP32">
					<dim>1</dim>
					<dim>3</dim>
					<dim>1</dim>
					<dim>1</dim>
				</port>
			</input>
			<output>
				<port id="2" precision="FP32" names="76">
					<dim>1</dim>
					<dim>3</dim>
					<dim>320</dim>
					<dim>320</dim>
				</port>
			</output>
		</layer>
		<layer id="12" name="Constant_13292_compressed" type="Const" version="opset1">
			<data element_type="f16" shape="48, 3, 3, 3" offset="808" size="2592"/>
			<output>
				<port id="0" precision="FP16">
					<dim>48</dim>
					<dim>3</dim>
					<dim>3</dim>
					<dim>3</dim>
				</port>
			</output>
		</layer>
		<layer id="13" name="Constant_13292" type="Convert" version="opset1">
			<data destination_type="f32"/>
			<rt_info>
				<attribute name="decompression" version="0"/>
				<attribute name="fused_names" version="0" value="Constant_29, Conv_33/WithoutBiases, Div_30, backbone.body.stage0.rbr_reparam.weight"/>
			</rt_info>
			<input>
				<port id="0" precision="FP16">
					<dim>48</dim>
					<dim>3</dim>
					<dim>3</dim>
					<dim>3</dim>
				</port>
			</input>
			<output>
				<port id="1" precision="FP32">
					<dim>48</dim>
					<dim>3</dim>
					<dim>3</dim>
					<dim>3</dim>
				</port>
			</output>
		</layer>
		<layer id="14" name="Conv_33/WithoutBiases" type="Convolution" version="opset1">
			<data strides="2, 2" dilations="1, 1" pads_begin="1, 1" pads_end="1, 1" auto_pad="explicit"/>
			<rt_info>
				<attribute name="fused_names" version="0" value="Constant_29, Conv_33/WithoutBiases, Div_30, backbone.body.stage0.rbr_reparam.weight"/>
			</rt_info>
			<input>
				<port id="0" precision="FP32">
					<dim>1</dim>
					<dim>3</dim>
					<dim>320</dim>
					<dim>320</dim>
				</port>
				<port id="1" precision="FP32">
					<dim>48</dim>
					<dim>3</dim>
					<dim>3</dim>
					<dim>3</dim>
				</port>
			</input>
			<output>
				<port id="2" precision="FP32">
					<dim>1</dim>
					<dim>48</dim>
					<dim>160</dim>
					<dim>160</dim>
				</port>
			</output>
		</layer>
		<layer id="15" name="Reshape_185_compressed" type="Const" version="opset1">
			<data element_type="f16" shape="1, 48, 1, 1" offset="3400" size="96"/>
			<output>
				<port id="0" precision="FP16">
					<dim>1</dim>
					<dim>48</dim>
					<dim>1</dim>
					<dim>1</dim>
				</port>
			</output>
		</layer>
		<layer id="16" name="Reshape_185" type="Convert" version="opset1">
			<data destination_type="f32"/>
			<rt_info>
				<attribute name="decompression" version="0"/>
			</rt_info>
			<input>
				<port id="0" precision="FP16">
					<dim>1</dim>
					<dim>48</dim>
					<dim>1</dim>
					<dim>1</dim>
				</port>
			</input>
			<output>
				<port id="1" precision="FP32">
					<dim>1</dim>
					<dim>48</dim>
					<dim>1</dim>
					<dim>1</dim>
				</port>
			</output>
		</layer>
		<layer id="17" name="Conv_33" type="Add" version="opset1">
			<data auto_broadcast="numpy"/>
			<rt_info>
				<attribute name="fused_names" version="0" value="Concat_184, Conv_33, Reshape_185"/>
			</rt_info>
			<input>
				<port id="0" precision="FP32">
					<dim>1</dim>
					<dim>48</dim>
					<dim>160</dim>
					<dim>160</dim>
				</port>
				<port id="1" precision="FP32">
					<dim>1</dim>
					<dim>48</dim>
					<dim>1</dim>
					<dim>1</dim>
				</port>
			</input>
			<output>
				<port id="2" precision="FP32" names="81">
					<dim>1</dim>
					<dim>48</dim>
					<dim>160</dim>
					<dim>160</dim>
				</port>
			</output>
		</layer>
		<layer id="18" name="Relu_34" type="ReLU" version="opset1">
			<rt_info>
				<attribute name="fused_names" version="0" value="Relu_34"/>
			</rt_info>
			<input>
				<port id="0" precision="FP32">
					<dim>1</dim>
					<dim>48</dim>
					<dim>160</dim>
					<dim>160</dim>
				</port>
			</input>
			<output>
				<port id="1" precision="FP32" names="82">
					<dim>1</dim>
					<dim>48</dim>
					<dim>160</dim>
					<dim>160</dim>
				</port>
			</output>
		</layer>
		<layer id="19" name="backbone.body.stage1.0.rbr_reparam.weight_compressed" type="Const" version="opset1">
			<data element_type="f16" shape="48, 48, 3, 3" offset="3496" size="41472"/>
			<output>
				<port id="0" precision="FP16">
					<dim>48</dim>
					<dim>48</dim>
					<dim>3</dim>
					<dim>3</dim>
				</port>
			</output>
		</layer>
		<layer id="20" name="backbone.body.stage1.0.rbr_reparam.weight" type="Convert" version="opset1">
			<data destination_type="f32"/>
			<rt_info>
				<attribute name="decompression" version="0"/>
				<attribute name="fused_names" version="0" value="backbone.body.stage1.0.rbr_reparam.weight"/>
			</rt_info>
			<input>
				<port id="0" precision="FP16">
					<dim>48</dim>
					<dim>48</dim>
					<dim>3</dim>
					<dim>3</dim>
				</port>
			</input>
			<output>
				<port id="1" precision="FP32" names="backbone.body.stage1.0.rbr_reparam.weight">
					<dim>48</dim>
					<dim>48</dim>
					<dim>3</dim>
					<dim>3</dim>
				</port>
			</output>
		</layer>
		<layer id="21" name="Conv_35/WithoutBiases" type="Convolution" version="opset1">
			<data strides="2, 2" dilations="1, 1" pads_begin="1, 1" pads_end="1, 1" auto_pad="explicit"/>
			<rt_info>
				<attribute name="fused_names" version="0" value="Conv_35/WithoutBiases"/>
			</rt_info>
			<input>
				<port id="0" precision="FP32">
					<dim>1</dim>
					<dim>48</dim>
					<dim>160</dim>
					<dim>160</dim>
				</port>
				<port id="1" precision="FP32">
					<dim>48</dim>
					<dim>48</dim>
					<dim>3</dim>
					<dim>3</dim>
				</port>
			</input>
			<output>
				<port id="2" precision="FP32">
					<dim>1</dim>
					<dim>48</dim>
					<dim>80</dim>
					<dim>80</dim>
				</port>
			</output>
		</layer>
		<layer id="22" name="Reshape_234_compressed" type="Const" version="opset1">
			<data element_type="f16" shape="1, 48, 1, 1" offset="44968" size="96"/>
			<output>
				<port id="0" precision="FP16">
					<dim>1</dim>
					<dim>48</dim>
					<dim>1</dim>
					<dim>1</dim>
				</port>
			</output>
		</layer>
		<layer id="23" name="Reshape_234" type="Convert" version="opset1">
			<data destination_type="f32"/>
			<rt_info>
				<attribute name="decompression" version="0"/>
			</rt_info>
			<input>
				<port id="0" precision="FP16">
					<dim>1</dim>
					<dim>48</dim>
					<dim>1</dim>
					<dim>1</dim>
				</port>
			</input>
			<output>
				<port id="1" precision="FP32">
					<dim>1</dim>
					<dim>48</dim>
					<dim>1</dim>
					<dim>1</dim>
				</port>
			</output>
		</layer>
		<layer id="24" name="Conv_35" type="Add" version="opset1">
			<data auto_broadcast="numpy"/>
			<rt_info>
				<attribute name="fused_names" version="0" value="Concat_233, Conv_35, Reshape_234"/>
			</rt_info>
			<input>
				<port id="0" precision="FP32">
					<dim>1</dim>
					<dim>48</dim>
					<dim>80</dim>
					<dim>80</dim>
				</port>
				<port id="1" precision="FP32">
					<dim>1</dim>
					<dim>48</dim>
					<dim>1</dim>
					<dim>1</dim>
				</port>
			</input>
			<output>
				<port id="2" precision="FP32" names="83">
					<dim>1</dim>
					<dim>48</dim>
					<dim>80</dim>
					<dim>80</dim>
				</port>
			</output>
		</layer>
		<layer id="25" name="Relu_36" type="ReLU" version="opset1">
			<rt_info>
				<attribute name="fused_names" version="0" value="Relu_36"/>
			</rt_info>
			<input>
				<port id="0" precision="FP32">
					<dim>1</dim>
					<dim>48</dim>
					<dim>80</dim>
					<dim>80</dim>
				</port>
			</input>
			<output>
				<port id="1" precision="FP32" names="84">
					<dim>1</dim>
					<dim>48</dim>
					<dim>80</dim>
					<dim>80</dim>
				</port>
			</output>
		</layer>
		<layer id="26" name="backbone.body.stage1.1.rbr_reparam.weight_compressed" type="Const" version="opset1">
			<data element_type="f16" shape="48, 48, 3, 3" offset="45064" size="41472"/>
			<output>
				<port id="0" precision="FP16">
					<dim>48</dim>
					<dim>48</dim>
					<dim>3</dim>
					<dim>3</dim>
				</port>
			</output>
		</layer>
		<layer id="27" name="backbone.body.stage1.1.rbr_reparam.weight" type="Convert" version="opset1">
			<data destination_type="f32"/>
			<rt_info>
				<attribute name="decompression" version="0"/>
				<attribute name="fused_names" version="0" value="backbone.body.stage1.1.rbr_reparam.weight"/>
			</rt_info>
			<input>
				<port id="0" precision="FP16">
					<dim>48</dim>
					<dim>48</dim>
					<dim>3</dim>
					<dim>3</dim>
				</port>
			</input>
			<output>
				<port id="1" precision="FP32" names="backbone.body.stage1.1.rbr_reparam.weight">
					<dim>48</dim>
					<dim>48</dim>
					<dim>3</dim>
					<dim>3</dim>
				</port>
			</output>
		</layer>
		<layer id="28" name="Conv_37/WithoutBiases" type="Convolution" version="opset1">
			<data strides="1, 1" dilations="1, 1" pads_begin="1, 1" pads_end="1, 1" auto_pad="explicit"/>
			<rt_info>
				<attribute name="fused_names" version="0" value="Conv_37/WithoutBiases"/>
			</rt_info>
			<input>
				<port id="0" precision="FP32">
					<dim>1</dim>
					<dim>48</dim>
					<dim>80</dim>
					<dim>80</dim>
				</port>
				<port id="1" precision="FP32">
					<dim>48</dim>
					<dim>48</dim>
					<dim>3</dim>
					<dim>3</dim>
				</port>
			</input>
			<output>
				<port id="2" precision="FP32">
					<dim>1</dim>
					<dim>48</dim>
					<dim>80</dim>
					<dim>80</dim>
				</port>
			</output>
		</layer>
		<layer id="29" name="Reshape_283_compressed" type="Const" version="opset1">
			<data element_type="f16" shape="1, 48, 1, 1" offset="86536" size="96"/>
			<output>
				<port id="0" precision="FP16">
					<dim>1</dim>
					<dim>48</dim>
					<dim>1</dim>
					<dim>1</dim>
				</port>
			</output>
		</layer>
		<layer id="30" name="Reshape_283" type="Convert" version="opset1">
			<data destination_type="f32"/>
			<rt_info>
				<attribute name="decompression" version="0"/>
			</rt_info>
			<input>
				<port id="0" precision="FP16">
					<dim>1</dim>
					<dim>48</dim>
					<dim>1</dim>
					<dim>1</dim>
				</port>
			</input>
			<output>
				<port id="1" precision="FP32">
					<dim>1</dim>
					<dim>48</dim>
					<dim>1</dim>
					<dim>1</dim>
				</port>
			</output>
		</layer>
		<layer id="31" name="Conv_37" type="Add" version="opset1">
			<data auto_broadcast="numpy"/>
			<rt_info>
				<attribute name="fused_names" version="0" value="Concat_282, Conv_37, Reshape_283"/>
			</rt_info>
			<input>
				<port id="0" precision="FP32">
					<dim>1</dim>
					<dim>48</dim>
					<dim>80</dim>
					<dim>80</dim>
				</port>
				<port id="1" precision="FP32">
					<dim>1</dim>
					<dim>48</dim>
					<dim>1</dim>
					<dim>1</dim>
				</port>
			</input>
			<output>
				<port id="2" precision="FP32" names="85">
					<dim>1</dim>
					<dim>48</dim>
					<dim>80</dim>
					<dim>80</dim>
				</port>
			</output>
		</layer>
		<layer id="32" name="Relu_38" type="ReLU" version="opset1">
			<rt_info>
				<attribute name="fused_names" version="0" value="Relu_38"/>
			</rt_info>
			<input>
				<port id="0" precision="FP32">
					<dim>1</dim>
					<dim>48</dim>
					<dim>80</dim>
					<dim>80</dim>
				</port>
			</input>
			<output>
				<port id="1" precision="FP32" names="86">
					<dim>1</dim>
					<dim>48</dim>
					<dim>80</dim>
					<dim>80</dim>
				</port>
			</output>
		</layer>
		<layer id="33" name="backbone.body.stage2.0.rbr_reparam.weight_compressed" type="Const" version="opset1">
			<data element_type="f16" shape="96, 48, 3, 3" offset="86632" size="82944"/>
			<output>
				<port id="0" precision="FP16">
					<dim>96</dim>
					<dim>48</dim>
					<dim>3</dim>
					<dim>3</dim>
				</port>
			</output>
		</layer>
		<layer id="34" name="backbone.body.stage2.0.rbr_reparam.weight" type="Convert" version="opset1">
			<data destination_type="f32"/>
			<rt_info>
				<attribute name="decompression" version="0"/>
				<attribute name="fused_names" version="0" value="backbone.body.stage2.0.rbr_reparam.weight"/>
			</rt_info>
			<input>
				<port id="0" precision="FP16">
					<dim>96</dim>
					<dim>48</dim>
					<dim>3</dim>
					<dim>3</dim>
				</port>
			</input>
			<output>
				<port id="1" precision="FP32" names="backbone.body.stage2.0.rbr_reparam.weight">
					<dim>96</dim>
					<dim>48</dim>
					<dim>3</dim>
					<dim>3</dim>
				</port>
			</output>
		</layer>
		<layer id="35" name="Conv_39/WithoutBiases" type="Convolution" version="opset1">
			<data strides="2, 2" dilations="1, 1" pads_begin="1, 1" pads_end="1, 1" auto_pad="explicit"/>
			<rt_info>
				<attribute name="fused_names" version="0" value="Conv_39/WithoutBiases"/>
			</rt_info>
			<input>
				<port id="0" precision="FP32">
					<dim>1</dim>
					<dim>48</dim>
					<dim>80</dim>
					<dim>80</dim>
				</port>
				<port id="1" precision="FP32">
					<dim>96</dim>
					<dim>48</dim>
					<dim>3</dim>
					<dim>3</dim>
				</port>
			</input>
			<output>
				<port id="2" precision="FP32">
					<dim>1</dim>
					<dim>96</dim>
					<dim>40</dim>
					<dim>40</dim>
				</port>
			</output>
		</layer>
		<layer id="36" name="Reshape_332_compressed" type="Const" version="opset1">
			<data element_type="f16" shape="1, 96, 1, 1" offset="169576" size="192"/>
			<output>
				<port id="0" precision="FP16">
					<dim>1</dim>
					<dim>96</dim>
					<dim>1</dim>
					<dim>1</dim>
				</port>
			</output>
		</layer>
		<layer id="37" name="Reshape_332" type="Convert" version="opset1">
			<data destination_type="f32"/>
			<rt_info>
				<attribute name="decompression" version="0"/>
			</rt_info>
			<input>
				<port id="0" precision="FP16">
					<dim>1</dim>
					<dim>96</dim>
					<dim>1</dim>
					<dim>1</dim>
				</port>
			</input>
			<output>
				<port id="1" precision="FP32">
					<dim>1</dim>
					<dim>96</dim>
					<dim>1</dim>
					<dim>1</dim>
				</port>
			</output>
		</layer>
		<layer id="38" name="Conv_39" type="Add" version="opset1">
			<data auto_broadcast="numpy"/>
			<rt_info>
				<attribute name="fused_names" version="0" value="Concat_331, Conv_39, Reshape_332"/>
			</rt_info>
			<input>
				<port id="0" precision="FP32">
					<dim>1</dim>
					<dim>96</dim>
					<dim>40</dim>
					<dim>40</dim>
				</port>
				<port id="1" precision="FP32">
					<dim>1</dim>
					<dim>96</dim>
					<dim>1</dim>
					<dim>1</dim>
				</port>
			</input>
			<output>
				<port id="2" precision="FP32" names="87">
					<dim>1</dim>
					<dim>96</dim>
					<dim>40</dim>
					<dim>40</dim>
				</port>
			</output>
		</layer>
		<layer id="39" name="Relu_40" type="ReLU" version="opset1">
			<rt_info>
				<attribute name="fused_names" version="0" value="Relu_40"/>
			</rt_info>
			<input>
				<port id="0" precision="FP32">
					<dim>1</dim>
					<dim>96</dim>
					<dim>40</dim>
					<dim>40</dim>
				</port>
			</input>
			<output>
				<port id="1" precision="FP32" names="88">
					<dim>1</dim>
					<dim>96</dim>
					<dim>40</dim>
					<dim>40</dim>
				</port>
			</output>
		</layer>
		<layer id="40" name="backbone.body.stage2.1.rbr_reparam.weight_compressed" type="Const" version="opset1">
			<data element_type="f16" shape="96, 96, 3, 3" offset="169768" size="165888"/>
			<output>
				<port id="0" precision="FP16">
					<dim>96</dim>
					<dim>96</dim>
					<dim>3</dim>
					<dim>3</dim>
				</port>
			</output>
		</layer>
		<layer id="41" name="backbone.body.stage2.1.rbr_reparam.weight" type="Convert" version="opset1">
			<data destination_type="f32"/>
			<rt_info>
				<attribute name="decompression" version="0"/>
				<attribute name="fused_names" version="0" value="backbone.body.stage2.1.rbr_reparam.weight"/>
			</rt_info>
			<input>
				<port id="0" precision="FP16">
					<dim>96</dim>
					<dim>96</dim>
					<dim>3</dim>
					<dim>3</dim>
				</port>
			</input>
			<output>
				<port id="1" precision="FP32" names="backbone.body.stage2.1.rbr_reparam.weight">
					<dim>96</dim>
					<dim>96</dim>
					<dim>3</dim>
					<dim>3</dim>
				</port>
			</output>
		</layer>
		<layer id="42" name="Conv_41/WithoutBiases" type="Convolution" version="opset1">
			<data strides="1, 1" dilations="1, 1" pads_begin="1, 1" pads_end="1, 1" auto_pad="explicit"/>
			<rt_info>
				<attribute name="fused_names" version="0" value="Conv_41/WithoutBiases"/>
			</rt_info>
			<input>
				<port id="0" precision="FP32">
					<dim>1</dim>
					<dim>96</dim>
					<dim>40</dim>
					<dim>40</dim>
				</port>
				<port id="1" precision="FP32">
					<dim>96</dim>
					<dim>96</dim>
					<dim>3</dim>
					<dim>3</dim>
				</port>
			</input>
			<output>
				<port id="2" precision="FP32">
					<dim>1</dim>
					<dim>96</dim>
					<dim>40</dim>
					<dim>40</dim>
				</port>
			</output>
		</layer>
		<layer id="43" name="Reshape_381_compressed" type="Const" version="opset1">
			<data element_type="f16" shape="1, 96, 1, 1" offset="335656" size="192"/>
			<output>
				<port id="0" precision="FP16">
					<dim>1</dim>
					<dim>96</dim>
					<dim>1</dim>
					<dim>1</dim>
				</port>
			</output>
		</layer>
		<layer id="44" name="Reshape_381" type="Convert" version="opset1">
			<data destination_type="f32"/>
			<rt_info>
				<attribute name="decompression" version="0"/>
			</rt_info>
			<input>
				<port id="0" precision="FP16">
					<dim>1</dim>
					<dim>96</dim>
					<dim>1</dim>
					<dim>1</dim>
				</port>
			</input>
			<output>
				<port id="1" precision="FP32">
					<dim>1</dim>
					<dim>96</dim>
					<dim>1</dim>
					<dim>1</dim>
				</port>
			</output>
		</layer>
		<layer id="45" name="Conv_41" type="Add" version="opset1">
			<data auto_broadcast="numpy"/>
			<rt_info>
				<attribute name="fused_names" version="0" value="Concat_380, Conv_41, Reshape_381"/>
			</rt_info>
			<input>
				<port id="0" precision="FP32">
					<dim>1</dim>
					<dim>96</dim>
					<dim>40</dim>
					<dim>40</dim>
				</port>
				<port id="1" precision="FP32">
					<dim>1</dim>
					<dim>96</dim>
					<dim>1</dim>
					<dim>1</dim>
				</port>
			</input>
			<output>
				<port id="2" precision="FP32" names="89">
					<dim>1</dim>
					<dim>96</dim>
					<dim>40</dim>
					<dim>40</dim>
				</port>
			</output>
		</layer>
		<layer id="46" name="Relu_42" type="ReLU" version="opset1">
			<rt_info>
				<attribute name="fused_names" version="0" value="Relu_42"/>
			</rt_info>
			<input>
				<port id="0" precision="FP32">
					<dim>1</dim>
					<dim>96</dim>
					<dim>40</dim>
					<dim>40</dim>
				</port>
			</input>
			<output>
				<port id="1" precision="FP32" names="90">
					<dim>1</dim>
					<dim>96</dim>
					<dim>40</dim>
					<dim>40</dim>
				</port>
			</output>
		</layer>
		<layer id="47" name="backbone.body.stage2.2.rbr_reparam.weight_compressed" type="Const" version="opset1">
			<data element_type="f16" shape="96, 96, 3, 3" offset="335848" size="165888"/>
			<output>
				<port id="0" precision="FP16">
					<dim>96</dim>
					<dim>96</dim>
					<dim>3</dim>
					<dim>3</dim>
				</port>
			</output>
		</layer>
		<layer id="48" name="backbone.body.stage2.2.rbr_reparam.weight" type="Convert" version="opset1">
			<data destination_type="f32"/>
			<rt_info>
				<attribute name="decompression" version="0"/>
				<attribute name="fused_names" version="0" value="backbone.body.stage2.2.rbr_reparam.weight"/>
			</rt_info>
			<input>
				<port id="0" precision="FP16">
					<dim>96</dim>
					<dim>96</dim>
					<dim>3</dim>
					<dim>3</dim>
				</port>
			</input>
			<output>
				<port id="1" precision="FP32" names="backbone.body.stage2.2.rbr_reparam.weight">
					<dim>96</dim>
					<dim>96</dim>
					<dim>3</dim>
					<dim>3</dim>
				</port>
			</output>
		</layer>
		<layer id="49" name="Conv_43/WithoutBiases" type="Convolution" version="opset1">
			<data strides="1, 1" dilations="1, 1" pads_begin="1, 1" pads_end="1, 1" auto_pad="explicit"/>
			<rt_info>
				<attribute name="fused_names" version="0" value="Conv_43/WithoutBiases"/>
			</rt_info>
			<input>
				<port id="0" precision="FP32">
					<dim>1</dim>
					<dim>96</dim>
					<dim>40</dim>
					<dim>40</dim>
				</port>
				<port id="1" precision="FP32">
					<dim>96</dim>
					<dim>96</dim>
					<dim>3</dim>
					<dim>3</dim>
				</port>
			</input>
			<output>
				<port id="2" precision="FP32">
					<dim>1</dim>
					<dim>96</dim>
					<dim>40</dim>
					<dim>40</dim>
				</port>
			</output>
		</layer>
		<layer id="50" name="Reshape_430_compressed" type="Const" version="opset1">
			<data element_type="f16" shape="1, 96, 1, 1" offset="501736" size="192"/>
			<output>
				<port id="0" precision="FP16">
					<dim>1</dim>
					<dim>96</dim>
					<dim>1</dim>
					<dim>1</dim>
				</port>
			</output>
		</layer>
		<layer id="51" name="Reshape_430" type="Convert" version="opset1">
			<data destination_type="f32"/>
			<rt_info>
				<attribute name="decompression" version="0"/>
			</rt_info>
			<input>
				<port id="0" precision="FP16">
					<dim>1</dim>
					<dim>96</dim>
					<dim>1</dim>
					<dim>1</dim>
				</port>
			</input>
			<output>
				<port id="1" precision="FP32">
					<dim>1</dim>
					<dim>96</dim>
					<dim>1</dim>
					<dim>1</dim>
				</port>
			</output>
		</layer>
		<layer id="52" name="Conv_43" type="Add" version="opset1">
			<data auto_broadcast="numpy"/>
			<rt_info>
				<attribute name="fused_names" version="0" value="Concat_429, Conv_43, Reshape_430"/>
			</rt_info>
			<input>
				<port id="0" precision="FP32">
					<dim>1</dim>
					<dim>96</dim>
					<dim>40</dim>
					<dim>40</dim>
				</port>
				<port id="1" precision="FP32">
					<dim>1</dim>
					<dim>96</dim>
					<dim>1</dim>
					<dim>1</dim>
				</port>
			</input>
			<output>
				<port id="2" precision="FP32" names="91">
					<dim>1</dim>
					<dim>96</dim>
					<dim>40</dim>
					<dim>40</dim>
				</port>
			</output>
		</layer>
		<layer id="53" name="Relu_44" type="ReLU" version="opset1">
			<rt_info>
				<attribute name="fused_names" version="0" value="Relu_44"/>
			</rt_info>
			<input>
				<port id="0" precision="FP32">
					<dim>1</dim>
					<dim>96</dim>
					<dim>40</dim>
					<dim>40</dim>
				</port>
			</input>
			<output>
				<port id="1" precision="FP32" names="92">
					<dim>1</dim>
					<dim>96</dim>
					<dim>40</dim>
					<dim>40</dim>
				</port>
			</output>
		</layer>
		<layer id="54" name="backbone.body.stage2.3.rbr_reparam.weight_compressed" type="Const" version="opset1">
			<data element_type="f16" shape="96, 96, 3, 3" offset="501928" size="165888"/>
			<output>
				<port id="0" precision="FP16">
					<dim>96</dim>
					<dim>96</dim>
					<dim>3</dim>
					<dim>3</dim>
				</port>
			</output>
		</layer>
		<layer id="55" name="backbone.body.stage2.3.rbr_reparam.weight" type="Convert" version="opset1">
			<data destination_type="f32"/>
			<rt_info>
				<attribute name="decompression" version="0"/>
				<attribute name="fused_names" version="0" value="backbone.body.stage2.3.rbr_reparam.weight"/>
			</rt_info>
			<input>
				<port id="0" precision="FP16">
					<dim>96</dim>
					<dim>96</dim>
					<dim>3</dim>
					<dim>3</dim>
				</port>
			</input>
			<output>
				<port id="1" precision="FP32" names="backbone.body.stage2.3.rbr_reparam.weight">
					<dim>96</dim>
					<dim>96</dim>
					<dim>3</dim>
					<dim>3</dim>
				</port>
			</output>
		</layer>
		<layer id="56" name="Conv_45/WithoutBiases" type="Convolution" version="opset1">
			<data strides="1, 1" dilations="1, 1" pads_begin="1, 1" pads_end="1, 1" auto_pad="explicit"/>
			<rt_info>
				<attribute name="fused_names" version="0" value="Conv_45/WithoutBiases"/>
			</rt_info>
			<input>
				<port id="0" precision="FP32">
					<dim>1</dim>
					<dim>96</dim>
					<dim>40</dim>
					<dim>40</dim>
				</port>
				<port id="1" precision="FP32">
					<dim>96</dim>
					<dim>96</dim>
					<dim>3</dim>
					<dim>3</dim>
				</port>
			</input>
			<output>
				<port id="2" precision="FP32">
					<dim>1</dim>
					<dim>96</dim>
					<dim>40</dim>
					<dim>40</dim>
				</port>
			</output>
		</layer>
		<layer id="57" name="Reshape_479_compressed" type="Const" version="opset1">
			<data element_type="f16" shape="1, 96, 1, 1" offset="667816" size="192"/>
			<output>
				<port id="0" precision="FP16">
					<dim>1</dim>
					<dim>96</dim>
					<dim>1</dim>
					<dim>1</dim>
				</port>
			</output>
		</layer>
		<layer id="58" name="Reshape_479" type="Convert" version="opset1">
			<data destination_type="f32"/>
			<rt_info>
				<attribute name="decompression" version="0"/>
			</rt_info>
			<input>
				<port id="0" precision="FP16">
					<dim>1</dim>
					<dim>96</dim>
					<dim>1</dim>
					<dim>1</dim>
				</port>
			</input>
			<output>
				<port id="1" precision="FP32">
					<dim>1</dim>
					<dim>96</dim>
					<dim>1</dim>
					<dim>1</dim>
				</port>
			</output>
		</layer>
		<layer id="59" name="Conv_45" type="Add" version="opset1">
			<data auto_broadcast="numpy"/>
			<rt_info>
				<attribute name="fused_names" version="0" value="Concat_478, Conv_45, Reshape_479"/>
			</rt_info>
			<input>
				<port id="0" precision="FP32">
					<dim>1</dim>
					<dim>96</dim>
					<dim>40</dim>
					<dim>40</dim>
				</port>
				<port id="1" precision="FP32">
					<dim>1</dim>
					<dim>96</dim>
					<dim>1</dim>
					<dim>1</dim>
				</port>
			</input>
			<output>
				<port id="2" precision="FP32" names="93">
					<dim>1</dim>
					<dim>96</dim>
					<dim>40</dim>
					<dim>40</dim>
				</port>
			</output>
		</layer>
		<layer id="60" name="Relu_46" type="ReLU" version="opset1">
			<rt_info>
				<attribute name="fused_names" version="0" value="Relu_46"/>
			</rt_info>
			<input>
				<port id="0" precision="FP32">
					<dim>1</dim>
					<dim>96</dim>
					<dim>40</dim>
					<dim>40</dim>
				</port>
			</input>
			<output>
				<port id="1" precision="FP32" names="94">
					<dim>1</dim>
					<dim>96</dim>
					<dim>40</dim>
					<dim>40</dim>
				</port>
			</output>
		</layer>
		<layer id="61" name="backbone.body.stage3.0.rbr_reparam.weight_compressed" type="Const" version="opset1">
			<data element_type="f16" shape="192, 96, 3, 3" offset="668008" size="331776"/>
			<output>
				<port id="0" precision="FP16">
					<dim>192</dim>
					<dim>96</dim>
					<dim>3</dim>
					<dim>3</dim>
				</port>
			</output>
		</layer>
		<layer id="62" name="backbone.body.stage3.0.rbr_reparam.weight" type="Convert" version="opset1">
			<data destination_type="f32"/>
			<rt_info>
				<attribute name="decompression" version="0"/>
				<attribute name="fused_names" version="0" value="backbone.body.stage3.0.rbr_reparam.weight"/>
			</rt_info>
			<input>
				<port id="0" precision="FP16">
					<dim>192</dim>
					<dim>96</dim>
					<dim>3</dim>
					<dim>3</dim>
				</port>
			</input>
			<output>
				<port id="1" precision="FP32" names="backbone.body.stage3.0.rbr_reparam.weight">
					<dim>192</dim>
					<dim>96</dim>
					<dim>3</dim>
					<dim>3</dim>
				</port>
			</output>
		</layer>
		<layer id="63" name="Conv_47/WithoutBiases" type="Convolution" version="opset1">
			<data strides="2, 2" dilations="1, 1" pads_begin="1, 1" pads_end="1, 1" auto_pad="explicit"/>
			<rt_info>
				<attribute name="fused_names" version="0" value="Conv_47/WithoutBiases"/>
			</rt_info>
			<input>
				<port id="0" precision="FP32">
					<dim>1</dim>
					<dim>96</dim>
					<dim>40</dim>
					<dim>40</dim>
				</port>
				<port id="1" precision="FP32">
					<dim>192</dim>
					<dim>96</dim>
					<dim>3</dim>
					<dim>3</dim>
				</port>
			</input>
			<output>
				<port id="2" precision="FP32">
					<dim>1</dim>
					<dim>192</dim>
					<dim>20</dim>
					<dim>20</dim>
				</port>
			</output>
		</layer>
		<layer id="64" name="Reshape_528_compressed" type="Const" version="opset1">
			<data element_type="f16" shape="1, 192, 1, 1" offset="999784" size="384"/>
			<output>
				<port id="0" precision="FP16">
					<dim>1</dim>
					<dim>192</dim>
					<dim>1</dim>
					<dim>1</dim>
				</port>
			</output>
		</layer>
		<layer id="65" name="Reshape_528" type="Convert" version="opset1">
			<data destination_type="f32"/>
			<rt_info>
				<attribute name="decompression" version="0"/>
			</rt_info>
			<input>
				<port id="0" precision="FP16">
					<dim>1</dim>
					<dim>192</dim>
					<dim>1</dim>
					<dim>1</dim>
				</port>
			</input>
			<output>
				<port id="1" precision="FP32">
					<dim>1</dim>
					<dim>192</dim>
					<dim>1</dim>
					<dim>1</dim>
				</port>
			</output>
		</layer>
		<layer id="66" name="Conv_47" type="Add" version="opset1">
			<data auto_broadcast="numpy"/>
			<rt_info>
				<attribute name="fused_names" version="0" value="Concat_527, Conv_47, Reshape_528"/>
			</rt_info>
			<input>
				<port id="0" precision="FP32">
					<dim>1</dim>
					<dim>192</dim>
					<dim>20</dim>
					<dim>20</dim>
				</port>
				<port id="1" precision="FP32">
					<dim>1</dim>
					<dim>192</dim>
					<dim>1</dim>
					<dim>1</dim>
				</port>
			</input>
			<output>
				<port id="2" precision="FP32" names="95">
					<dim>1</dim>
					<dim>192</dim>
					<dim>20</dim>
					<dim>20</dim>
				</port>
			</output>
		</layer>
		<layer id="67" name="Relu_48" type="ReLU" version="opset1">
			<rt_info>
				<attribute name="fused_names" version="0" value="Relu_48"/>
			</rt_info>
			<input>
				<port id="0" precision="FP32">
					<dim>1</dim>
					<dim>192</dim>
					<dim>20</dim>
					<dim>20</dim>
				</port>
			</input>
			<output>
				<port id="1" precision="FP32" names="96">
					<dim>1</dim>
					<dim>192</dim>
					<dim>20</dim>
					<dim>20</dim>
				</port>
			</output>
		</layer>
		<layer id="68" name="backbone.body.stage3.1.rbr_reparam.weight_compressed" type="Const" version="opset1">
			<data element_type="f16" shape="192, 192, 3, 3" offset="1000168" size="663552"/>
			<output>
				<port id="0" precision="FP16">
					<dim>192</dim>
					<dim>192</dim>
					<dim>3</dim>
					<dim>3</dim>
				</port>
			</output>
		</layer>
		<layer id="69" name="backbone.body.stage3.1.rbr_reparam.weight" type="Convert" version="opset1">
			<data destination_type="f32"/>
			<rt_info>
				<attribute name="decompression" version="0"/>
				<attribute name="fused_names" version="0" value="backbone.body.stage3.1.rbr_reparam.weight"/>
			</rt_info>
			<input>
				<port id="0" precision="FP16">
					<dim>192</dim>
					<dim>192</dim>
					<dim>3</dim>
					<dim>3</dim>
				</port>
			</input>
			<output>
				<port id="1" precision="FP32" names="backbone.body.stage3.1.rbr_reparam.weight">
					<dim>192</dim>
					<dim>192</dim>
					<dim>3</dim>
					<dim>3</dim>
				</port>
			</output>
		</layer>
		<layer id="70" name="Conv_49/WithoutBiases" type="Convolution" version="opset1">
			<data strides="1, 1" dilations="1, 1" pads_begin="1, 1" pads_end="1, 1" auto_pad="explicit"/>
			<rt_info>
				<attribute name="fused_names" version="0" value="Conv_49/WithoutBiases"/>
			</rt_info>
			<input>
				<port id="0" precision="FP32">
					<dim>1</dim>
					<dim>192</dim>
					<dim>20</dim>
					<dim>20</dim>
				</port>
				<port id="1" precision="FP32">
					<dim>192</dim>
					<dim>192</dim>
					<dim>3</dim>
					<dim>3</dim>
				</port>
			</input>
			<output>
				<port id="2" precision="FP32">
					<dim>1</dim>
					<dim>192</dim>
					<dim>20</dim>
					<dim>20</dim>
				</port>
			</output>
		</layer>
		<layer id="71" name="Reshape_577_compressed" type="Const" version="opset1">
			<data element_type="f16" shape="1, 192, 1, 1" offset="1663720" size="384"/>
			<output>
				<port id="0" precision="FP16">
					<dim>1</dim>
					<dim>192</dim>
					<dim>1</dim>
					<dim>1</dim>
				</port>
			</output>
		</layer>
		<layer id="72" name="Reshape_577" type="Convert" version="opset1">
			<data destination_type="f32"/>
			<rt_info>
				<attribute name="decompression" version="0"/>
			</rt_info>
			<input>
				<port id="0" precision="FP16">
					<dim>1</dim>
					<dim>192</dim>
					<dim>1</dim>
					<dim>1</dim>
				</port>
			</input>
			<output>
				<port id="1" precision="FP32">
					<dim>1</dim>
					<dim>192</dim>
					<dim>1</dim>
					<dim>1</dim>
				</port>
			</output>
		</layer>
		<layer id="73" name="Conv_49" type="Add" version="opset1">
			<data auto_broadcast="numpy"/>
			<rt_info>
				<attribute name="fused_names" version="0" value="Concat_576, Conv_49, Reshape_577"/>
			</rt_info>
			<input>
				<port id="0" precision="FP32">
					<dim>1</dim>
					<dim>192</dim>
					<dim>20</dim>
					<dim>20</dim>
				</port>
				<port id="1" precision="FP32">
					<dim>1</dim>
					<dim>192</dim>
					<dim>1</dim>
					<dim>1</dim>
				</port>
			</input>
			<output>
				<port id="2" precision="FP32" names="97">
					<dim>1</dim>
					<dim>192</dim>
					<dim>20</dim>
					<dim>20</dim>
				</port>
			</output>
		</layer>
		<layer id="74" name="Relu_50" type="ReLU" version="opset1">
			<rt_info>
				<attribute name="fused_names" version="0" value="Relu_50"/>
			</rt_info>
			<input>
				<port id="0" precision="FP32">
					<dim>1</dim>
					<dim>192</dim>
					<dim>20</dim>
					<dim>20</dim>
				</port>
			</input>
			<output>
				<port id="1" precision="FP32" names="98">
					<dim>1</dim>
					<dim>192</dim>
					<dim>20</dim>
					<dim>20</dim>
				</port>
			</output>
		</layer>
		<layer id="75" name="backbone.body.stage3.2.rbr_reparam.weight_compressed" type="Const" version="opset1">
			<data element_type="f16" shape="192, 192, 3, 3" offset="1664104" size="663552"/>
			<output>
				<port id="0" precision="FP16">
					<dim>192</dim>
					<dim>192</dim>
					<dim>3</dim>
					<dim>3</dim>
				</port>
			</output>
		</layer>
		<layer id="76" name="backbone.body.stage3.2.rbr_reparam.weight" type="Convert" version="opset1">
			<data destination_type="f32"/>
			<rt_info>
				<attribute name="decompression" version="0"/>
				<attribute name="fused_names" version="0" value="backbone.body.stage3.2.rbr_reparam.weight"/>
			</rt_info>
			<input>
				<port id="0" precision="FP16">
					<dim>192</dim>
					<dim>192</dim>
					<dim>3</dim>
					<dim>3</dim>
				</port>
			</input>
			<output>
				<port id="1" precision="FP32" names="backbone.body.stage3.2.rbr_reparam.weight">
					<dim>192</dim>
					<dim>192</dim>
					<dim>3</dim>
					<dim>3</dim>
				</port>
			</output>
		</layer>
		<layer id="77" name="Conv_51/WithoutBiases" type="Convolution" version="opset1">
			<data strides="1, 1" dilations="1, 1" pads_begin="1, 1" pads_end="1, 1" auto_pad="explicit"/>
			<rt_info>
				<attribute name="fused_names" version="0" value="Conv_51/WithoutBiases"/>
			</rt_info>
			<input>
				<port id="0" precision="FP32">
					<dim>1</dim>
					<dim>192</dim>
					<dim>20</dim>
					<dim>20</dim>
				</port>
				<port id="1" precision="FP32">
					<dim>192</dim>
					<dim>192</dim>
					<dim>3</dim>
					<dim>3</dim>
				</port>
			</input>
			<output>
				<port id="2" precision="FP32">
					<dim>1</dim>
					<dim>192</dim>
					<dim>20</dim>
					<dim>20</dim>
				</port>
			</output>
		</layer>
		<layer id="78" name="Reshape_626_compressed" type="Const" version="opset1">
			<data element_type="f16" shape="1, 192, 1, 1" offset="2327656" size="384"/>
			<output>
				<port id="0" precision="FP16">
					<dim>1</dim>
					<dim>192</dim>
					<dim>1</dim>
					<dim>1</dim>
				</port>
			</output>
		</layer>
		<layer id="79" name="Reshape_626" type="Convert" version="opset1">
			<data destination_type="f32"/>
			<rt_info>
				<attribute name="decompression" version="0"/>
			</rt_info>
			<input>
				<port id="0" precision="FP16">
					<dim>1</dim>
					<dim>192</dim>
					<dim>1</dim>
					<dim>1</dim>
				</port>
			</input>
			<output>
				<port id="1" precision="FP32">
					<dim>1</dim>
					<dim>192</dim>
					<dim>1</dim>
					<dim>1</dim>
				</port>
			</output>
		</layer>
		<layer id="80" name="Conv_51" type="Add" version="opset1">
			<data auto_broadcast="numpy"/>
			<rt_info>
				<attribute name="fused_names" version="0" value="Concat_625, Conv_51, Reshape_626"/>
			</rt_info>
			<input>
				<port id="0" precision="FP32">
					<dim>1</dim>
					<dim>192</dim>
					<dim>20</dim>
					<dim>20</dim>
				</port>
				<port id="1" precision="FP32">
					<dim>1</dim>
					<dim>192</dim>
					<dim>1</dim>
					<dim>1</dim>
				</port>
			</input>
			<output>
				<port id="2" precision="FP32" names="99">
					<dim>1</dim>
					<dim>192</dim>
					<dim>20</dim>
					<dim>20</dim>
				</port>
			</output>
		</layer>
		<layer id="81" name="Relu_52" type="ReLU" version="opset1">
			<rt_info>
				<attribute name="fused_names" version="0" value="Relu_52"/>
			</rt_info>
			<input>
				<port id="0" precision="FP32">
					<dim>1</dim>
					<dim>192</dim>
					<dim>20</dim>
					<dim>20</dim>
				</port>
			</input>
			<output>
				<port id="1" precision="FP32" names="100">
					<dim>1</dim>
					<dim>192</dim>
					<dim>20</dim>
					<dim>20</dim>
				</port>
			</output>
		</layer>
		<layer id="82" name="backbone.body.stage3.3.rbr_reparam.weight_compressed" type="Const" version="opset1">
			<data element_type="f16" shape="192, 192, 3, 3" offset="2328040" size="663552"/>
			<output>
				<port id="0" precision="FP16">
					<dim>192</dim>
					<dim>192</dim>
					<dim>3</dim>
					<dim>3</dim>
				</port>
			</output>
		</layer>
		<layer id="83" name="backbone.body.stage3.3.rbr_reparam.weight" type="Convert" version="opset1">
			<data destination_type="f32"/>
			<rt_info>
				<attribute name="decompression" version="0"/>
				<attribute name="fused_names" version="0" value="backbone.body.stage3.3.rbr_reparam.weight"/>
			</rt_info>
			<input>
				<port id="0" precision="FP16">
					<dim>192</dim>
					<dim>192</dim>
					<dim>3</dim>
					<dim>3</dim>
				</port>
			</input>
			<output>
				<port id="1" precision="FP32" names="backbone.body.stage3.3.rbr_reparam.weight">
					<dim>192</dim>
					<dim>192</dim>
					<dim>3</dim>
					<dim>3</dim>
				</port>
			</output>
		</layer>
		<layer id="84" name="Conv_53/WithoutBiases" type="Convolution" version="opset1">
			<data strides="1, 1" dilations="1, 1" pads_begin="1, 1" pads_end="1, 1" auto_pad="explicit"/>
			<rt_info>
				<attribute name="fused_names" version="0" value="Conv_53/WithoutBiases"/>
			</rt_info>
			<input>
				<port id="0" precision="FP32">
					<dim>1</dim>
					<dim>192</dim>
					<dim>20</dim>
					<dim>20</dim>
				</port>
				<port id="1" precision="FP32">
					<dim>192</dim>
					<dim>192</dim>
					<dim>3</dim>
					<dim>3</dim>
				</port>
			</input>
			<output>
				<port id="2" precision="FP32">
					<dim>1</dim>
					<dim>192</dim>
					<dim>20</dim>
					<dim>20</dim>
				</port>
			</output>
		</layer>
		<layer id="85" name="Reshape_675_compressed" type="Const" version="opset1">
			<data element_type="f16" shape="1, 192, 1, 1" offset="2991592" size="384"/>
			<output>
				<port id="0" precision="FP16">
					<dim>1</dim>
					<dim>192</dim>
					<dim>1</dim>
					<dim>1</dim>
				</port>
			</output>
		</layer>
		<layer id="86" name="Reshape_675" type="Convert" version="opset1">
			<data destination_type="f32"/>
			<rt_info>
				<attribute name="decompression" version="0"/>
			</rt_info>
			<input>
				<port id="0" precision="FP16">
					<dim>1</dim>
					<dim>192</dim>
					<dim>1</dim>
					<dim>1</dim>
				</port>
			</input>
			<output>
				<port id="1" precision="FP32">
					<dim>1</dim>
					<dim>192</dim>
					<dim>1</dim>
					<dim>1</dim>
				</port>
			</output>
		</layer>
		<layer id="87" name="Conv_53" type="Add" version="opset1">
			<data auto_broadcast="numpy"/>
			<rt_info>
				<attribute name="fused_names" version="0" value="Concat_674, Conv_53, Reshape_675"/>
			</rt_info>
			<input>
				<port id="0" precision="FP32">
					<dim>1</dim>
					<dim>192</dim>
					<dim>20</dim>
					<dim>20</dim>
				</port>
				<port id="1" precision="FP32">
					<dim>1</dim>
					<dim>192</dim>
					<dim>1</dim>
					<dim>1</dim>
				</port>
			</input>
			<output>
				<port id="2" precision="FP32" names="101">
					<dim>1</dim>
					<dim>192</dim>
					<dim>20</dim>
					<dim>20</dim>
				</port>
			</output>
		</layer>
		<layer id="88" name="Relu_54" type="ReLU" version="opset1">
			<rt_info>
				<attribute name="fused_names" version="0" value="Relu_54"/>
			</rt_info>
			<input>
				<port id="0" precision="FP32">
					<dim>1</dim>
					<dim>192</dim>
					<dim>20</dim>
					<dim>20</dim>
				</port>
			</input>
			<output>
				<port id="1" precision="FP32" names="102">
					<dim>1</dim>
					<dim>192</dim>
					<dim>20</dim>
					<dim>20</dim>
				</port>
			</output>
		</layer>
		<layer id="89" name="bottleneck.weight_compressed" type="Const" version="opset1">
			<data element_type="f16" shape="128, 192, 1, 1" offset="2991976" size="49152"/>
			<output>
				<port id="0" precision="FP16">
					<dim>128</dim>
					<dim>192</dim>
					<dim>1</dim>
					<dim>1</dim>
				</port>
			</output>
		</layer>
		<layer id="90" name="bottleneck.weight" type="Convert" version="opset1">
			<data destination_type="f32"/>
			<rt_info>
				<attribute name="decompression" version="0"/>
				<attribute name="fused_names" version="0" value="bottleneck.weight"/>
			</rt_info>
			<input>
				<port id="0" precision="FP16">
					<dim>128</dim>
					<dim>192</dim>
					<dim>1</dim>
					<dim>1</dim>
				</port>
			</input>
			<output>
				<port id="1" precision="FP32" names="bottleneck.weight">
					<dim>128</dim>
					<dim>192</dim>
					<dim>1</dim>
					<dim>1</dim>
				</port>
			</output>
		</layer>
		<layer id="91" name="Conv_55/WithoutBiases" type="Convolution" version="opset1">
			<data strides="1, 1" dilations="1, 1" pads_begin="0, 0" pads_end="0, 0" auto_pad="explicit"/>
			<rt_info>
				<attribute name="fused_names" version="0" value="Conv_55/WithoutBiases"/>
			</rt_info>
			<input>
				<port id="0" precision="FP32">
					<dim>1</dim>
					<dim>192</dim>
					<dim>20</dim>
					<dim>20</dim>
				</port>
				<port id="1" precision="FP32">
					<dim>128</dim>
					<dim>192</dim>
					<dim>1</dim>
					<dim>1</dim>
				</port>
			</input>
			<output>
				<port id="2" precision="FP32">
					<dim>1</dim>
					<dim>128</dim>
					<dim>20</dim>
					<dim>20</dim>
				</port>
			</output>
		</layer>
		<layer id="92" name="Reshape_724_compressed" type="Const" version="opset1">
			<data element_type="f16" shape="1, 128, 1, 1" offset="3041128" size="256"/>
			<output>
				<port id="0" precision="FP16">
					<dim>1</dim>
					<dim>128</dim>
					<dim>1</dim>
					<dim>1</dim>
				</port>
			</output>
		</layer>
		<layer id="93" name="Reshape_724" type="Convert" version="opset1">
			<data destination_type="f32"/>
			<rt_info>
				<attribute name="decompression" version="0"/>
			</rt_info>
			<input>
				<port id="0" precision="FP16">
					<dim>1</dim>
					<dim>128</dim>
					<dim>1</dim>
					<dim>1</dim>
				</port>
			</input>
			<output>
				<port id="1" precision="FP32">
					<dim>1</dim>
					<dim>128</dim>
					<dim>1</dim>
					<dim>1</dim>
				</port>
			</output>
		</layer>
		<layer id="94" name="Conv_55" type="Add" version="opset1">
			<data auto_broadcast="numpy"/>
			<rt_info>
				<attribute name="fused_names" version="0" value="Concat_723, Conv_55, Reshape_724"/>
			</rt_info>
			<input>
				<port id="0" precision="FP32">
					<dim>1</dim>
					<dim>128</dim>
					<dim>20</dim>
					<dim>20</dim>
				</port>
				<port id="1" precision="FP32">
					<dim>1</dim>
					<dim>128</dim>
					<dim>1</dim>
					<dim>1</dim>
				</port>
			</input>
			<output>
				<port id="2" precision="FP32" names="103">
					<dim>1</dim>
					<dim>128</dim>
					<dim>20</dim>
					<dim>20</dim>
				</port>
			</output>
		</layer>
		<layer id="95" name="Shape_101" type="ShapeOf" version="opset3">
			<data output_type="i64"/>
			<rt_info>
				<attribute name="fused_names" version="0" value="Shape_101, Shape_58, Shape_61"/>
			</rt_info>
			<input>
				<port id="0" precision="FP32">
					<dim>1</dim>
					<dim>128</dim>
					<dim>20</dim>
					<dim>20</dim>
				</port>
			</input>
			<output>
				<port id="1" precision="I64" names="106,109,152">
					<dim>4</dim>
				</port>
			</output>
		</layer>
		<layer id="96" name="Constant_103" type="Const" version="opset1">
			<data element_type="i64" shape="1" offset="3041384" size="8"/>
			<rt_info>
				<attribute name="fused_names" version="0" value="Broadcast_1004, Constant_102, Constant_103, Constant_104, ShapeOf_1003, Slice_105"/>
			</rt_info>
			<output>
				<port id="0" precision="I64" names="154">
					<dim>1</dim>
				</port>
			</output>
		</layer>
		<layer id="97" name="Constant_104" type="Const" version="opset1">
			<data element_type="i64" shape="1" offset="3041392" size="8"/>
			<rt_info>
				<attribute name="fused_names" version="0" value="Broadcast_1004, Constant_102, Constant_103, Constant_104, ShapeOf_1003, Slice_105"/>
			</rt_info>
			<output>
				<port id="0" precision="I64" names="155">
					<dim>1</dim>
				</port>
			</output>
		</layer>
		<layer id="98" name="Broadcast_1004" type="Const" version="opset1">
			<data element_type="i64" shape="1" offset="3041400" size="8"/>
			<rt_info>
				<attribute name="fused_names" version="0" value="Broadcast_1004, Constant_102, Constant_103, Constant_104, ShapeOf_1003, Slice_105"/>
			</rt_info>
			<output>
				<port id="0" precision="I64">
					<dim>1</dim>
				</port>
			</output>
		</layer>
		<layer id="99" name="Slice_105" type="StridedSlice" version="opset1">
			<data begin_mask="0" end_mask="0" new_axis_mask="" shrink_axis_mask="" ellipsis_mask=""/>
			<rt_info>
				<attribute name="fused_names" version="0" value="Broadcast_1004, Constant_102, Constant_103, Constant_104, ShapeOf_1003, Slice_105"/>
			</rt_info>
			<input>
				<port id="0" precision="I64">
					<dim>4</dim>
				</port>
				<port id="1" precision="I64">
					<dim>1</dim>
				</port>
				<port id="2" precision="I64">
					<dim>1</dim>
				</port>
				<port id="3" precision="I64">
					<dim>1</dim>
				</port>
			</input>
			<output>
				<port id="4" precision="I64" names="156">
					<dim>2</dim>
				</port>
			</output>
		</layer>
		<layer id="100" name="Constant_106" type="Const" version="opset1">
			<data element_type="i64" shape="1" offset="3041408" size="8"/>
			<rt_info>
				<attribute name="fused_names" version="0" value="Constant_106"/>
			</rt_info>
			<output>
				<port id="0" precision="I64" names="157">
					<dim>1</dim>
				</port>
			</output>
		</layer>
		<layer id="101" name="Concat_107" type="Concat" version="opset1">
			<data axis="0"/>
			<rt_info>
				<attribute name="fused_names" version="0" value="Concat_107, Constant_106"/>
			</rt_info>
			<input>
				<port id="0" precision="I64">
					<dim>2</dim>
				</port>
				<port id="1" precision="I64">
					<dim>1</dim>
				</port>
			</input>
			<output>
				<port id="2" precision="I64" names="158">
					<dim>3</dim>
				</port>
			</output>
		</layer>
		<layer id="102" name="Reshape_108" type="Reshape" version="opset1">
			<data special_zero="true"/>
			<rt_info>
				<attribute name="fused_names" version="0" value="Reshape_108"/>
			</rt_info>
			<input>
				<port id="0" precision="FP32">
					<dim>1</dim>
					<dim>128</dim>
					<dim>20</dim>
					<dim>20</dim>
				</port>
				<port id="1" precision="I64">
					<dim>3</dim>
				</port>
			</input>
			<output>
				<port id="2" precision="FP32" names="159">
					<dim>1</dim>
					<dim>128</dim>
					<dim>400</dim>
				</port>
			</output>
		</layer>
		<layer id="103" name="Constant_1056" type="Const" version="opset1">
			<data element_type="i64" shape="3" offset="3041416" size="24"/>
			<rt_info>
				<attribute name="fused_names" version="0" value="Constant_1056"/>
			</rt_info>
			<output>
				<port id="0" precision="I64">
					<dim>3</dim>
				</port>
			</output>
		</layer>
		<layer id="104" name="Transpose_109" type="Transpose" version="opset1">
			<rt_info>
				<attribute name="fused_names" version="0" value="Transpose_109"/>
			</rt_info>
			<input>
				<port id="0" precision="FP32">
					<dim>1</dim>
					<dim>128</dim>
					<dim>400</dim>
				</port>
				<port id="1" precision="I64">
					<dim>3</dim>
				</port>
			</input>
			<output>
				<port id="2" precision="FP32" names="160">
					<dim>400</dim>
					<dim>1</dim>
					<dim>128</dim>
				</port>
			</output>
		</layer>
		<layer id="105" name="Transpose_118_compressed" type="Const" version="opset1">
			<data element_type="f16" shape="400, 1, 128" offset="3041440" size="102400"/>
			<output>
				<port id="0" precision="FP16">
					<dim>400</dim>
					<dim>1</dim>
					<dim>128</dim>
				</port>
			</output>
		</layer>
		<layer id="106" name="Transpose_118" type="Convert" version="opset1">
			<data destination_type="f32"/>
			<rt_info>
				<attribute name="decompression" version="0"/>
			</rt_info>
			<input>
				<port id="0" precision="FP16">
					<dim>400</dim>
					<dim>1</dim>
					<dim>128</dim>
				</port>
			</input>
			<output>
				<port id="1" precision="FP32" names="169">
					<dim>400</dim>
					<dim>1</dim>
					<dim>128</dim>
				</port>
			</output>
		</layer>
		<layer id="107" name="Add_123" type="Add" version="opset1">
			<data auto_broadcast="numpy"/>
			<rt_info>
				<attribute name="fused_names" version="0" value="Add_123, Concat_94, ConstantOfShape_86, ConstantOfShape_91, ConstantOfShape_98, Convert_910, Convert_946, Convert_985, Expand_87, Expand_92, Expand_99, Gather_82, Gather_83, Reshape_117, Tile_100, Tile_88, Tile_93, Transpose_118, Transpose_95, Unsqueeze_84, Unsqueeze_89, Unsqueeze_96"/>
			</rt_info>
			<input>
				<port id="0" precision="FP32">
					<dim>400</dim>
					<dim>1</dim>
					<dim>128</dim>
				</port>
				<port id="1" precision="FP32">
					<dim>400</dim>
					<dim>1</dim>
					<dim>128</dim>
				</port>
			</input>
			<output>
				<port id="2" precision="FP32" names="174">
					<dim>400</dim>
					<dim>1</dim>
					<dim>128</dim>
				</port>
			</output>
		</layer>
		<layer id="108" name="Constant_72" type="Const" version="opset1">
			<data element_type="i64" shape="1" offset="3041400" size="8"/>
			<rt_info>
				<attribute name="fused_names" version="0" value="Constant_72"/>
			</rt_info>
			<output>
				<port id="0" precision="I64">
					<dim>1</dim>
				</port>
			</output>
		</layer>
		<layer id="109" name="ReduceMean_1" type="ReduceMean" version="opset1">
			<data keep_dims="false"/>
			<rt_info>
				<attribute name="fused_names" version="0" value="ReduceMean_1"/>
			</rt_info>
			<input>
				<port id="0" precision="FP32">
					<dim>1</dim>
					<dim>3</dim>
					<dim>320</dim>
					<dim>320</dim>
				</port>
				<port id="1" precision="I64">
					<dim>1</dim>
				</port>
			</input>
			<output>
				<port id="2" precision="FP32" names="49">
					<dim>1</dim>
					<dim>320</dim>
					<dim>320</dim>
				</port>
			</output>
		</layer>
		<layer id="110" name="Constant_13358_compressed" type="Const" version="opset1">
			<data element_type="f16" shape="1, 1, 1" offset="3143840" size="2"/>
			<output>
				<port id="0" precision="FP16">
					<dim>1</dim>
					<dim>1</dim>
					<dim>1</dim>
				</port>
			</output>
		</layer>
		<layer id="111" name="Constant_13358" type="Convert" version="opset1">
			<data destination_type="f32"/>
			<rt_info>
				<attribute name="decompression" version="0"/>
			</rt_info>
			<input>
				<port id="0" precision="FP16">
					<dim>1</dim>
					<dim>1</dim>
					<dim>1</dim>
				</port>
			</input>
			<output>
				<port id="1" precision="FP32">
					<dim>1</dim>
					<dim>1</dim>
					<dim>1</dim>
				</port>
			</output>
		</layer>
		<layer id="112" name="Greater_3" type="Greater" version="opset1">
			<data auto_broadcast="numpy"/>
			<rt_info>
				<attribute name="fused_names" version="0" value="Greater_3"/>
			</rt_info>
			<input>
				<port id="0" precision="FP32">
					<dim>1</dim>
					<dim>320</dim>
					<dim>320</dim>
				</port>
				<port id="1" precision="FP32">
					<dim>1</dim>
					<dim>1</dim>
					<dim>1</dim>
				</port>
			</input>
			<output>
				<port id="2" precision="BOOL" names="51">
					<dim>1</dim>
					<dim>320</dim>
					<dim>320</dim>
				</port>
			</output>
		</layer>
		<layer id="113" name="Cast_4" type="Convert" version="opset1">
			<data destination_type="f32"/>
			<rt_info>
				<attribute name="fused_names" version="0" value="Cast_4"/>
			</rt_info>
			<input>
				<port id="0" precision="BOOL">
					<dim>1</dim>
					<dim>320</dim>
					<dim>320</dim>
				</port>
			</input>
			<output>
				<port id="1" precision="FP32" names="52">
					<dim>1</dim>
					<dim>320</dim>
					<dim>320</dim>
				</port>
			</output>
		</layer>
		<layer id="114" name="Constant_77" type="Const" version="opset1">
			<data element_type="i64" shape="1" offset="3041384" size="8"/>
			<rt_info>
				<attribute name="fused_names" version="0" value="Constant_77"/>
			</rt_info>
			<output>
				<port id="0" precision="I64">
					<dim>1</dim>
				</port>
			</output>
		</layer>
		<layer id="115" name="Unsqueeze_5" type="Unsqueeze" version="opset1">
			<rt_info>
				<attribute name="fused_names" version="0" value="Unsqueeze_5"/>
			</rt_info>
			<input>
				<port id="0" precision="FP32">
					<dim>1</dim>
					<dim>320</dim>
					<dim>320</dim>
				</port>
				<port id="1" precision="I64">
					<dim>1</dim>
				</port>
			</input>
			<output>
				<port id="2" precision="FP32" names="53">
					<dim>1</dim>
					<dim>1</dim>
					<dim>320</dim>
					<dim>320</dim>
				</port>
			</output>
		</layer>
		<layer id="116" name="MaxPool_6" type="MaxPool" version="opset8">
			<data strides="1, 1" dilations="1, 1" pads_begin="1, 1" pads_end="1, 1" kernel="3, 3" rounding_type="floor" auto_pad="explicit" index_element_type="i64" axis="0"/>
			<rt_info>
				<attribute name="fused_names" version="0" value="MaxPool_6"/>
			</rt_info>
			<input>
				<port id="0" precision="FP32">
					<dim>1</dim>
					<dim>1</dim>
					<dim>320</dim>
					<dim>320</dim>
				</port>
			</input>
			<output>
				<port id="1" precision="FP32" names="54">
					<dim>1</dim>
					<dim>1</dim>
					<dim>320</dim>
					<dim>320</dim>
				</port>
				<port id="2" precision="I64">
					<dim>1</dim>
					<dim>1</dim>
					<dim>320</dim>
					<dim>320</dim>
				</port>
			</output>
		</layer>
		<layer id="117" name="Shape_8" type="ShapeOf" version="opset3">
			<data output_type="i64"/>
			<rt_info>
				<attribute name="fused_names" version="0" value="Shape_8"/>
			</rt_info>
			<input>
				<port id="0" precision="FP32">
					<dim>1</dim>
					<dim>1</dim>
					<dim>320</dim>
					<dim>320</dim>
				</port>
			</input>
			<output>
				<port id="1" precision="I64" names="56">
					<dim>4</dim>
				</port>
			</output>
		</layer>
		<layer id="118" name="Constant_7" type="Const" version="opset1">
			<data element_type="i64" shape="1" offset="3041384" size="8"/>
			<rt_info>
				<attribute name="fused_names" version="0" value="Constant_7"/>
			</rt_info>
			<output>
				<port id="0" precision="I64" names="55">
					<dim>1</dim>
				</port>
			</output>
		</layer>
		<layer id="119" name="Constant_82" type="Const" version="opset1">
			<data element_type="i64" shape="" offset="3041384" size="8"/>
			<rt_info>
				<attribute name="fused_names" version="0" value="Constant_82"/>
			</rt_info>
			<output>
				<port id="0" precision="I64"/>
			</output>
		</layer>
		<layer id="120" name="Gather_9" type="Gather" version="opset8">
			<data batch_dims="0"/>
			<rt_info>
				<attribute name="fused_names" version="0" value="Constant_7, Constant_82, Gather_9"/>
			</rt_info>
			<input>
				<port id="0" precision="I64">
					<dim>4</dim>
				</port>
				<port id="1" precision="I64">
					<dim>1</dim>
				</port>
				<port id="2" precision="I64"/>
			</input>
			<output>
				<port id="3" precision="I64" names="57">
					<dim>1</dim>
				</port>
			</output>
		</layer>
		<layer id="121" name="Constant_10" type="Const" version="opset1">
			<data element_type="i64" shape="1" offset="3041400" size="8"/>
			<rt_info>
				<attribute name="fused_names" version="0" value="Constant_10"/>
			</rt_info>
			<output>
				<port id="0" precision="I64" names="58">
					<dim>1</dim>
				</port>
			</output>
		</layer>
		<layer id="122" name="Equal_11" type="Equal" version="opset1">
			<data auto_broadcast="numpy"/>
			<rt_info>
				<attribute name="fused_names" version="0" value="Constant_10, Equal_11"/>
			</rt_info>
			<input>
				<port id="0" precision="I64">
					<dim>1</dim>
				</port>
				<port id="1" precision="I64">
					<dim>1</dim>
				</port>
			</input>
			<output>
				<port id="2" precision="BOOL" names="59">
					<dim>1</dim>
				</port>
			</output>
		</layer>
		<layer id="123" name="If_12" type="If" version="opset8">
			<else_port_map>
				<input external_port_id="2" internal_layer_id="0"/>
				<output external_port_id="3" internal_layer_id="1"/>
			</else_port_map>
			<then_port_map>
				<input external_port_id="1" internal_layer_id="0"/>
				<output external_port_id="3" internal_layer_id="3"/>
			</then_port_map>
			<rt_info>
				<attribute name="fused_names" version="0" value="If_12"/>
			</rt_info>
			<input>
				<port id="0" precision="BOOL">
					<dim>1</dim>
				</port>
				<port id="1" precision="FP32">
					<dim>1</dim>
					<dim>1</dim>
					<dim>320</dim>
					<dim>320</dim>
				</port>
				<port id="2" precision="FP32">
					<dim>1</dim>
					<dim>1</dim>
					<dim>320</dim>
					<dim>320</dim>
				</port>
			</input>
			<output>
				<port id="3" precision="FP32" names="60">
					<dim>1</dim>
					<dim>320</dim>
					<dim>320</dim>
				</port>
			</output>
			<then_body>
				<layers>
					<layer id="0" name="Parameter_88" type="Parameter" version="opset1">
						<data shape="1,1,320,320" element_type="f32"/>
						<rt_info>
							<attribute name="old_api_map_element_type" version="0" value="f16"/>
						</rt_info>
						<output>
							<port id="0" precision="FP32">
								<dim>1</dim>
								<dim>1</dim>
								<dim>320</dim>
								<dim>320</dim>
							</port>
						</output>
					</layer>
					<layer id="1" name="Constant_89" type="Const" version="opset1">
						<data element_type="u64" shape="1" offset="3041384" size="8"/>
						<output>
							<port id="0" precision="U64">
								<dim>1</dim>
							</port>
						</output>
					</layer>
					<layer id="2" name="61" type="Squeeze" version="opset1">
						<input>
							<port id="0" precision="FP32">
								<dim>1</dim>
								<dim>1</dim>
								<dim>320</dim>
								<dim>320</dim>
							</port>
							<port id="1" precision="U64">
								<dim>1</dim>
							</port>
						</input>
						<output>
							<port id="2" precision="FP32" names="61">
								<dim>1</dim>
								<dim>320</dim>
								<dim>320</dim>
							</port>
						</output>
					</layer>
					<layer id="3" name="Result_92" type="Result" version="opset1">
						<input>
							<port id="0" precision="FP32">
								<dim>1</dim>
								<dim>320</dim>
								<dim>320</dim>
							</port>
						</input>
					</layer>
				</layers>
				<edges>
					<edge from-layer="0" from-port="0" to-layer="2" to-port="0"/>
					<edge from-layer="1" from-port="0" to-layer="2" to-port="1"/>
					<edge from-layer="2" from-port="2" to-layer="3" to-port="0"/>
				</edges>
			</then_body>
			<else_body>
				<layers>
					<layer id="0" name="62" type="Parameter" version="opset1">
						<data shape="1,1,320,320" element_type="f32"/>
						<rt_info>
							<attribute name="old_api_map_element_type" version="0" value="f16"/>
						</rt_info>
						<output>
							<port id="0" precision="FP32" names="62">
								<dim>1</dim>
								<dim>1</dim>
								<dim>320</dim>
								<dim>320</dim>
							</port>
						</output>
					</layer>
					<layer id="1" name="Result_93" type="Result" version="opset1">
						<input>
							<port id="0" precision="FP32">
								<dim>1</dim>
								<dim>1</dim>
								<dim>320</dim>
								<dim>320</dim>
							</port>
						</input>
					</layer>
				</layers>
				<edges>
					<edge from-layer="0" from-port="0" to-layer="1" to-port="0"/>
				</edges>
			</else_body>
		</layer>
		<layer id="124" name="Shape_16" type="ShapeOf" version="opset3">
			<data output_type="i64"/>
			<rt_info>
				<attribute name="fused_names" version="0" value="Shape_16"/>
			</rt_info>
			<input>
				<port id="0" precision="FP32">
					<dim>1</dim>
					<dim>320</dim>
					<dim>320</dim>
				</port>
			</input>
			<output>
				<port id="1" precision="I64" names="64">
					<dim>3</dim>
				</port>
			</output>
		</layer>
		<layer id="125" name="Constant_15" type="Const" version="opset1">
			<data element_type="i64" shape="1" offset="3041384" size="8"/>
			<rt_info>
				<attribute name="fused_names" version="0" value="Constant_15"/>
			</rt_info>
			<output>
				<port id="0" precision="I64" names="63">
					<dim>1</dim>
				</port>
			</output>
		</layer>
		<layer id="126" name="Constant_119" type="Const" version="opset1">
			<data element_type="i64" shape="" offset="3041384" size="8"/>
			<rt_info>
				<attribute name="fused_names" version="0" value="Constant_119"/>
			</rt_info>
			<output>
				<port id="0" precision="I64"/>
			</output>
		</layer>
		<layer id="127" name="Gather_17" type="Gather" version="opset8">
			<data batch_dims="0"/>
			<rt_info>
				<attribute name="fused_names" version="0" value="Constant_119, Constant_15, Gather_17"/>
			</rt_info>
			<input>
				<port id="0" precision="I64">
					<dim>3</dim>
				</port>
				<port id="1" precision="I64">
					<dim>1</dim>
				</port>
				<port id="2" precision="I64"/>
			</input>
			<output>
				<port id="3" precision="I64" names="65">
					<dim>1</dim>
				</port>
			</output>
		</layer>
		<layer id="128" name="Constant_18" type="Const" version="opset1">
			<data element_type="i64" shape="1" offset="3041400" size="8"/>
			<rt_info>
				<attribute name="fused_names" version="0" value="Constant_18"/>
			</rt_info>
			<output>
				<port id="0" precision="I64" names="66">
					<dim>1</dim>
				</port>
			</output>
		</layer>
		<layer id="129" name="Equal_19" type="Equal" version="opset1">
			<data auto_broadcast="numpy"/>
			<rt_info>
				<attribute name="fused_names" version="0" value="Constant_18, Equal_19"/>
			</rt_info>
			<input>
				<port id="0" precision="I64">
					<dim>1</dim>
				</port>
				<port id="1" precision="I64">
					<dim>1</dim>
				</port>
			</input>
			<output>
				<port id="2" precision="BOOL" names="67">
					<dim>1</dim>
				</port>
			</output>
		</layer>
		<layer id="130" name="If_20" type="If" version="opset8">
			<else_port_map>
				<input external_port_id="2" internal_layer_id="0"/>
				<output external_port_id="3" internal_layer_id="1"/>
			</else_port_map>
			<then_port_map>
				<input external_port_id="1" internal_layer_id="0"/>
				<output external_port_id="3" internal_layer_id="3"/>
			</then_port_map>
			<rt_info>
				<attribute name="fused_names" version="0" value="If_20"/>
			</rt_info>
			<input>
				<port id="0" precision="BOOL">
					<dim>1</dim>
				</port>
				<port id="1" precision="FP32">
					<dim>1</dim>
					<dim>320</dim>
					<dim>320</dim>
				</port>
				<port id="2" precision="FP32">
					<dim>1</dim>
					<dim>320</dim>
					<dim>320</dim>
				</port>
			</input>
			<output>
				<port id="3" precision="FP32" names="68">
					<dim>320</dim>
					<dim>320</dim>
				</port>
			</output>
			<then_body>
				<layers>
					<layer id="0" name="Parameter_125" type="Parameter" version="opset1">
						<data shape="1,320,320" element_type="f32"/>
						<rt_info>
							<attribute name="old_api_map_element_type" version="0" value="f16"/>
						</rt_info>
						<output>
							<port id="0" precision="FP32">
								<dim>1</dim>
								<dim>320</dim>
								<dim>320</dim>
							</port>
						</output>
					</layer>
					<layer id="1" name="Constant_126" type="Const" version="opset1">
						<data element_type="u64" shape="1" offset="3041384" size="8"/>
						<output>
							<port id="0" precision="U64">
								<dim>1</dim>
							</port>
						</output>
					</layer>
					<layer id="2" name="69" type="Squeeze" version="opset1">
						<input>
							<port id="0" precision="FP32">
								<dim>1</dim>
								<dim>320</dim>
								<dim>320</dim>
							</port>
							<port id="1" precision="U64">
								<dim>1</dim>
							</port>
						</input>
						<output>
							<port id="2" precision="FP32" names="69">
								<dim>320</dim>
								<dim>320</dim>
							</port>
						</output>
					</layer>
					<layer id="3" name="Result_129" type="Result" version="opset1">
						<input>
							<port id="0" precision="FP32">
								<dim>320</dim>
								<dim>320</dim>
							</port>
						</input>
					</layer>
				</layers>
				<edges>
					<edge from-layer="0" from-port="0" to-layer="2" to-port="0"/>
					<edge from-layer="1" from-port="0" to-layer="2" to-port="1"/>
					<edge from-layer="2" from-port="2" to-layer="3" to-port="0"/>
				</edges>
			</then_body>
			<else_body>
				<layers>
					<layer id="0" name="70" type="Parameter" version="opset1">
						<data shape="1,320,320" element_type="f32"/>
						<rt_info>
							<attribute name="old_api_map_element_type" version="0" value="f16"/>
						</rt_info>
						<output>
							<port id="0" precision="FP32" names="70">
								<dim>1</dim>
								<dim>320</dim>
								<dim>320</dim>
							</port>
						</output>
					</layer>
					<layer id="1" name="Result_130" type="Result" version="opset1">
						<input>
							<port id="0" precision="FP32">
								<dim>1</dim>
								<dim>320</dim>
								<dim>320</dim>
							</port>
						</input>
					</layer>
				</layers>
				<edges>
					<edge from-layer="0" from-port="0" to-layer="1" to-port="0"/>
				</edges>
			</else_body>
		</layer>
		<layer id="131" name="Cast_23" type="Convert" version="opset1">
			<data destination_type="boolean"/>
			<rt_info>
				<attribute name="fused_names" version="0" value="Cast_23"/>
			</rt_info>
			<input>
				<port id="0" precision="FP32">
					<dim>320</dim>
					<dim>320</dim>
				</port>
			</input>
			<output>
				<port id="1" precision="BOOL" names="71">
					<dim>320</dim>
					<dim>320</dim>
				</port>
			</output>
		</layer>
		<layer id="132" name="Not_24" type="LogicalNot" version="opset1">
			<rt_info>
				<attribute name="fused_names" version="0" value="Not_24"/>
			</rt_info>
			<input>
				<port id="0" precision="BOOL">
					<dim>320</dim>
					<dim>320</dim>
				</port>
			</input>
			<output>
				<port id="1" precision="BOOL" names="72">
					<dim>320</dim>
					<dim>320</dim>
				</port>
			</output>
		</layer>
		<layer id="133" name="Constant_162" type="Const" version="opset1">
			<data element_type="i64" shape="1" offset="3041384" size="8"/>
			<rt_info>
				<attribute name="fused_names" version="0" value="Constant_162"/>
			</rt_info>
			<output>
				<port id="0" precision="I64">
					<dim>1</dim>
				</port>
			</output>
		</layer>
		<layer id="134" name="Unsqueeze_31" type="Unsqueeze" version="opset1">
			<rt_info>
				<attribute name="fused_names" version="0" value="Cast_32, Unsqueeze_31"/>
			</rt_info>
			<input>
				<port id="0" precision="BOOL">
					<dim>320</dim>
					<dim>320</dim>
				</port>
				<port id="1" precision="I64">
					<dim>1</dim>
				</port>
			</input>
			<output>
				<port id="2" precision="BOOL" names="79,80">
					<dim>1</dim>
					<dim>320</dim>
					<dim>320</dim>
				</port>
			</output>
		</layer>
		<layer id="135" name="Constant_752" type="Const" version="opset1">
			<data element_type="i64" shape="1" offset="3041384" size="8"/>
			<rt_info>
				<attribute name="fused_names" version="0" value="Constant_752"/>
			</rt_info>
			<output>
				<port id="0" precision="I64">
					<dim>1</dim>
				</port>
			</output>
		</layer>
		<layer id="136" name="Unsqueeze_56" type="Unsqueeze" version="opset1">
			<rt_info>
				<attribute name="fused_names" version="0" value="Unsqueeze_56"/>
			</rt_info>
			<input>
				<port id="0" precision="BOOL">
					<dim>1</dim>
					<dim>320</dim>
					<dim>320</dim>
				</port>
				<port id="1" precision="I64">
					<dim>1</dim>
				</port>
			</input>
			<output>
				<port id="2" precision="BOOL" names="104">
					<dim>1</dim>
					<dim>1</dim>
					<dim>320</dim>
					<dim>320</dim>
				</port>
			</output>
		</layer>
		<layer id="137" name="Cast_57" type="Convert" version="opset1">
			<data destination_type="f32"/>
			<rt_info>
				<attribute name="fused_names" version="0" value="Cast_57"/>
			</rt_info>
			<input>
				<port id="0" precision="BOOL">
					<dim>1</dim>
					<dim>1</dim>
					<dim>320</dim>
					<dim>320</dim>
				</port>
			</input>
			<output>
				<port id="1" precision="FP32" names="105">
					<dim>1</dim>
					<dim>1</dim>
					<dim>320</dim>
					<dim>320</dim>
				</port>
			</output>
		</layer>
		<layer id="138" name="Shape_68" type="ShapeOf" version="opset3">
			<data output_type="i64"/>
			<rt_info>
				<attribute name="fused_names" version="0" value="ShapeOf_795, Shape_68"/>
			</rt_info>
			<input>
				<port id="0" precision="FP32">
					<dim>1</dim>
					<dim>1</dim>
					<dim>320</dim>
					<dim>320</dim>
				</port>
			</input>
			<output>
				<port id="1" precision="I64" names="116">
					<dim>4</dim>
				</port>
			</output>
		</layer>
		<layer id="139" name="Constant_70" type="Const" version="opset1">
			<data element_type="i64" shape="1" offset="3041384" size="8"/>
			<rt_info>
				<attribute name="fused_names" version="0" value="Broadcast_775, Slice_72"/>
			</rt_info>
			<output>
				<port id="0" precision="I64" names="118">
					<dim>1</dim>
				</port>
			</output>
		</layer>
		<layer id="140" name="Constant_71" type="Const" version="opset1">
			<data element_type="i64" shape="1" offset="3041392" size="8"/>
			<rt_info>
				<attribute name="fused_names" version="0" value="Broadcast_775, Slice_72"/>
			</rt_info>
			<output>
				<port id="0" precision="I64" names="119">
					<dim>1</dim>
				</port>
			</output>
		</layer>
		<layer id="141" name="Broadcast_775" type="Const" version="opset1">
			<data element_type="i64" shape="1" offset="3041400" size="8"/>
			<rt_info>
				<attribute name="fused_names" version="0" value="Broadcast_775, Slice_72"/>
			</rt_info>
			<output>
				<port id="0" precision="I64">
					<dim>1</dim>
				</port>
			</output>
		</layer>
		<layer id="142" name="Slice_72" type="StridedSlice" version="opset1">
			<data begin_mask="0" end_mask="0" new_axis_mask="" shrink_axis_mask="" ellipsis_mask=""/>
			<rt_info>
				<attribute name="fused_names" version="0" value="Broadcast_775, Slice_72"/>
			</rt_info>
			<input>
				<port id="0" precision="I64">
					<dim>4</dim>
				</port>
				<port id="1" precision="I64">
					<dim>1</dim>
				</port>
				<port id="2" precision="I64">
					<dim>1</dim>
				</port>
				<port id="3" precision="I64">
					<dim>1</dim>
				</port>
			</input>
			<output>
				<port id="4" precision="I64" names="120">
					<dim>2</dim>
				</port>
			</output>
		</layer>
		<layer id="143" name="Constant_8206" type="Const" version="opset1">
			<data element_type="i64" shape="2" offset="3143842" size="16"/>
			<rt_info>
				<attribute name="fused_names" version="0" value="Concat_66"/>
			</rt_info>
			<output>
				<port id="0" precision="I64">
					<dim>2</dim>
				</port>
			</output>
		</layer>
		<layer id="144" name="Constant_8207" type="Const" version="opset1">
			<data element_type="i64" shape="" offset="3041384" size="8"/>
			<output>
				<port id="0" precision="I64"/>
			</output>
		</layer>
		<layer id="145" name="Gather_8208" type="Gather" version="opset8">
			<data batch_dims="0"/>
			<rt_info>
				<attribute name="fused_names" version="0" value="Cast_73, Concat_66"/>
			</rt_info>
			<input>
				<port id="0" precision="I64">
					<dim>4</dim>
				</port>
				<port id="1" precision="I64">
					<dim>2</dim>
				</port>
				<port id="2" precision="I64"/>
			</input>
			<output>
				<port id="3" precision="I64" names="114,121">
					<dim>2</dim>
				</port>
			</output>
		</layer>
		<layer id="146" name="Concat_74" type="Concat" version="opset1">
			<data axis="0"/>
			<rt_info>
				<attribute name="fused_names" version="0" value="Concat_74"/>
			</rt_info>
			<input>
				<port id="0" precision="I64">
					<dim>2</dim>
				</port>
				<port id="1" precision="I64">
					<dim>2</dim>
				</port>
			</input>
			<output>
				<port id="2" precision="I64" names="122">
					<dim>4</dim>
				</port>
			</output>
		</layer>
		<layer id="147" name="Convert_797" type="Convert" version="opset1">
			<data destination_type="f32"/>
			<rt_info>
				<attribute name="fused_names" version="0" value="Convert_797"/>
			</rt_info>
			<input>
				<port id="0" precision="I64">
					<dim>4</dim>
				</port>
			</input>
			<output>
				<port id="1" precision="FP32">
					<dim>4</dim>
				</port>
			</output>
		</layer>
		<layer id="148" name="Convert_796" type="Convert" version="opset1">
			<data destination_type="f32"/>
			<rt_info>
				<attribute name="fused_names" version="0" value="Convert_796"/>
			</rt_info>
			<input>
				<port id="0" precision="I64">
					<dim>4</dim>
				</port>
			</input>
			<output>
				<port id="1" precision="FP32">
					<dim>4</dim>
				</port>
			</output>
		</layer>
		<layer id="149" name="Divide_798" type="Divide" version="opset1">
			<data auto_broadcast="numpy" m_pythondiv="true"/>
			<rt_info>
				<attribute name="fused_names" version="0" value="Divide_798"/>
			</rt_info>
			<input>
				<port id="0" precision="FP32">
					<dim>4</dim>
				</port>
				<port id="1" precision="FP32">
					<dim>4</dim>
				</port>
			</input>
			<output>
				<port id="2" precision="FP32">
					<dim>4</dim>
				</port>
			</output>
		</layer>
		<layer id="150" name="Constant_13359" type="Const" version="opset1">
			<data element_type="f32" shape="1" offset="3143858" size="4"/>
			<output>
				<port id="0" precision="FP32">
					<dim>1</dim>
				</port>
			</output>
		</layer>
		<layer id="151" name="Add_800" type="Add" version="opset1">
			<data auto_broadcast="numpy"/>
			<rt_info>
				<attribute name="fused_names" version="0" value="Add_800"/>
			</rt_info>
			<input>
				<port id="0" precision="FP32">
					<dim>4</dim>
				</port>
				<port id="1" precision="FP32">
					<dim>1</dim>
				</port>
			</input>
			<output>
				<port id="2" precision="FP32">
					<dim>4</dim>
				</port>
			</output>
		</layer>
		<layer id="152" name="Resize_76" type="Interpolate" version="opset4">
			<data mode="nearest" shape_calculation_mode="sizes" coordinate_transformation_mode="asymmetric" nearest_mode="floor" antialias="false" pads_begin="0, 0, 0, 0" pads_end="0, 0, 0, 0" cube_coeff="-0.75"/>
			<rt_info>
				<attribute name="fused_names" version="0" value="Resize_76"/>
			</rt_info>
			<input>
				<port id="0" precision="FP32">
					<dim>1</dim>
					<dim>1</dim>
					<dim>320</dim>
					<dim>320</dim>
				</port>
				<port id="1" precision="I64">
					<dim>4</dim>
				</port>
				<port id="2" precision="FP32">
					<dim>4</dim>
				</port>
			</input>
			<output>
				<port id="3" precision="FP32" names="124">
					<dim>1</dim>
					<dim>1</dim>
					<dim>20</dim>
					<dim>20</dim>
				</port>
			</output>
		</layer>
		<layer id="153" name="Cast_77" type="Convert" version="opset1">
			<data destination_type="boolean"/>
			<rt_info>
				<attribute name="fused_names" version="0" value="Cast_77"/>
			</rt_info>
			<input>
				<port id="0" precision="FP32">
					<dim>1</dim>
					<dim>1</dim>
					<dim>20</dim>
					<dim>20</dim>
				</port>
			</input>
			<output>
				<port id="1" precision="BOOL" names="125">
					<dim>1</dim>
					<dim>1</dim>
					<dim>20</dim>
					<dim>20</dim>
				</port>
			</output>
		</layer>
		<layer id="154" name="Constant_78" type="Const" version="opset1">
			<data element_type="i64" shape="" offset="3041384" size="8"/>
			<rt_info>
				<attribute name="fused_names" version="0" value="Constant_78"/>
			</rt_info>
			<output>
				<port id="0" precision="I64" names="126"/>
			</output>
		</layer>
		<layer id="155" name="Constant_879" type="Const" version="opset1">
			<data element_type="i64" shape="" offset="3041384" size="8"/>
			<rt_info>
				<attribute name="fused_names" version="0" value="Constant_879"/>
			</rt_info>
			<output>
				<port id="0" precision="I64"/>
			</output>
		</layer>
		<layer id="156" name="Gather_79" type="Gather" version="opset8">
			<data batch_dims="0"/>
			<rt_info>
				<attribute name="fused_names" version="0" value="Gather_79"/>
			</rt_info>
			<input>
				<port id="0" precision="BOOL">
					<dim>1</dim>
					<dim>1</dim>
					<dim>20</dim>
					<dim>20</dim>
				</port>
				<port id="1" precision="I64"/>
				<port id="2" precision="I64"/>
			</input>
			<output>
				<port id="3" precision="BOOL" names="127">
					<dim>1</dim>
					<dim>20</dim>
					<dim>20</dim>
				</port>
			</output>
		</layer>
		<layer id="157" name="Constant_1118" type="Const" version="opset1">
			<data element_type="i64" shape="2" offset="3143862" size="16"/>
			<rt_info>
				<attribute name="fused_names" version="0" value="Constant_1118"/>
			</rt_info>
			<output>
				<port id="0" precision="I64">
					<dim>2</dim>
				</port>
			</output>
		</layer>
		<layer id="158" name="Flatten_119" type="Reshape" version="opset1">
			<data special_zero="true"/>
			<rt_info>
				<attribute name="fused_names" version="0" value="Flatten_119"/>
			</rt_info>
			<input>
				<port id="0" precision="BOOL">
					<dim>1</dim>
					<dim>20</dim>
					<dim>20</dim>
				</port>
				<port id="1" precision="I64">
					<dim>2</dim>
				</port>
			</input>
			<output>
				<port id="2" precision="BOOL" names="170">
					<dim>1</dim>
					<dim>400</dim>
				</port>
			</output>
		</layer>
		<layer id="159" name="Concat_121" type="Concat" version="opset1">
			<data axis="1"/>
			<rt_info>
				<attribute name="fused_names" version="0" value="Concat_121"/>
			</rt_info>
			<input>
				<port id="0" precision="BOOL">
					<dim>1</dim>
					<dim>64</dim>
				</port>
				<port id="1" precision="BOOL">
					<dim>1</dim>
					<dim>400</dim>
				</port>
			</input>
			<output>
				<port id="2" precision="BOOL" names="172">
					<dim>1</dim>
					<dim>464</dim>
				</port>
			</output>
		</layer>
		<layer id="160" name="Constant_1753" type="Const" version="opset1">
			<data element_type="i64" shape="1" offset="3041400" size="8"/>
			<rt_info>
				<attribute name="fused_names" version="0" value="Constant_1753"/>
			</rt_info>
			<output>
				<port id="0" precision="I64">
					<dim>1</dim>
				</port>
			</output>
		</layer>
		<layer id="161" name="Unsqueeze_205" type="Unsqueeze" version="opset1">
			<rt_info>
				<attribute name="fused_names" version="0" value="Unsqueeze_205"/>
			</rt_info>
			<input>
				<port id="0" precision="BOOL">
					<dim>1</dim>
					<dim>464</dim>
				</port>
				<port id="1" precision="I64">
					<dim>1</dim>
				</port>
			</input>
			<output>
				<port id="2" precision="BOOL" names="282">
					<dim>1</dim>
					<dim>1</dim>
					<dim>464</dim>
				</port>
			</output>
		</layer>
		<layer id="162" name="Constant_1755" type="Const" version="opset1">
			<data element_type="i64" shape="1" offset="3041392" size="8"/>
			<rt_info>
				<attribute name="fused_names" version="0" value="Constant_1755"/>
			</rt_info>
			<output>
				<port id="0" precision="I64">
					<dim>1</dim>
				</port>
			</output>
		</layer>
		<layer id="163" name="Unsqueeze_206" type="Unsqueeze" version="opset1">
			<rt_info>
				<attribute name="fused_names" version="0" value="Cast_207, Unsqueeze_206"/>
			</rt_info>
			<input>
				<port id="0" precision="BOOL">
					<dim>1</dim>
					<dim>1</dim>
					<dim>464</dim>
				</port>
				<port id="1" precision="I64">
					<dim>1</dim>
				</port>
			</input>
			<output>
				<port id="2" precision="BOOL" names="283,284">
					<dim>1</dim>
					<dim>1</dim>
					<dim>1</dim>
					<dim>464</dim>
				</port>
			</output>
		</layer>
		<layer id="164" name="Constant_208_compressed" type="Const" version="opset1">
			<data element_type="f16" shape="" offset="3143878" size="2"/>
			<output>
				<port id="0" precision="FP16"/>
			</output>
		</layer>
		<layer id="165" name="Constant_208" type="Convert" version="opset1">
			<data destination_type="f32"/>
			<rt_info>
				<attribute name="decompression" version="0"/>
				<attribute name="fused_names" version="0" value="Constant_208"/>
			</rt_info>
			<input>
				<port id="0" precision="FP16"/>
			</input>
			<output>
				<port id="1" precision="FP32" names="285"/>
			</output>
		</layer>
		<layer id="166" name="transformer.encoder.self_attn.in_proj_weight_compressed" type="Const" version="opset1">
			<data element_type="f16" shape="384, 128" offset="3143880" size="98304"/>
			<output>
				<port id="0" precision="FP16">
					<dim>384</dim>
					<dim>128</dim>
				</port>
			</output>
		</layer>
		<layer id="167" name="transformer.encoder.self_attn.in_proj_weight" type="Convert" version="opset1">
			<data destination_type="f32"/>
			<rt_info>
				<attribute name="decompression" version="0"/>
				<attribute name="fused_names" version="0" value="transformer.encoder.self_attn.in_proj_weight"/>
			</rt_info>
			<input>
				<port id="0" precision="FP16">
					<dim>384</dim>
					<dim>128</dim>
				</port>
			</input>
			<output>
				<port id="1" precision="FP32" names="transformer.encoder.self_attn.in_proj_weight">
					<dim>384</dim>
					<dim>128</dim>
				</port>
			</output>
		</layer>
		<layer id="168" name="421" type="Const" version="opset1">
			<data element_type="i64" shape="1" offset="3041384" size="8"/>
			<rt_info>
				<attribute name="fused_names" version="0" value="Slice_140"/>
			</rt_info>
			<output>
				<port id="0" precision="I64" names="421">
					<dim>1</dim>
				</port>
			</output>
		</layer>
		<layer id="169" name="Shape_131" type="ShapeOf" version="opset3">
			<data output_type="i64"/>
			<rt_info>
				<attribute name="fused_names" version="0" value="Concat_223, Shape_125, Shape_128, Shape_131"/>
			</rt_info>
			<input>
				<port id="0" precision="FP32">
					<dim>400</dim>
					<dim>1</dim>
					<dim>128</dim>
				</port>
			</input>
			<output>
				<port id="1" precision="I64" names="176,179,182,300">
					<dim>3</dim>
				</port>
			</output>
		</layer>
		<layer id="170" name="Constant_8077" type="Const" version="opset1">
			<data element_type="i64" shape="1" offset="3041392" size="8"/>
			<rt_info>
				<attribute name="fused_names" version="0" value="Constant_1140, Constant_1146, Constant_132, Gather_133, Unsqueeze_138"/>
			</rt_info>
			<output>
				<port id="0" precision="I64">
					<dim>1</dim>
				</port>
			</output>
		</layer>
		<layer id="171" name="Constant_1140" type="Const" version="opset1">
			<data element_type="i64" shape="" offset="3041384" size="8"/>
			<rt_info>
				<attribute name="fused_names" version="0" value="Constant_1140"/>
			</rt_info>
			<output>
				<port id="0" precision="I64"/>
			</output>
		</layer>
		<layer id="172" name="Gather_133" type="Gather" version="opset8">
			<data batch_dims="0"/>
			<rt_info>
				<attribute name="fused_names" version="0" value="Constant_1140, Constant_1146, Constant_132, Gather_133, Slice_140, Unsqueeze_138"/>
			</rt_info>
			<input>
				<port id="0" precision="I64">
					<dim>3</dim>
				</port>
				<port id="1" precision="I64">
					<dim>1</dim>
				</port>
				<port id="2" precision="I64"/>
			</input>
			<output>
				<port id="3" precision="I64" names="192">
					<dim>1</dim>
				</port>
			</output>
		</layer>
		<layer id="173" name="Constant_139" type="Const" version="opset1">
			<data element_type="i64" shape="1" offset="3041400" size="8"/>
			<rt_info>
				<attribute name="fused_names" version="0" value="Slice_140"/>
			</rt_info>
			<output>
				<port id="0" precision="I64" names="194">
					<dim>1</dim>
				</port>
			</output>
		</layer>
		<layer id="174" name="Slice_140" type="StridedSlice" version="opset1">
			<data begin_mask="0" end_mask="0" new_axis_mask="" shrink_axis_mask="" ellipsis_mask=""/>
			<rt_info>
				<attribute name="fused_names" version="0" value="Slice_140"/>
			</rt_info>
			<input>
				<port id="0" precision="FP32">
					<dim>384</dim>
					<dim>128</dim>
				</port>
				<port id="1" precision="I64">
					<dim>1</dim>
				</port>
				<port id="2" precision="I64">
					<dim>1</dim>
				</port>
				<port id="3" precision="I64">
					<dim>1</dim>
				</port>
			</input>
			<output>
				<port id="4" precision="FP32" names="195">
					<dim>128</dim>
					<dim>128</dim>
				</port>
			</output>
		</layer>
		<layer id="175" name="Constant_1192" type="Const" version="opset1">
			<data element_type="i64" shape="2" offset="3242184" size="16"/>
			<rt_info>
				<attribute name="fused_names" version="0" value="Constant_1192"/>
			</rt_info>
			<output>
				<port id="0" precision="I64">
					<dim>2</dim>
				</port>
			</output>
		</layer>
		<layer id="176" name="Transpose_144" type="Transpose" version="opset1">
			<rt_info>
				<attribute name="fused_names" version="0" value="Transpose_144"/>
			</rt_info>
			<input>
				<port id="0" precision="FP32">
					<dim>128</dim>
					<dim>128</dim>
				</port>
				<port id="1" precision="I64">
					<dim>2</dim>
				</port>
			</input>
			<output>
				<port id="2" precision="FP32" names="203">
					<dim>128</dim>
					<dim>128</dim>
				</port>
			</output>
		</layer>
		<layer id="177" name="MatMul_145" type="MatMul" version="opset1">
			<data transpose_a="false" transpose_b="false"/>
			<rt_info>
				<attribute name="fused_names" version="0" value="MatMul_145"/>
			</rt_info>
			<input>
				<port id="0" precision="FP32">
					<dim>400</dim>
					<dim>1</dim>
					<dim>128</dim>
				</port>
				<port id="1" precision="FP32">
					<dim>128</dim>
					<dim>128</dim>
				</port>
			</input>
			<output>
				<port id="2" precision="FP32" names="204">
					<dim>400</dim>
					<dim>1</dim>
					<dim>128</dim>
				</port>
			</output>
		</layer>
		<layer id="178" name="transformer.encoder.self_attn.in_proj_bias_compressed" type="Const" version="opset1">
			<data element_type="f16" shape="384" offset="3242200" size="768"/>
			<output>
				<port id="0" precision="FP16">
					<dim>384</dim>
				</port>
			</output>
		</layer>
		<layer id="179" name="transformer.encoder.self_attn.in_proj_bias" type="Convert" version="opset1">
			<data destination_type="f32"/>
			<rt_info>
				<attribute name="decompression" version="0"/>
				<attribute name="fused_names" version="0" value="transformer.encoder.self_attn.in_proj_bias"/>
			</rt_info>
			<input>
				<port id="0" precision="FP16">
					<dim>384</dim>
				</port>
			</input>
			<output>
				<port id="1" precision="FP32" names="transformer.encoder.self_attn.in_proj_bias">
					<dim>384</dim>
				</port>
			</output>
		</layer>
		<layer id="180" name="423" type="Const" version="opset1">
			<data element_type="i64" shape="1" offset="3041384" size="8"/>
			<rt_info>
				<attribute name="fused_names" version="0" value="Slice_143"/>
			</rt_info>
			<output>
				<port id="0" precision="I64" names="423">
					<dim>1</dim>
				</port>
			</output>
		</layer>
		<layer id="181" name="Constant_8086" type="Const" version="opset1">
			<data element_type="i64" shape="1" offset="3041392" size="8"/>
			<rt_info>
				<attribute name="fused_names" version="0" value="Constant_1140, Constant_1169, Constant_132, Gather_133, Unsqueeze_141"/>
			</rt_info>
			<output>
				<port id="0" precision="I64">
					<dim>1</dim>
				</port>
			</output>
		</layer>
		<layer id="182" name="Gather_1330" type="Gather" version="opset8">
			<data batch_dims="0"/>
			<rt_info>
				<attribute name="fused_names" version="0" value="Constant_1140, Constant_1169, Constant_132, Gather_133, Slice_143, Unsqueeze_141"/>
			</rt_info>
			<input>
				<port id="0" precision="I64">
					<dim>3</dim>
				</port>
				<port id="1" precision="I64">
					<dim>1</dim>
				</port>
				<port id="2" precision="I64"/>
			</input>
			<output>
				<port id="3" precision="I64" names="199">
					<dim>1</dim>
				</port>
			</output>
		</layer>
		<layer id="183" name="Constant_142" type="Const" version="opset1">
			<data element_type="i64" shape="1" offset="3041400" size="8"/>
			<rt_info>
				<attribute name="fused_names" version="0" value="Slice_143"/>
			</rt_info>
			<output>
				<port id="0" precision="I64" names="201">
					<dim>1</dim>
				</port>
			</output>
		</layer>
		<layer id="184" name="Slice_143" type="StridedSlice" version="opset1">
			<data begin_mask="0" end_mask="0" new_axis_mask="" shrink_axis_mask="" ellipsis_mask=""/>
			<rt_info>
				<attribute name="fused_names" version="0" value="Slice_143"/>
			</rt_info>
			<input>
				<port id="0" precision="FP32">
					<dim>384</dim>
				</port>
				<port id="1" precision="I64">
					<dim>1</dim>
				</port>
				<port id="2" precision="I64">
					<dim>1</dim>
				</port>
				<port id="3" precision="I64">
					<dim>1</dim>
				</port>
			</input>
			<output>
				<port id="4" precision="FP32" names="202">
					<dim>128</dim>
				</port>
			</output>
		</layer>
		<layer id="185" name="Add_146" type="Add" version="opset1">
			<data auto_broadcast="numpy"/>
			<rt_info>
				<attribute name="fused_names" version="0" value="Add_146"/>
			</rt_info>
			<input>
				<port id="0" precision="FP32">
					<dim>400</dim>
					<dim>1</dim>
					<dim>128</dim>
				</port>
				<port id="1" precision="FP32">
					<dim>128</dim>
				</port>
			</input>
			<output>
				<port id="2" precision="FP32" names="205">
					<dim>400</dim>
					<dim>1</dim>
					<dim>128</dim>
				</port>
			</output>
		</layer>
		<layer id="186" name="Constant_13360_compressed" type="Const" version="opset1">
			<data element_type="f16" shape="1, 1, 1" offset="3242968" size="2"/>
			<output>
				<port id="0" precision="FP16">
					<dim>1</dim>
					<dim>1</dim>
					<dim>1</dim>
				</port>
			</output>
		</layer>
		<layer id="187" name="Constant_13360" type="Convert" version="opset1">
			<data destination_type="f32"/>
			<rt_info>
				<attribute name="decompression" version="0"/>
			</rt_info>
			<input>
				<port id="0" precision="FP16">
					<dim>1</dim>
					<dim>1</dim>
					<dim>1</dim>
				</port>
			</input>
			<output>
				<port id="1" precision="FP32">
					<dim>1</dim>
					<dim>1</dim>
					<dim>1</dim>
				</port>
			</output>
		</layer>
		<layer id="188" name="Mul_172" type="Multiply" version="opset1">
			<data auto_broadcast="numpy"/>
			<rt_info>
				<attribute name="fused_names" version="0" value="Mul_172"/>
			</rt_info>
			<input>
				<port id="0" precision="FP32">
					<dim>400</dim>
					<dim>1</dim>
					<dim>128</dim>
				</port>
				<port id="1" precision="FP32">
					<dim>1</dim>
					<dim>1</dim>
					<dim>1</dim>
				</port>
			</input>
			<output>
				<port id="2" precision="FP32" names="243">
					<dim>400</dim>
					<dim>1</dim>
					<dim>128</dim>
				</port>
			</output>
		</layer>
		<layer id="189" name="Constant_8095" type="Const" version="opset1">
			<data element_type="i64" shape="1" offset="3041384" size="8"/>
			<rt_info>
				<attribute name="fused_names" version="0" value="Constant_1132, Constant_126, Constant_1370, Gather_127, Unsqueeze_175"/>
			</rt_info>
			<output>
				<port id="0" precision="I64">
					<dim>1</dim>
				</port>
			</output>
		</layer>
		<layer id="190" name="Constant_1132" type="Const" version="opset1">
			<data element_type="i64" shape="" offset="3041384" size="8"/>
			<rt_info>
				<attribute name="fused_names" version="0" value="Constant_1132"/>
			</rt_info>
			<output>
				<port id="0" precision="I64"/>
			</output>
		</layer>
		<layer id="191" name="Gather_127" type="Gather" version="opset8">
			<data batch_dims="0"/>
			<rt_info>
				<attribute name="fused_names" version="0" value="Constant_1132, Constant_126, Constant_1370, Gather_127, Unsqueeze_175"/>
			</rt_info>
			<input>
				<port id="0" precision="I64">
					<dim>3</dim>
				</port>
				<port id="1" precision="I64">
					<dim>1</dim>
				</port>
				<port id="2" precision="I64"/>
			</input>
			<output>
				<port id="3" precision="I64" names="246">
					<dim>1</dim>
				</port>
			</output>
		</layer>
		<layer id="192" name="Constant_129" type="Const" version="opset1">
			<data element_type="i64" shape="" offset="3041400" size="8"/>
			<rt_info>
				<attribute name="fused_names" version="0" value="Constant_129"/>
			</rt_info>
			<output>
				<port id="0" precision="I64" names="180"/>
			</output>
		</layer>
		<layer id="193" name="Constant_1136" type="Const" version="opset1">
			<data element_type="i64" shape="" offset="3041384" size="8"/>
			<rt_info>
				<attribute name="fused_names" version="0" value="Constant_1136"/>
			</rt_info>
			<output>
				<port id="0" precision="I64"/>
			</output>
		</layer>
		<layer id="194" name="Gather_130" type="Gather" version="opset8">
			<data batch_dims="0"/>
			<rt_info>
				<attribute name="fused_names" version="0" value="Constant_1136, Constant_129, Gather_130"/>
			</rt_info>
			<input>
				<port id="0" precision="I64">
					<dim>3</dim>
				</port>
				<port id="1" precision="I64"/>
				<port id="2" precision="I64"/>
			</input>
			<output>
				<port id="3" precision="I64" names="181"/>
			</output>
		</layer>
		<layer id="195" name="Constant_173" type="Const" version="opset1">
			<data element_type="i64" shape="" offset="3242970" size="8"/>
			<rt_info>
				<attribute name="fused_names" version="0" value="Constant_173"/>
			</rt_info>
			<output>
				<port id="0" precision="I64" names="244"/>
			</output>
		</layer>
		<layer id="196" name="Mul_174" type="Multiply" version="opset1">
			<data auto_broadcast="numpy"/>
			<rt_info>
				<attribute name="fused_names" version="0" value="Constant_173, Mul_174"/>
			</rt_info>
			<input>
				<port id="0" precision="I64"/>
				<port id="1" precision="I64"/>
			</input>
			<output>
				<port id="2" precision="I64" names="245"/>
			</output>
		</layer>
		<layer id="197" name="Constant_1372" type="Const" version="opset1">
			<data element_type="i64" shape="1" offset="3041384" size="8"/>
			<rt_info>
				<attribute name="fused_names" version="0" value="Constant_1372"/>
			</rt_info>
			<output>
				<port id="0" precision="I64">
					<dim>1</dim>
				</port>
			</output>
		</layer>
		<layer id="198" name="Unsqueeze_176" type="Unsqueeze" version="opset1">
			<rt_info>
				<attribute name="fused_names" version="0" value="Constant_1372, Unsqueeze_176"/>
			</rt_info>
			<input>
				<port id="0" precision="I64"/>
				<port id="1" precision="I64">
					<dim>1</dim>
				</port>
			</input>
			<output>
				<port id="2" precision="I64" names="247">
					<dim>1</dim>
				</port>
			</output>
		</layer>
		<layer id="199" name="Constant_132" type="Const" version="opset1">
			<data element_type="i64" shape="" offset="3041392" size="8"/>
			<rt_info>
				<attribute name="fused_names" version="0" value="Constant_132"/>
			</rt_info>
			<output>
				<port id="0" precision="I64" names="183"/>
			</output>
		</layer>
		<layer id="200" name="Gather_1331" type="Gather" version="opset8">
			<data batch_dims="0"/>
			<rt_info>
				<attribute name="fused_names" version="0" value="Constant_1140, Constant_132, Gather_133"/>
			</rt_info>
			<input>
				<port id="0" precision="I64">
					<dim>3</dim>
				</port>
				<port id="1" precision="I64"/>
				<port id="2" precision="I64"/>
			</input>
			<output>
				<port id="3" precision="I64" names="184"/>
			</output>
		</layer>
		<layer id="201" name="Constant_134" type="Const" version="opset1">
			<data element_type="i64" shape="" offset="3242970" size="8"/>
			<rt_info>
				<attribute name="fused_names" version="0" value="Constant_134"/>
			</rt_info>
			<output>
				<port id="0" precision="I64" names="185"/>
			</output>
		</layer>
		<layer id="202" name="Div_135" type="Divide" version="opset1">
			<data auto_broadcast="numpy" m_pythondiv="true"/>
			<rt_info>
				<attribute name="fused_names" version="0" value="Cast_136, Cast_137, Constant_134, Div_135"/>
			</rt_info>
			<input>
				<port id="0" precision="I64"/>
				<port id="1" precision="I64"/>
			</input>
			<output>
				<port id="2" precision="I64" names="186,187,188"/>
			</output>
		</layer>
		<layer id="203" name="Constant_1374" type="Const" version="opset1">
			<data element_type="i64" shape="1" offset="3041384" size="8"/>
			<rt_info>
				<attribute name="fused_names" version="0" value="Constant_1374"/>
			</rt_info>
			<output>
				<port id="0" precision="I64">
					<dim>1</dim>
				</port>
			</output>
		</layer>
		<layer id="204" name="Unsqueeze_177" type="Unsqueeze" version="opset1">
			<rt_info>
				<attribute name="fused_names" version="0" value="Constant_1374, Unsqueeze_177"/>
			</rt_info>
			<input>
				<port id="0" precision="I64"/>
				<port id="1" precision="I64">
					<dim>1</dim>
				</port>
			</input>
			<output>
				<port id="2" precision="I64" names="248">
					<dim>1</dim>
				</port>
			</output>
		</layer>
		<layer id="205" name="Concat_178" type="Concat" version="opset1">
			<data axis="0"/>
			<rt_info>
				<attribute name="fused_names" version="0" value="Concat_178"/>
			</rt_info>
			<input>
				<port id="0" precision="I64">
					<dim>1</dim>
				</port>
				<port id="1" precision="I64">
					<dim>1</dim>
				</port>
				<port id="2" precision="I64">
					<dim>1</dim>
				</port>
			</input>
			<output>
				<port id="3" precision="I64" names="249">
					<dim>3</dim>
				</port>
			</output>
		</layer>
		<layer id="206" name="Reshape_179" type="Reshape" version="opset1">
			<data special_zero="true"/>
			<rt_info>
				<attribute name="fused_names" version="0" value="Reshape_179"/>
			</rt_info>
			<input>
				<port id="0" precision="FP32">
					<dim>400</dim>
					<dim>1</dim>
					<dim>128</dim>
				</port>
				<port id="1" precision="I64">
					<dim>3</dim>
				</port>
			</input>
			<output>
				<port id="2" precision="FP32" names="250">
					<dim>400</dim>
					<dim>8</dim>
					<dim>16</dim>
				</port>
			</output>
		</layer>
		<layer id="207" name="Constant_1480" type="Const" version="opset1">
			<data element_type="i64" shape="3" offset="3242978" size="24"/>
			<rt_info>
				<attribute name="fused_names" version="0" value="Constant_1480"/>
			</rt_info>
			<output>
				<port id="0" precision="I64">
					<dim>3</dim>
				</port>
			</output>
		</layer>
		<layer id="208" name="Transpose_180" type="Transpose" version="opset1">
			<rt_info>
				<attribute name="fused_names" version="0" value="Transpose_180"/>
			</rt_info>
			<input>
				<port id="0" precision="FP32">
					<dim>400</dim>
					<dim>8</dim>
					<dim>16</dim>
				</port>
				<port id="1" precision="I64">
					<dim>3</dim>
				</port>
			</input>
			<output>
				<port id="2" precision="FP32" names="251">
					<dim>8</dim>
					<dim>400</dim>
					<dim>16</dim>
				</port>
			</output>
		</layer>
		<layer id="209" name="Concat_120" type="Concat" version="opset1">
			<data axis="0"/>
			<rt_info>
				<attribute name="fused_names" version="0" value="Concat_120"/>
			</rt_info>
			<input>
				<port id="0" precision="FP32">
					<dim>64</dim>
					<dim>1</dim>
					<dim>128</dim>
				</port>
				<port id="1" precision="FP32">
					<dim>400</dim>
					<dim>1</dim>
					<dim>128</dim>
				</port>
			</input>
			<output>
				<port id="2" precision="FP32" names="171">
					<dim>464</dim>
					<dim>1</dim>
					<dim>128</dim>
				</port>
			</output>
		</layer>
		<layer id="210" name="Concat_122" type="Concat" version="opset1">
			<data axis="0"/>
			<rt_info>
				<attribute name="fused_names" version="0" value="Concat_122, Concat_94, ConstantOfShape_86, ConstantOfShape_91, ConstantOfShape_98, Convert_910, Convert_946, Convert_985, Expand_87, Expand_92, Expand_99, Gather_82, Gather_83, Reshape_117, Tile_100, Tile_88, Tile_93, Transpose_118, Transpose_95, Unsqueeze_84, Unsqueeze_89, Unsqueeze_96"/>
			</rt_info>
			<input>
				<port id="0" precision="FP32">
					<dim>64</dim>
					<dim>1</dim>
					<dim>128</dim>
				</port>
				<port id="1" precision="FP32">
					<dim>400</dim>
					<dim>1</dim>
					<dim>128</dim>
				</port>
			</input>
			<output>
				<port id="2" precision="FP32" names="173">
					<dim>464</dim>
					<dim>1</dim>
					<dim>128</dim>
				</port>
			</output>
		</layer>
		<layer id="211" name="Add_124" type="Add" version="opset1">
			<data auto_broadcast="numpy"/>
			<rt_info>
				<attribute name="fused_names" version="0" value="Add_124"/>
			</rt_info>
			<input>
				<port id="0" precision="FP32">
					<dim>464</dim>
					<dim>1</dim>
					<dim>128</dim>
				</port>
				<port id="1" precision="FP32">
					<dim>464</dim>
					<dim>1</dim>
					<dim>128</dim>
				</port>
			</input>
			<output>
				<port id="2" precision="FP32" names="175">
					<dim>464</dim>
					<dim>1</dim>
					<dim>128</dim>
				</port>
			</output>
		</layer>
		<layer id="212" name="Constant_8104" type="Const" version="opset1">
			<data element_type="i64" shape="1" offset="3041392" size="8"/>
			<rt_info>
				<attribute name="fused_names" version="0" value="Constant_1140, Constant_1198, Constant_132, Gather_133, Unsqueeze_149"/>
			</rt_info>
			<output>
				<port id="0" precision="I64">
					<dim>1</dim>
				</port>
			</output>
		</layer>
		<layer id="213" name="Gather_1332" type="Gather" version="opset8">
			<data batch_dims="0"/>
			<rt_info>
				<attribute name="fused_names" version="0" value="Constant_1140, Constant_1198, Constant_132, Gather_133, Slice_152, Unsqueeze_149"/>
			</rt_info>
			<input>
				<port id="0" precision="I64">
					<dim>3</dim>
				</port>
				<port id="1" precision="I64">
					<dim>1</dim>
				</port>
				<port id="2" precision="I64"/>
			</input>
			<output>
				<port id="3" precision="I64" names="209">
					<dim>1</dim>
				</port>
			</output>
		</layer>
		<layer id="214" name="Constant_147" type="Const" version="opset1">
			<data element_type="i64" shape="" offset="3041392" size="8"/>
			<rt_info>
				<attribute name="fused_names" version="0" value="Constant_147"/>
			</rt_info>
			<output>
				<port id="0" precision="I64" names="206"/>
			</output>
		</layer>
		<layer id="215" name="Mul_148" type="Multiply" version="opset1">
			<data auto_broadcast="numpy"/>
			<rt_info>
				<attribute name="fused_names" version="0" value="Constant_147, Mul_148"/>
			</rt_info>
			<input>
				<port id="0" precision="I64"/>
				<port id="1" precision="I64"/>
			</input>
			<output>
				<port id="2" precision="I64" names="207"/>
			</output>
		</layer>
		<layer id="216" name="Constant_1200" type="Const" version="opset1">
			<data element_type="i64" shape="1" offset="3041384" size="8"/>
			<rt_info>
				<attribute name="fused_names" version="0" value="Constant_1200"/>
			</rt_info>
			<output>
				<port id="0" precision="I64">
					<dim>1</dim>
				</port>
			</output>
		</layer>
		<layer id="217" name="Unsqueeze_150" type="Unsqueeze" version="opset1">
			<rt_info>
				<attribute name="fused_names" version="0" value="Constant_1200, Slice_152"/>
			</rt_info>
			<input>
				<port id="0" precision="I64"/>
				<port id="1" precision="I64">
					<dim>1</dim>
				</port>
			</input>
			<output>
				<port id="2" precision="I64" names="210">
					<dim>1</dim>
				</port>
			</output>
		</layer>
		<layer id="218" name="Constant_151" type="Const" version="opset1">
			<data element_type="i64" shape="1" offset="3041400" size="8"/>
			<rt_info>
				<attribute name="fused_names" version="0" value="Slice_152"/>
			</rt_info>
			<output>
				<port id="0" precision="I64" names="212">
					<dim>1</dim>
				</port>
			</output>
		</layer>
		<layer id="219" name="Slice_152" type="StridedSlice" version="opset1">
			<data begin_mask="0" end_mask="0" new_axis_mask="" shrink_axis_mask="" ellipsis_mask=""/>
			<rt_info>
				<attribute name="fused_names" version="0" value="Slice_152"/>
			</rt_info>
			<input>
				<port id="0" precision="FP32">
					<dim>384</dim>
					<dim>128</dim>
				</port>
				<port id="1" precision="I64">
					<dim>1</dim>
				</port>
				<port id="2" precision="I64">
					<dim>1</dim>
				</port>
				<port id="3" precision="I64">
					<dim>1</dim>
				</port>
			</input>
			<output>
				<port id="4" precision="FP32" names="213">
					<dim>128</dim>
					<dim>128</dim>
				</port>
			</output>
		</layer>
		<layer id="220" name="Constant_1298" type="Const" version="opset1">
			<data element_type="i64" shape="2" offset="3242184" size="16"/>
			<rt_info>
				<attribute name="fused_names" version="0" value="Constant_1298"/>
			</rt_info>
			<output>
				<port id="0" precision="I64">
					<dim>2</dim>
				</port>
			</output>
		</layer>
		<layer id="221" name="Transpose_157" type="Transpose" version="opset1">
			<rt_info>
				<attribute name="fused_names" version="0" value="Transpose_157"/>
			</rt_info>
			<input>
				<port id="0" precision="FP32">
					<dim>128</dim>
					<dim>128</dim>
				</port>
				<port id="1" precision="I64">
					<dim>2</dim>
				</port>
			</input>
			<output>
				<port id="2" precision="FP32" names="220">
					<dim>128</dim>
					<dim>128</dim>
				</port>
			</output>
		</layer>
		<layer id="222" name="MatMul_158" type="MatMul" version="opset1">
			<data transpose_a="false" transpose_b="false"/>
			<rt_info>
				<attribute name="fused_names" version="0" value="MatMul_158"/>
			</rt_info>
			<input>
				<port id="0" precision="FP32">
					<dim>464</dim>
					<dim>1</dim>
					<dim>128</dim>
				</port>
				<port id="1" precision="FP32">
					<dim>128</dim>
					<dim>128</dim>
				</port>
			</input>
			<output>
				<port id="2" precision="FP32" names="221">
					<dim>464</dim>
					<dim>1</dim>
					<dim>128</dim>
				</port>
			</output>
		</layer>
		<layer id="223" name="Constant_8113" type="Const" version="opset1">
			<data element_type="i64" shape="1" offset="3041392" size="8"/>
			<rt_info>
				<attribute name="fused_names" version="0" value="Constant_1140, Constant_1248, Constant_132, Gather_133, Unsqueeze_153"/>
			</rt_info>
			<output>
				<port id="0" precision="I64">
					<dim>1</dim>
				</port>
			</output>
		</layer>
		<layer id="224" name="Gather_1333" type="Gather" version="opset8">
			<data batch_dims="0"/>
			<rt_info>
				<attribute name="fused_names" version="0" value="Constant_1140, Constant_1248, Constant_132, Gather_133, Slice_156, Unsqueeze_153"/>
			</rt_info>
			<input>
				<port id="0" precision="I64">
					<dim>3</dim>
				</port>
				<port id="1" precision="I64">
					<dim>1</dim>
				</port>
				<port id="2" precision="I64"/>
			</input>
			<output>
				<port id="3" precision="I64" names="215">
					<dim>1</dim>
				</port>
			</output>
		</layer>
		<layer id="225" name="Constant_1250" type="Const" version="opset1">
			<data element_type="i64" shape="1" offset="3041384" size="8"/>
			<rt_info>
				<attribute name="fused_names" version="0" value="Constant_1250"/>
			</rt_info>
			<output>
				<port id="0" precision="I64">
					<dim>1</dim>
				</port>
			</output>
		</layer>
		<layer id="226" name="Unsqueeze_154" type="Unsqueeze" version="opset1">
			<rt_info>
				<attribute name="fused_names" version="0" value="Constant_1250, Slice_156"/>
			</rt_info>
			<input>
				<port id="0" precision="I64"/>
				<port id="1" precision="I64">
					<dim>1</dim>
				</port>
			</input>
			<output>
				<port id="2" precision="I64" names="216">
					<dim>1</dim>
				</port>
			</output>
		</layer>
		<layer id="227" name="Constant_155" type="Const" version="opset1">
			<data element_type="i64" shape="1" offset="3041400" size="8"/>
			<rt_info>
				<attribute name="fused_names" version="0" value="Slice_156"/>
			</rt_info>
			<output>
				<port id="0" precision="I64" names="218">
					<dim>1</dim>
				</port>
			</output>
		</layer>
		<layer id="228" name="Slice_156" type="StridedSlice" version="opset1">
			<data begin_mask="0" end_mask="0" new_axis_mask="" shrink_axis_mask="" ellipsis_mask=""/>
			<rt_info>
				<attribute name="fused_names" version="0" value="Slice_156"/>
			</rt_info>
			<input>
				<port id="0" precision="FP32">
					<dim>384</dim>
				</port>
				<port id="1" precision="I64">
					<dim>1</dim>
				</port>
				<port id="2" precision="I64">
					<dim>1</dim>
				</port>
				<port id="3" precision="I64">
					<dim>1</dim>
				</port>
			</input>
			<output>
				<port id="4" precision="FP32" names="219">
					<dim>128</dim>
				</port>
			</output>
		</layer>
		<layer id="229" name="Add_159" type="Add" version="opset1">
			<data auto_broadcast="numpy"/>
			<rt_info>
				<attribute name="fused_names" version="0" value="Add_159"/>
			</rt_info>
			<input>
				<port id="0" precision="FP32">
					<dim>464</dim>
					<dim>1</dim>
					<dim>128</dim>
				</port>
				<port id="1" precision="FP32">
					<dim>128</dim>
				</port>
			</input>
			<output>
				<port id="2" precision="FP32" names="222">
					<dim>464</dim>
					<dim>1</dim>
					<dim>128</dim>
				</port>
			</output>
		</layer>
		<layer id="230" name="431" type="Const" version="opset1">
			<data element_type="i64" shape="1" offset="3041408" size="8"/>
			<rt_info>
				<attribute name="fused_names" version="0" value="431"/>
			</rt_info>
			<output>
				<port id="0" precision="I64" names="431">
					<dim>1</dim>
				</port>
			</output>
		</layer>
		<layer id="231" name="Constant_181" type="Const" version="opset1">
			<data element_type="i64" shape="" offset="3242970" size="8"/>
			<rt_info>
				<attribute name="fused_names" version="0" value="Constant_181"/>
			</rt_info>
			<output>
				<port id="0" precision="I64" names="252"/>
			</output>
		</layer>
		<layer id="232" name="Mul_182" type="Multiply" version="opset1">
			<data auto_broadcast="numpy"/>
			<rt_info>
				<attribute name="fused_names" version="0" value="Constant_181, Mul_182"/>
			</rt_info>
			<input>
				<port id="0" precision="I64"/>
				<port id="1" precision="I64"/>
			</input>
			<output>
				<port id="2" precision="I64" names="253"/>
			</output>
		</layer>
		<layer id="233" name="Constant_1484" type="Const" version="opset1">
			<data element_type="i64" shape="1" offset="3041384" size="8"/>
			<rt_info>
				<attribute name="fused_names" version="0" value="Constant_1484"/>
			</rt_info>
			<output>
				<port id="0" precision="I64">
					<dim>1</dim>
				</port>
			</output>
		</layer>
		<layer id="234" name="Unsqueeze_183" type="Unsqueeze" version="opset1">
			<rt_info>
				<attribute name="fused_names" version="0" value="Constant_1484, Unsqueeze_183"/>
			</rt_info>
			<input>
				<port id="0" precision="I64"/>
				<port id="1" precision="I64">
					<dim>1</dim>
				</port>
			</input>
			<output>
				<port id="2" precision="I64" names="256">
					<dim>1</dim>
				</port>
			</output>
		</layer>
		<layer id="235" name="Constant_1486" type="Const" version="opset1">
			<data element_type="i64" shape="1" offset="3041384" size="8"/>
			<rt_info>
				<attribute name="fused_names" version="0" value="Constant_1486"/>
			</rt_info>
			<output>
				<port id="0" precision="I64">
					<dim>1</dim>
				</port>
			</output>
		</layer>
		<layer id="236" name="Unsqueeze_184" type="Unsqueeze" version="opset1">
			<rt_info>
				<attribute name="fused_names" version="0" value="Constant_1486, Unsqueeze_184"/>
			</rt_info>
			<input>
				<port id="0" precision="I64"/>
				<port id="1" precision="I64">
					<dim>1</dim>
				</port>
			</input>
			<output>
				<port id="2" precision="I64" names="257">
					<dim>1</dim>
				</port>
			</output>
		</layer>
		<layer id="237" name="Concat_185" type="Concat" version="opset1">
			<data axis="0"/>
			<rt_info>
				<attribute name="fused_names" version="0" value="431, Concat_185"/>
			</rt_info>
			<input>
				<port id="0" precision="I64">
					<dim>1</dim>
				</port>
				<port id="1" precision="I64">
					<dim>1</dim>
				</port>
				<port id="2" precision="I64">
					<dim>1</dim>
				</port>
			</input>
			<output>
				<port id="3" precision="I64" names="258">
					<dim>3</dim>
				</port>
			</output>
		</layer>
		<layer id="238" name="Reshape_186" type="Reshape" version="opset1">
			<data special_zero="true"/>
			<rt_info>
				<attribute name="fused_names" version="0" value="Reshape_186"/>
			</rt_info>
			<input>
				<port id="0" precision="FP32">
					<dim>464</dim>
					<dim>1</dim>
					<dim>128</dim>
				</port>
				<port id="1" precision="I64">
					<dim>3</dim>
				</port>
			</input>
			<output>
				<port id="2" precision="FP32" names="259">
					<dim>464</dim>
					<dim>8</dim>
					<dim>16</dim>
				</port>
			</output>
		</layer>
		<layer id="239" name="Constant_1680" type="Const" version="opset1">
			<data element_type="i64" shape="3" offset="3243002" size="24"/>
			<rt_info>
				<attribute name="fused_names" version="0" value="Constant_1680"/>
			</rt_info>
			<output>
				<port id="0" precision="I64">
					<dim>3</dim>
				</port>
			</output>
		</layer>
		<layer id="240" name="Transpose_198" type="Transpose" version="opset1">
			<rt_info>
				<attribute name="fused_names" version="0" value="Transpose_198"/>
			</rt_info>
			<input>
				<port id="0" precision="FP32">
					<dim>464</dim>
					<dim>8</dim>
					<dim>16</dim>
				</port>
				<port id="1" precision="I64">
					<dim>3</dim>
				</port>
			</input>
			<output>
				<port id="2" precision="FP32" names="273">
					<dim>8</dim>
					<dim>16</dim>
					<dim>464</dim>
				</port>
			</output>
		</layer>
		<layer id="241" name="MatMul_199" type="MatMul" version="opset1">
			<data transpose_a="false" transpose_b="false"/>
			<rt_info>
				<attribute name="fused_names" version="0" value="MatMul_199"/>
			</rt_info>
			<input>
				<port id="0" precision="FP32">
					<dim>8</dim>
					<dim>400</dim>
					<dim>16</dim>
				</port>
				<port id="1" precision="FP32">
					<dim>8</dim>
					<dim>16</dim>
					<dim>464</dim>
				</port>
			</input>
			<output>
				<port id="2" precision="FP32" names="274">
					<dim>8</dim>
					<dim>400</dim>
					<dim>464</dim>
				</port>
			</output>
		</layer>
		<layer id="242" name="Constant_8122" type="Const" version="opset1">
			<data element_type="i64" shape="1" offset="3041400" size="8"/>
			<rt_info>
				<attribute name="fused_names" version="0" value="Constant_1136, Constant_129, Constant_1683, Gather_130, Unsqueeze_200"/>
			</rt_info>
			<output>
				<port id="0" precision="I64">
					<dim>1</dim>
				</port>
			</output>
		</layer>
		<layer id="243" name="Gather_1300" type="Gather" version="opset8">
			<data batch_dims="0"/>
			<rt_info>
				<attribute name="fused_names" version="0" value="Constant_1136, Constant_129, Constant_1683, Gather_130, Unsqueeze_200"/>
			</rt_info>
			<input>
				<port id="0" precision="I64">
					<dim>3</dim>
				</port>
				<port id="1" precision="I64">
					<dim>1</dim>
				</port>
				<port id="2" precision="I64"/>
			</input>
			<output>
				<port id="3" precision="I64" names="276">
					<dim>1</dim>
				</port>
			</output>
		</layer>
		<layer id="244" name="433" type="Const" version="opset1">
			<data element_type="i64" shape="1" offset="3242970" size="8"/>
			<rt_info>
				<attribute name="fused_names" version="0" value="433"/>
			</rt_info>
			<output>
				<port id="0" precision="I64" names="433">
					<dim>1</dim>
				</port>
			</output>
		</layer>
		<layer id="245" name="Constant_8131" type="Const" version="opset1">
			<data element_type="i64" shape="1" offset="3041384" size="8"/>
			<rt_info>
				<attribute name="fused_names" version="0" value="Constant_1132, Constant_126, Constant_1685, Gather_127, Unsqueeze_201"/>
			</rt_info>
			<output>
				<port id="0" precision="I64">
					<dim>1</dim>
				</port>
			</output>
		</layer>
		<layer id="246" name="Gather_1270" type="Gather" version="opset8">
			<data batch_dims="0"/>
			<rt_info>
				<attribute name="fused_names" version="0" value="Constant_1132, Constant_126, Constant_1685, Gather_127, Unsqueeze_201"/>
			</rt_info>
			<input>
				<port id="0" precision="I64">
					<dim>3</dim>
				</port>
				<port id="1" precision="I64">
					<dim>1</dim>
				</port>
				<port id="2" precision="I64"/>
			</input>
			<output>
				<port id="3" precision="I64" names="278">
					<dim>1</dim>
				</port>
			</output>
		</layer>
		<layer id="247" name="Constant_1577" type="Const" version="opset1">
			<data element_type="i64" shape="3" offset="3242978" size="24"/>
			<rt_info>
				<attribute name="fused_names" version="0" value="Constant_1577"/>
			</rt_info>
			<output>
				<port id="0" precision="I64">
					<dim>3</dim>
				</port>
			</output>
		</layer>
		<layer id="248" name="Transpose_187" type="Transpose" version="opset1">
			<rt_info>
				<attribute name="fused_names" version="0" value="Transpose_187"/>
			</rt_info>
			<input>
				<port id="0" precision="FP32">
					<dim>464</dim>
					<dim>8</dim>
					<dim>16</dim>
				</port>
				<port id="1" precision="I64">
					<dim>3</dim>
				</port>
			</input>
			<output>
				<port id="2" precision="FP32" names="260">
					<dim>8</dim>
					<dim>464</dim>
					<dim>16</dim>
				</port>
			</output>
		</layer>
		<layer id="249" name="Shape_195" type="ShapeOf" version="opset3">
			<data output_type="i64"/>
			<rt_info>
				<attribute name="fused_names" version="0" value="Shape_195"/>
			</rt_info>
			<input>
				<port id="0" precision="FP32">
					<dim>8</dim>
					<dim>464</dim>
					<dim>16</dim>
				</port>
			</input>
			<output>
				<port id="1" precision="I64" names="270">
					<dim>3</dim>
				</port>
			</output>
		</layer>
		<layer id="250" name="Constant_8140" type="Const" version="opset1">
			<data element_type="i64" shape="1" offset="3041400" size="8"/>
			<rt_info>
				<attribute name="fused_names" version="0" value="Constant_1678, Constant_1687, Constant_196, Gather_197, Unsqueeze_202"/>
			</rt_info>
			<output>
				<port id="0" precision="I64">
					<dim>1</dim>
				</port>
			</output>
		</layer>
		<layer id="251" name="Constant_1678" type="Const" version="opset1">
			<data element_type="i64" shape="" offset="3041384" size="8"/>
			<rt_info>
				<attribute name="fused_names" version="0" value="Constant_1678"/>
			</rt_info>
			<output>
				<port id="0" precision="I64"/>
			</output>
		</layer>
		<layer id="252" name="Gather_197" type="Gather" version="opset8">
			<data batch_dims="0"/>
			<rt_info>
				<attribute name="fused_names" version="0" value="Constant_1678, Constant_1687, Constant_196, Gather_197, Unsqueeze_202"/>
			</rt_info>
			<input>
				<port id="0" precision="I64">
					<dim>3</dim>
				</port>
				<port id="1" precision="I64">
					<dim>1</dim>
				</port>
				<port id="2" precision="I64"/>
			</input>
			<output>
				<port id="3" precision="I64" names="279">
					<dim>1</dim>
				</port>
			</output>
		</layer>
		<layer id="253" name="Concat_203" type="Concat" version="opset1">
			<data axis="0"/>
			<rt_info>
				<attribute name="fused_names" version="0" value="433, Concat_203"/>
			</rt_info>
			<input>
				<port id="0" precision="I64">
					<dim>1</dim>
				</port>
				<port id="1" precision="I64">
					<dim>1</dim>
				</port>
				<port id="2" precision="I64">
					<dim>1</dim>
				</port>
				<port id="3" precision="I64">
					<dim>1</dim>
				</port>
			</input>
			<output>
				<port id="4" precision="I64" names="280">
					<dim>4</dim>
				</port>
			</output>
		</layer>
		<layer id="254" name="Reshape_204" type="Reshape" version="opset1">
			<data special_zero="true"/>
			<rt_info>
				<attribute name="fused_names" version="0" value="Reshape_204"/>
			</rt_info>
			<input>
				<port id="0" precision="FP32">
					<dim>8</dim>
					<dim>400</dim>
					<dim>464</dim>
				</port>
				<port id="1" precision="I64">
					<dim>4</dim>
				</port>
			</input>
			<output>
				<port id="2" precision="FP32" names="281">
					<dim>1</dim>
					<dim>8</dim>
					<dim>400</dim>
					<dim>464</dim>
				</port>
			</output>
		</layer>
		<layer id="255" name="Where_209" type="Select" version="opset1">
			<data auto_broadcast="numpy"/>
			<rt_info>
				<attribute name="fused_names" version="0" value="Where_209"/>
			</rt_info>
			<input>
				<port id="0" precision="BOOL">
					<dim>1</dim>
					<dim>1</dim>
					<dim>1</dim>
					<dim>464</dim>
				</port>
				<port id="1" precision="FP32"/>
				<port id="2" precision="FP32">
					<dim>1</dim>
					<dim>8</dim>
					<dim>400</dim>
					<dim>464</dim>
				</port>
			</input>
			<output>
				<port id="3" precision="FP32" names="286">
					<dim>1</dim>
					<dim>8</dim>
					<dim>400</dim>
					<dim>464</dim>
				</port>
			</output>
		</layer>
		<layer id="256" name="Constant_210" type="Const" version="opset1">
			<data element_type="i64" shape="" offset="3242970" size="8"/>
			<rt_info>
				<attribute name="fused_names" version="0" value="Constant_210"/>
			</rt_info>
			<output>
				<port id="0" precision="I64" names="287"/>
			</output>
		</layer>
		<layer id="257" name="Mul_211" type="Multiply" version="opset1">
			<data auto_broadcast="numpy"/>
			<rt_info>
				<attribute name="fused_names" version="0" value="Constant_210, Mul_211"/>
			</rt_info>
			<input>
				<port id="0" precision="I64"/>
				<port id="1" precision="I64"/>
			</input>
			<output>
				<port id="2" precision="I64" names="288"/>
			</output>
		</layer>
		<layer id="258" name="Constant_1762" type="Const" version="opset1">
			<data element_type="i64" shape="1" offset="3041384" size="8"/>
			<rt_info>
				<attribute name="fused_names" version="0" value="Constant_1762"/>
			</rt_info>
			<output>
				<port id="0" precision="I64">
					<dim>1</dim>
				</port>
			</output>
		</layer>
		<layer id="259" name="Unsqueeze_212" type="Unsqueeze" version="opset1">
			<rt_info>
				<attribute name="fused_names" version="0" value="Constant_1762, Unsqueeze_212"/>
			</rt_info>
			<input>
				<port id="0" precision="I64"/>
				<port id="1" precision="I64">
					<dim>1</dim>
				</port>
			</input>
			<output>
				<port id="2" precision="I64" names="289">
					<dim>1</dim>
				</port>
			</output>
		</layer>
		<layer id="260" name="Constant_8149" type="Const" version="opset1">
			<data element_type="i64" shape="1" offset="3041384" size="8"/>
			<rt_info>
				<attribute name="fused_names" version="0" value="Constant_1132, Constant_126, Constant_1764, Gather_127, Unsqueeze_213"/>
			</rt_info>
			<output>
				<port id="0" precision="I64">
					<dim>1</dim>
				</port>
			</output>
		</layer>
		<layer id="261" name="Gather_1271" type="Gather" version="opset8">
			<data batch_dims="0"/>
			<rt_info>
				<attribute name="fused_names" version="0" value="Constant_1132, Constant_126, Constant_1764, Gather_127, Unsqueeze_213"/>
			</rt_info>
			<input>
				<port id="0" precision="I64">
					<dim>3</dim>
				</port>
				<port id="1" precision="I64">
					<dim>1</dim>
				</port>
				<port id="2" precision="I64"/>
			</input>
			<output>
				<port id="3" precision="I64" names="290">
					<dim>1</dim>
				</port>
			</output>
		</layer>
		<layer id="262" name="Constant_8158" type="Const" version="opset1">
			<data element_type="i64" shape="1" offset="3041400" size="8"/>
			<rt_info>
				<attribute name="fused_names" version="0" value="Constant_1678, Constant_1766, Constant_196, Gather_197, Unsqueeze_214"/>
			</rt_info>
			<output>
				<port id="0" precision="I64">
					<dim>1</dim>
				</port>
			</output>
		</layer>
		<layer id="263" name="Gather_1970" type="Gather" version="opset8">
			<data batch_dims="0"/>
			<rt_info>
				<attribute name="fused_names" version="0" value="Constant_1678, Constant_1766, Constant_196, Gather_197, Unsqueeze_214"/>
			</rt_info>
			<input>
				<port id="0" precision="I64">
					<dim>3</dim>
				</port>
				<port id="1" precision="I64">
					<dim>1</dim>
				</port>
				<port id="2" precision="I64"/>
			</input>
			<output>
				<port id="3" precision="I64" names="291">
					<dim>1</dim>
				</port>
			</output>
		</layer>
		<layer id="264" name="Concat_215" type="Concat" version="opset1">
			<data axis="0"/>
			<rt_info>
				<attribute name="fused_names" version="0" value="Concat_215"/>
			</rt_info>
			<input>
				<port id="0" precision="I64">
					<dim>1</dim>
				</port>
				<port id="1" precision="I64">
					<dim>1</dim>
				</port>
				<port id="2" precision="I64">
					<dim>1</dim>
				</port>
			</input>
			<output>
				<port id="3" precision="I64" names="292">
					<dim>3</dim>
				</port>
			</output>
		</layer>
		<layer id="265" name="Reshape_216" type="Reshape" version="opset1">
			<data special_zero="true"/>
			<rt_info>
				<attribute name="fused_names" version="0" value="Reshape_216"/>
			</rt_info>
			<input>
				<port id="0" precision="FP32">
					<dim>1</dim>
					<dim>8</dim>
					<dim>400</dim>
					<dim>464</dim>
				</port>
				<port id="1" precision="I64">
					<dim>3</dim>
				</port>
			</input>
			<output>
				<port id="2" precision="FP32" names="293">
					<dim>8</dim>
					<dim>400</dim>
					<dim>464</dim>
				</port>
			</output>
		</layer>
		<layer id="266" name="Softmax_217" type="SoftMax" version="opset8">
			<data axis="2"/>
			<rt_info>
				<attribute name="fused_names" version="0" value="Softmax_217"/>
			</rt_info>
			<input>
				<port id="0" precision="FP32">
					<dim>8</dim>
					<dim>400</dim>
					<dim>464</dim>
				</port>
			</input>
			<output>
				<port id="1" precision="FP32" names="294">
					<dim>8</dim>
					<dim>400</dim>
					<dim>464</dim>
				</port>
			</output>
		</layer>
		<layer id="267" name="Constant_160" type="Const" version="opset1">
			<data element_type="i64" shape="" offset="3041392" size="8"/>
			<rt_info>
				<attribute name="fused_names" version="0" value="Constant_160"/>
			</rt_info>
			<output>
				<port id="0" precision="I64" names="223"/>
			</output>
		</layer>
		<layer id="268" name="Mul_161" type="Multiply" version="opset1">
			<data auto_broadcast="numpy"/>
			<rt_info>
				<attribute name="fused_names" version="0" value="Constant_160, Mul_161"/>
			</rt_info>
			<input>
				<port id="0" precision="I64"/>
				<port id="1" precision="I64"/>
			</input>
			<output>
				<port id="2" precision="I64" names="224"/>
			</output>
		</layer>
		<layer id="269" name="Constant_1304" type="Const" version="opset1">
			<data element_type="i64" shape="1" offset="3041384" size="8"/>
			<rt_info>
				<attribute name="fused_names" version="0" value="Constant_1304"/>
			</rt_info>
			<output>
				<port id="0" precision="I64">
					<dim>1</dim>
				</port>
			</output>
		</layer>
		<layer id="270" name="Unsqueeze_162" type="Unsqueeze" version="opset1">
			<rt_info>
				<attribute name="fused_names" version="0" value="Constant_1304, Slice_164"/>
			</rt_info>
			<input>
				<port id="0" precision="I64"/>
				<port id="1" precision="I64">
					<dim>1</dim>
				</port>
			</input>
			<output>
				<port id="2" precision="I64" names="227">
					<dim>1</dim>
				</port>
			</output>
		</layer>
		<layer id="271" name="427" type="Const" version="opset1">
			<data element_type="i64" shape="1" offset="3243026" size="8"/>
			<rt_info>
				<attribute name="fused_names" version="0" value="Slice_164"/>
			</rt_info>
			<output>
				<port id="0" precision="I64" names="427">
					<dim>1</dim>
				</port>
			</output>
		</layer>
		<layer id="272" name="Constant_163" type="Const" version="opset1">
			<data element_type="i64" shape="1" offset="3041400" size="8"/>
			<rt_info>
				<attribute name="fused_names" version="0" value="Slice_164"/>
			</rt_info>
			<output>
				<port id="0" precision="I64" names="230">
					<dim>1</dim>
				</port>
			</output>
		</layer>
		<layer id="273" name="Slice_164" type="StridedSlice" version="opset1">
			<data begin_mask="0" end_mask="0" new_axis_mask="" shrink_axis_mask="" ellipsis_mask=""/>
			<rt_info>
				<attribute name="fused_names" version="0" value="Slice_164"/>
			</rt_info>
			<input>
				<port id="0" precision="FP32">
					<dim>384</dim>
					<dim>128</dim>
				</port>
				<port id="1" precision="I64">
					<dim>1</dim>
				</port>
				<port id="2" precision="I64">
					<dim>1</dim>
				</port>
				<port id="3" precision="I64">
					<dim>1</dim>
				</port>
			</input>
			<output>
				<port id="4" precision="FP32" names="231">
					<dim>128</dim>
					<dim>128</dim>
				</port>
			</output>
		</layer>
		<layer id="274" name="Constant_1362" type="Const" version="opset1">
			<data element_type="i64" shape="2" offset="3242184" size="16"/>
			<rt_info>
				<attribute name="fused_names" version="0" value="Constant_1362"/>
			</rt_info>
			<output>
				<port id="0" precision="I64">
					<dim>2</dim>
				</port>
			</output>
		</layer>
		<layer id="275" name="Transpose_168" type="Transpose" version="opset1">
			<rt_info>
				<attribute name="fused_names" version="0" value="Transpose_168"/>
			</rt_info>
			<input>
				<port id="0" precision="FP32">
					<dim>128</dim>
					<dim>128</dim>
				</port>
				<port id="1" precision="I64">
					<dim>2</dim>
				</port>
			</input>
			<output>
				<port id="2" precision="FP32" names="239">
					<dim>128</dim>
					<dim>128</dim>
				</port>
			</output>
		</layer>
		<layer id="276" name="MatMul_169" type="MatMul" version="opset1">
			<data transpose_a="false" transpose_b="false"/>
			<rt_info>
				<attribute name="fused_names" version="0" value="MatMul_169"/>
			</rt_info>
			<input>
				<port id="0" precision="FP32">
					<dim>464</dim>
					<dim>1</dim>
					<dim>128</dim>
				</port>
				<port id="1" precision="FP32">
					<dim>128</dim>
					<dim>128</dim>
				</port>
			</input>
			<output>
				<port id="2" precision="FP32" names="240">
					<dim>464</dim>
					<dim>1</dim>
					<dim>128</dim>
				</port>
			</output>
		</layer>
		<layer id="277" name="Constant_1333" type="Const" version="opset1">
			<data element_type="i64" shape="1" offset="3041384" size="8"/>
			<rt_info>
				<attribute name="fused_names" version="0" value="Constant_1333"/>
			</rt_info>
			<output>
				<port id="0" precision="I64">
					<dim>1</dim>
				</port>
			</output>
		</layer>
		<layer id="278" name="Unsqueeze_165" type="Unsqueeze" version="opset1">
			<rt_info>
				<attribute name="fused_names" version="0" value="Constant_1333, Slice_167"/>
			</rt_info>
			<input>
				<port id="0" precision="I64"/>
				<port id="1" precision="I64">
					<dim>1</dim>
				</port>
			</input>
			<output>
				<port id="2" precision="I64" names="234">
					<dim>1</dim>
				</port>
			</output>
		</layer>
		<layer id="279" name="429" type="Const" version="opset1">
			<data element_type="i64" shape="1" offset="3243026" size="8"/>
			<rt_info>
				<attribute name="fused_names" version="0" value="Slice_167"/>
			</rt_info>
			<output>
				<port id="0" precision="I64" names="429">
					<dim>1</dim>
				</port>
			</output>
		</layer>
		<layer id="280" name="Constant_166" type="Const" version="opset1">
			<data element_type="i64" shape="1" offset="3041400" size="8"/>
			<rt_info>
				<attribute name="fused_names" version="0" value="Slice_167"/>
			</rt_info>
			<output>
				<port id="0" precision="I64" names="237">
					<dim>1</dim>
				</port>
			</output>
		</layer>
		<layer id="281" name="Slice_167" type="StridedSlice" version="opset1">
			<data begin_mask="0" end_mask="0" new_axis_mask="" shrink_axis_mask="" ellipsis_mask=""/>
			<rt_info>
				<attribute name="fused_names" version="0" value="Slice_167"/>
			</rt_info>
			<input>
				<port id="0" precision="FP32">
					<dim>384</dim>
				</port>
				<port id="1" precision="I64">
					<dim>1</dim>
				</port>
				<port id="2" precision="I64">
					<dim>1</dim>
				</port>
				<port id="3" precision="I64">
					<dim>1</dim>
				</port>
			</input>
			<output>
				<port id="4" precision="FP32" names="238">
					<dim>128</dim>
				</port>
			</output>
		</layer>
		<layer id="282" name="Add_170" type="Add" version="opset1">
			<data auto_broadcast="numpy"/>
			<rt_info>
				<attribute name="fused_names" version="0" value="Add_170"/>
			</rt_info>
			<input>
				<port id="0" precision="FP32">
					<dim>464</dim>
					<dim>1</dim>
					<dim>128</dim>
				</port>
				<port id="1" precision="FP32">
					<dim>128</dim>
				</port>
			</input>
			<output>
				<port id="2" precision="FP32" names="241">
					<dim>464</dim>
					<dim>1</dim>
					<dim>128</dim>
				</port>
			</output>
		</layer>
		<layer id="283" name="432" type="Const" version="opset1">
			<data element_type="i64" shape="1" offset="3041408" size="8"/>
			<rt_info>
				<attribute name="fused_names" version="0" value="432"/>
			</rt_info>
			<output>
				<port id="0" precision="I64" names="432">
					<dim>1</dim>
				</port>
			</output>
		</layer>
		<layer id="284" name="Constant_188" type="Const" version="opset1">
			<data element_type="i64" shape="" offset="3242970" size="8"/>
			<rt_info>
				<attribute name="fused_names" version="0" value="Constant_188"/>
			</rt_info>
			<output>
				<port id="0" precision="I64" names="261"/>
			</output>
		</layer>
		<layer id="285" name="Mul_189" type="Multiply" version="opset1">
			<data auto_broadcast="numpy"/>
			<rt_info>
				<attribute name="fused_names" version="0" value="Constant_188, Mul_189"/>
			</rt_info>
			<input>
				<port id="0" precision="I64"/>
				<port id="1" precision="I64"/>
			</input>
			<output>
				<port id="2" precision="I64" names="262"/>
			</output>
		</layer>
		<layer id="286" name="Constant_1581" type="Const" version="opset1">
			<data element_type="i64" shape="1" offset="3041384" size="8"/>
			<rt_info>
				<attribute name="fused_names" version="0" value="Constant_1581"/>
			</rt_info>
			<output>
				<port id="0" precision="I64">
					<dim>1</dim>
				</port>
			</output>
		</layer>
		<layer id="287" name="Unsqueeze_190" type="Unsqueeze" version="opset1">
			<rt_info>
				<attribute name="fused_names" version="0" value="Constant_1581, Unsqueeze_190"/>
			</rt_info>
			<input>
				<port id="0" precision="I64"/>
				<port id="1" precision="I64">
					<dim>1</dim>
				</port>
			</input>
			<output>
				<port id="2" precision="I64" names="265">
					<dim>1</dim>
				</port>
			</output>
		</layer>
		<layer id="288" name="Constant_1583" type="Const" version="opset1">
			<data element_type="i64" shape="1" offset="3041384" size="8"/>
			<rt_info>
				<attribute name="fused_names" version="0" value="Constant_1583"/>
			</rt_info>
			<output>
				<port id="0" precision="I64">
					<dim>1</dim>
				</port>
			</output>
		</layer>
		<layer id="289" name="Unsqueeze_191" type="Unsqueeze" version="opset1">
			<rt_info>
				<attribute name="fused_names" version="0" value="Constant_1583, Unsqueeze_191"/>
			</rt_info>
			<input>
				<port id="0" precision="I64"/>
				<port id="1" precision="I64">
					<dim>1</dim>
				</port>
			</input>
			<output>
				<port id="2" precision="I64" names="266">
					<dim>1</dim>
				</port>
			</output>
		</layer>
		<layer id="290" name="Concat_192" type="Concat" version="opset1">
			<data axis="0"/>
			<rt_info>
				<attribute name="fused_names" version="0" value="432, Concat_192"/>
			</rt_info>
			<input>
				<port id="0" precision="I64">
					<dim>1</dim>
				</port>
				<port id="1" precision="I64">
					<dim>1</dim>
				</port>
				<port id="2" precision="I64">
					<dim>1</dim>
				</port>
			</input>
			<output>
				<port id="3" precision="I64" names="267">
					<dim>3</dim>
				</port>
			</output>
		</layer>
		<layer id="291" name="Reshape_193" type="Reshape" version="opset1">
			<data special_zero="true"/>
			<rt_info>
				<attribute name="fused_names" version="0" value="Reshape_193"/>
			</rt_info>
			<input>
				<port id="0" precision="FP32">
					<dim>464</dim>
					<dim>1</dim>
					<dim>128</dim>
				</port>
				<port id="1" precision="I64">
					<dim>3</dim>
				</port>
			</input>
			<output>
				<port id="2" precision="FP32" names="268">
					<dim>464</dim>
					<dim>8</dim>
					<dim>16</dim>
				</port>
			</output>
		</layer>
		<layer id="292" name="Constant_1674" type="Const" version="opset1">
			<data element_type="i64" shape="3" offset="3242978" size="24"/>
			<rt_info>
				<attribute name="fused_names" version="0" value="Constant_1674"/>
			</rt_info>
			<output>
				<port id="0" precision="I64">
					<dim>3</dim>
				</port>
			</output>
		</layer>
		<layer id="293" name="Transpose_194" type="Transpose" version="opset1">
			<rt_info>
				<attribute name="fused_names" version="0" value="Transpose_194"/>
			</rt_info>
			<input>
				<port id="0" precision="FP32">
					<dim>464</dim>
					<dim>8</dim>
					<dim>16</dim>
				</port>
				<port id="1" precision="I64">
					<dim>3</dim>
				</port>
			</input>
			<output>
				<port id="2" precision="FP32" names="269">
					<dim>8</dim>
					<dim>464</dim>
					<dim>16</dim>
				</port>
			</output>
		</layer>
		<layer id="294" name="MatMul_218" type="MatMul" version="opset1">
			<data transpose_a="false" transpose_b="false"/>
			<rt_info>
				<attribute name="fused_names" version="0" value="MatMul_218"/>
			</rt_info>
			<input>
				<port id="0" precision="FP32">
					<dim>8</dim>
					<dim>400</dim>
					<dim>464</dim>
				</port>
				<port id="1" precision="FP32">
					<dim>8</dim>
					<dim>464</dim>
					<dim>16</dim>
				</port>
			</input>
			<output>
				<port id="2" precision="FP32" names="295">
					<dim>8</dim>
					<dim>400</dim>
					<dim>16</dim>
				</port>
			</output>
		</layer>
		<layer id="295" name="Constant_1837" type="Const" version="opset1">
			<data element_type="i64" shape="3" offset="3242978" size="24"/>
			<rt_info>
				<attribute name="fused_names" version="0" value="Constant_1837"/>
			</rt_info>
			<output>
				<port id="0" precision="I64">
					<dim>3</dim>
				</port>
			</output>
		</layer>
		<layer id="296" name="Transpose_219" type="Transpose" version="opset1">
			<rt_info>
				<attribute name="fused_names" version="0" value="Transpose_219"/>
			</rt_info>
			<input>
				<port id="0" precision="FP32">
					<dim>8</dim>
					<dim>400</dim>
					<dim>16</dim>
				</port>
				<port id="1" precision="I64">
					<dim>3</dim>
				</port>
			</input>
			<output>
				<port id="2" precision="FP32" names="296">
					<dim>400</dim>
					<dim>8</dim>
					<dim>16</dim>
				</port>
			</output>
		</layer>
		<layer id="297" name="Reshape_224" type="Reshape" version="opset1">
			<data special_zero="true"/>
			<rt_info>
				<attribute name="fused_names" version="0" value="Reshape_224"/>
			</rt_info>
			<input>
				<port id="0" precision="FP32">
					<dim>400</dim>
					<dim>8</dim>
					<dim>16</dim>
				</port>
				<port id="1" precision="I64">
					<dim>3</dim>
				</port>
			</input>
			<output>
				<port id="2" precision="FP32" names="301">
					<dim>400</dim>
					<dim>1</dim>
					<dim>128</dim>
				</port>
			</output>
		</layer>
		<layer id="298" name="Constant_13205_compressed" type="Const" version="opset1">
			<data element_type="f16" shape="128, 128" offset="3243034" size="32768"/>
			<output>
				<port id="0" precision="FP16">
					<dim>128</dim>
					<dim>128</dim>
				</port>
			</output>
		</layer>
		<layer id="299" name="Constant_13205" type="Convert" version="opset1">
			<data destination_type="f32"/>
			<rt_info>
				<attribute name="decompression" version="0"/>
				<attribute name="fused_names" version="0" value="434, MatMul_225"/>
			</rt_info>
			<input>
				<port id="0" precision="FP16">
					<dim>128</dim>
					<dim>128</dim>
				</port>
			</input>
			<output>
				<port id="1" precision="FP32">
					<dim>128</dim>
					<dim>128</dim>
				</port>
			</output>
		</layer>
		<layer id="300" name="MatMul_225" type="MatMul" version="opset1">
			<data transpose_a="false" transpose_b="true"/>
			<rt_info>
				<attribute name="fused_names" version="0" value="434, MatMul_225"/>
			</rt_info>
			<input>
				<port id="0" precision="FP32">
					<dim>400</dim>
					<dim>1</dim>
					<dim>128</dim>
				</port>
				<port id="1" precision="FP32">
					<dim>128</dim>
					<dim>128</dim>
				</port>
			</input>
			<output>
				<port id="2" precision="FP32" names="303">
					<dim>400</dim>
					<dim>1</dim>
					<dim>128</dim>
				</port>
			</output>
		</layer>
		<layer id="301" name="Constant_13361_compressed" type="Const" version="opset1">
			<data element_type="f16" shape="1, 1, 128" offset="3275802" size="256"/>
			<output>
				<port id="0" precision="FP16">
					<dim>1</dim>
					<dim>1</dim>
					<dim>128</dim>
				</port>
			</output>
		</layer>
		<layer id="302" name="Constant_13361" type="Convert" version="opset1">
			<data destination_type="f32"/>
			<rt_info>
				<attribute name="decompression" version="0"/>
			</rt_info>
			<input>
				<port id="0" precision="FP16">
					<dim>1</dim>
					<dim>1</dim>
					<dim>128</dim>
				</port>
			</input>
			<output>
				<port id="1" precision="FP32">
					<dim>1</dim>
					<dim>1</dim>
					<dim>128</dim>
				</port>
			</output>
		</layer>
		<layer id="303" name="Add_226" type="Add" version="opset1">
			<data auto_broadcast="numpy"/>
			<rt_info>
				<attribute name="fused_names" version="0" value="Add_226"/>
			</rt_info>
			<input>
				<port id="0" precision="FP32">
					<dim>400</dim>
					<dim>1</dim>
					<dim>128</dim>
				</port>
				<port id="1" precision="FP32">
					<dim>1</dim>
					<dim>1</dim>
					<dim>128</dim>
				</port>
			</input>
			<output>
				<port id="2" precision="FP32" names="304">
					<dim>400</dim>
					<dim>1</dim>
					<dim>128</dim>
				</port>
			</output>
		</layer>
		<layer id="304" name="Add_227" type="Add" version="opset1">
			<data auto_broadcast="numpy"/>
			<rt_info>
				<attribute name="fused_names" version="0" value="Add_227"/>
			</rt_info>
			<input>
				<port id="0" precision="FP32">
					<dim>400</dim>
					<dim>1</dim>
					<dim>128</dim>
				</port>
				<port id="1" precision="FP32">
					<dim>400</dim>
					<dim>1</dim>
					<dim>128</dim>
				</port>
			</input>
			<output>
				<port id="2" precision="FP32" names="305">
					<dim>400</dim>
					<dim>1</dim>
					<dim>128</dim>
				</port>
			</output>
		</layer>
		<layer id="305" name="Constant_1909" type="Const" version="opset1">
			<data element_type="i64" shape="1" offset="3041408" size="8"/>
			<rt_info>
				<attribute name="fused_names" version="0" value="Constant_1909"/>
			</rt_info>
			<output>
				<port id="0" precision="I64">
					<dim>1</dim>
				</port>
			</output>
		</layer>
		<layer id="306" name="Div_236" type="MVN" version="opset6">
			<data eps="9.9999997473787516e-06" normalize_variance="true" eps_mode="INSIDE_SQRT"/>
			<rt_info>
				<attribute name="fused_names" version="0" value="Add_234, Cast_230, Div_236, Pow_231, ReduceMean_228, ReduceMean_232, Sqrt_235, Sub_229"/>
			</rt_info>
			<input>
				<port id="0" precision="FP32">
					<dim>400</dim>
					<dim>1</dim>
					<dim>128</dim>
				</port>
				<port id="1" precision="I64">
					<dim>1</dim>
				</port>
			</input>
			<output>
				<port id="2" precision="FP32" names="316">
					<dim>400</dim>
					<dim>1</dim>
					<dim>128</dim>
				</port>
			</output>
		</layer>
		<layer id="307" name="Constant_13362_compressed" type="Const" version="opset1">
			<data element_type="f16" shape="1, 1, 128" offset="3276058" size="256"/>
			<output>
				<port id="0" precision="FP16">
					<dim>1</dim>
					<dim>1</dim>
					<dim>128</dim>
				</port>
			</output>
		</layer>
		<layer id="308" name="Constant_13362" type="Convert" version="opset1">
			<data destination_type="f32"/>
			<rt_info>
				<attribute name="decompression" version="0"/>
			</rt_info>
			<input>
				<port id="0" precision="FP16">
					<dim>1</dim>
					<dim>1</dim>
					<dim>128</dim>
				</port>
			</input>
			<output>
				<port id="1" precision="FP32">
					<dim>1</dim>
					<dim>1</dim>
					<dim>128</dim>
				</port>
			</output>
		</layer>
		<layer id="309" name="Mul_237" type="Multiply" version="opset1">
			<data auto_broadcast="numpy"/>
			<rt_info>
				<attribute name="fused_names" version="0" value="Mul_237"/>
			</rt_info>
			<input>
				<port id="0" precision="FP32">
					<dim>400</dim>
					<dim>1</dim>
					<dim>128</dim>
				</port>
				<port id="1" precision="FP32">
					<dim>1</dim>
					<dim>1</dim>
					<dim>128</dim>
				</port>
			</input>
			<output>
				<port id="2" precision="FP32" names="317">
					<dim>400</dim>
					<dim>1</dim>
					<dim>128</dim>
				</port>
			</output>
		</layer>
		<layer id="310" name="Constant_13363_compressed" type="Const" version="opset1">
			<data element_type="f16" shape="1, 1, 128" offset="3276314" size="256"/>
			<output>
				<port id="0" precision="FP16">
					<dim>1</dim>
					<dim>1</dim>
					<dim>128</dim>
				</port>
			</output>
		</layer>
		<layer id="311" name="Constant_13363" type="Convert" version="opset1">
			<data destination_type="f32"/>
			<rt_info>
				<attribute name="decompression" version="0"/>
			</rt_info>
			<input>
				<port id="0" precision="FP16">
					<dim>1</dim>
					<dim>1</dim>
					<dim>128</dim>
				</port>
			</input>
			<output>
				<port id="1" precision="FP32">
					<dim>1</dim>
					<dim>1</dim>
					<dim>128</dim>
				</port>
			</output>
		</layer>
		<layer id="312" name="Add_238" type="Add" version="opset1">
			<data auto_broadcast="numpy"/>
			<rt_info>
				<attribute name="fused_names" version="0" value="Add_238"/>
			</rt_info>
			<input>
				<port id="0" precision="FP32">
					<dim>400</dim>
					<dim>1</dim>
					<dim>128</dim>
				</port>
				<port id="1" precision="FP32">
					<dim>1</dim>
					<dim>1</dim>
					<dim>128</dim>
				</port>
			</input>
			<output>
				<port id="2" precision="FP32" names="318">
					<dim>400</dim>
					<dim>1</dim>
					<dim>128</dim>
				</port>
			</output>
		</layer>
		<layer id="313" name="Constant_13213_compressed" type="Const" version="opset1">
…
				<port id="2" precision="FP32">
					<dim>1</dim>
					<dim>1</dim>
				</port>
				<port id="3" precision="FP32">
					<dim>1</dim>
					<dim>1</dim>
				</port>
			</input>
			<output>
				<port id="4" precision="FP32" names="391">
					<dim>1</dim>
					<dim>4</dim>
				</port>
			</output>
		</layer>
		<layer id="402" name="Constant_13372_compressed" type="Const" version="opset1">
			<data element_type="f16" shape="1, 1" offset="4399478" size="2"/>
			<output>
				<port id="0" precision="FP16">
					<dim>1</dim>
					<dim>1</dim>
				</port>
			</output>
		</layer>
		<layer id="403" name="Constant_13372" type="Convert" version="opset1">
			<data destination_type="f32"/>
			<rt_info>
				<attribute name="decompression" version="0"/>
			</rt_info>
			<input>
				<port id="0" precision="FP16">
					<dim>1</dim>
					<dim>1</dim>
				</port>
			</input>
			<output>
				<port id="1" precision="FP32">
					<dim>1</dim>
					<dim>1</dim>
				</port>
			</output>
		</layer>
		<layer id="404" name="Div_304" type="Multiply" version="opset1">
			<data auto_broadcast="numpy"/>
			<rt_info>
				<attribute name="fused_names" version="0" value="441, Div_304"/>
			</rt_info>
			<input>
				<port id="0" precision="FP32">
					<dim>1</dim>
					<dim>4</dim>
				</port>
				<port id="1" precision="FP32">
					<dim>1</dim>
					<dim>1</dim>
				</port>
			</input>
			<output>
				<port id="2" precision="FP32" names="394">
					<dim>1</dim>
					<dim>4</dim>
				</port>
			</output>
		</layer>
		<layer id="405" name="Constant_2203" type="Const" version="opset1">
			<data element_type="i64" shape="" offset="3041408" size="8"/>
			<rt_info>
				<attribute name="fused_names" version="0" value="Constant_2203"/>
			</rt_info>
			<output>
				<port id="0" precision="I64"/>
			</output>
		</layer>
		<layer id="406" name="Constant_2204" type="Const" version="opset1">
			<data element_type="i64" shape="4" offset="4399480" size="32"/>
			<rt_info>
				<attribute name="fused_names" version="0" value="Constant_2204"/>
			</rt_info>
			<output>
				<port id="0" precision="I64">
					<dim>4</dim>
				</port>
			</output>
		</layer>
		<layer id="407" name="Split_305" type="VariadicSplit" version="opset1">
			<rt_info>
				<attribute name="fused_names" version="0" value="Split_305"/>
			</rt_info>
			<input>
				<port id="0" precision="FP32">
					<dim>1</dim>
					<dim>4</dim>
				</port>
				<port id="1" precision="I64"/>
				<port id="2" precision="I64">
					<dim>4</dim>
				</port>
			</input>
			<output>
				<port id="3" precision="FP32" names="395">
					<dim>1</dim>
					<dim>1</dim>
				</port>
				<port id="4" precision="FP32" names="396">
					<dim>1</dim>
					<dim>1</dim>
				</port>
				<port id="5" precision="FP32" names="397">
					<dim>1</dim>
					<dim>1</dim>
				</port>
				<port id="6" precision="FP32" names="398">
					<dim>1</dim>
					<dim>1</dim>
				</port>
			</output>
		</layer>
		<layer id="408" name="Constant_2206" type="Const" version="opset1">
			<data element_type="u64" shape="1" offset="3041400" size="8"/>
			<rt_info>
				<attribute name="fused_names" version="0" value="Constant_2206"/>
			</rt_info>
			<output>
				<port id="0" precision="U64">
					<dim>1</dim>
				</port>
			</output>
		</layer>
		<layer id="409" name="Squeeze_306" type="Squeeze" version="opset1">
			<rt_info>
				<attribute name="fused_names" version="0" value="Squeeze_306"/>
			</rt_info>
			<input>
				<port id="0" precision="FP32">
					<dim>1</dim>
					<dim>1</dim>
				</port>
				<port id="1" precision="U64">
					<dim>1</dim>
				</port>
			</input>
			<output>
				<port id="2" precision="FP32" names="399">
					<dim>1</dim>
				</port>
			</output>
		</layer>
		<layer id="410" name="Constant_2210" type="Const" version="opset1">
			<data element_type="u64" shape="1" offset="3041400" size="8"/>
			<rt_info>
				<attribute name="fused_names" version="0" value="Constant_2210"/>
			</rt_info>
			<output>
				<port id="0" precision="U64">
					<dim>1</dim>
				</port>
			</output>
		</layer>
		<layer id="411" name="Squeeze_308" type="Squeeze" version="opset1">
			<rt_info>
				<attribute name="fused_names" version="0" value="Squeeze_308"/>
			</rt_info>
			<input>
				<port id="0" precision="FP32">
					<dim>1</dim>
					<dim>1</dim>
				</port>
				<port id="1" precision="U64">
					<dim>1</dim>
				</port>
			</input>
			<output>
				<port id="2" precision="FP32" names="401">
					<dim>1</dim>
				</port>
			</output>
		</layer>
		<layer id="412" name="Add_310" type="Add" version="opset1">
			<data auto_broadcast="numpy"/>
			<rt_info>
				<attribute name="fused_names" version="0" value="Add_310"/>
			</rt_info>
			<input>
				<port id="0" precision="FP32">
					<dim>1</dim>
				</port>
				<port id="1" precision="FP32">
					<dim>1</dim>
				</port>
			</input>
			<output>
				<port id="2" precision="FP32" names="403">
					<dim>1</dim>
				</port>
			</output>
		</layer>
		<layer id="413" name="Constant_13373_compressed" type="Const" version="opset1">
			<data element_type="f16" shape="1" offset="4399512" size="2"/>
			<output>
				<port id="0" precision="FP16">
					<dim>1</dim>
				</port>
			</output>
		</layer>
		<layer id="414" name="Constant_13373" type="Convert" version="opset1">
			<data destination_type="f32"/>
			<rt_info>
				<attribute name="decompression" version="0"/>
			</rt_info>
			<input>
				<port id="0" precision="FP16">
					<dim>1</dim>
				</port>
			</input>
			<output>
				<port id="1" precision="FP32">
					<dim>1</dim>
				</port>
			</output>
		</layer>
		<layer id="415" name="Div_311" type="Multiply" version="opset1">
			<data auto_broadcast="numpy"/>
			<rt_info>
				<attribute name="fused_names" version="0" value="442, Div_311"/>
			</rt_info>
			<input>
				<port id="0" precision="FP32">
					<dim>1</dim>
				</port>
				<port id="1" precision="FP32">
					<dim>1</dim>
				</port>
			</input>
			<output>
				<port id="2" precision="FP32" names="406">
					<dim>1</dim>
				</port>
			</output>
		</layer>
		<layer id="416" name="Constant_2220" type="Const" version="opset1">
			<data element_type="i64" shape="1" offset="3041408" size="8"/>
			<rt_info>
				<attribute name="fused_names" version="0" value="Constant_2220"/>
			</rt_info>
			<output>
				<port id="0" precision="I64">
					<dim>1</dim>
				</port>
			</output>
		</layer>
		<layer id="417" name="Unsqueeze_316" type="Unsqueeze" version="opset1">
			<rt_info>
				<attribute name="fused_names" version="0" value="Unsqueeze_316"/>
			</rt_info>
			<input>
				<port id="0" precision="FP32">
					<dim>1</dim>
				</port>
				<port id="1" precision="I64">
					<dim>1</dim>
				</port>
			</input>
			<output>
				<port id="2" precision="FP32" names="413">
					<dim>1</dim>
					<dim>1</dim>
				</port>
			</output>
		</layer>
		<layer id="418" name="Constant_2208" type="Const" version="opset1">
			<data element_type="u64" shape="1" offset="3041400" size="8"/>
			<rt_info>
				<attribute name="fused_names" version="0" value="Constant_2208"/>
			</rt_info>
			<output>
				<port id="0" precision="U64">
					<dim>1</dim>
				</port>
			</output>
		</layer>
		<layer id="419" name="Squeeze_307" type="Squeeze" version="opset1">
			<rt_info>
				<attribute name="fused_names" version="0" value="Squeeze_307"/>
			</rt_info>
			<input>
				<port id="0" precision="FP32">
					<dim>1</dim>
					<dim>1</dim>
				</port>
				<port id="1" precision="U64">
					<dim>1</dim>
				</port>
			</input>
			<output>
				<port id="2" precision="FP32" names="400">
					<dim>1</dim>
				</port>
			</output>
		</layer>
		<layer id="420" name="Constant_2212" type="Const" version="opset1">
			<data element_type="u64" shape="1" offset="3041400" size="8"/>
			<rt_info>
				<attribute name="fused_names" version="0" value="Constant_2212"/>
			</rt_info>
			<output>
				<port id="0" precision="U64">
					<dim>1</dim>
				</port>
			</output>
		</layer>
		<layer id="421" name="Squeeze_309" type="Squeeze" version="opset1">
			<rt_info>
				<attribute name="fused_names" version="0" value="Squeeze_309"/>
			</rt_info>
			<input>
				<port id="0" precision="FP32">
					<dim>1</dim>
					<dim>1</dim>
				</port>
				<port id="1" precision="U64">
					<dim>1</dim>
				</port>
			</input>
			<output>
				<port id="2" precision="FP32" names="402">
					<dim>1</dim>
				</port>
			</output>
		</layer>
		<layer id="422" name="Add_312" type="Add" version="opset1">
			<data auto_broadcast="numpy"/>
			<rt_info>
				<attribute name="fused_names" version="0" value="Add_312"/>
			</rt_info>
			<input>
				<port id="0" precision="FP32">
					<dim>1</dim>
				</port>
				<port id="1" precision="FP32">
					<dim>1</dim>
				</port>
			</input>
			<output>
				<port id="2" precision="FP32" names="407">
					<dim>1</dim>
				</port>
			</output>
		</layer>
		<layer id="423" name="Constant_13374_compressed" type="Const" version="opset1">
			<data element_type="f16" shape="1" offset="4399512" size="2"/>
			<output>
				<port id="0" precision="FP16">
					<dim>1</dim>
				</port>
			</output>
		</layer>
		<layer id="424" name="Constant_13374" type="Convert" version="opset1">
			<data destination_type="f32"/>
			<rt_info>
				<attribute name="decompression" version="0"/>
			</rt_info>
			<input>
				<port id="0" precision="FP16">
					<dim>1</dim>
				</port>
			</input>
			<output>
				<port id="1" precision="FP32">
					<dim>1</dim>
				</port>
			</output>
		</layer>
		<layer id="425" name="Div_313" type="Multiply" version="opset1">
			<data auto_broadcast="numpy"/>
			<rt_info>
				<attribute name="fused_names" version="0" value="443, Div_313"/>
			</rt_info>
			<input>
				<port id="0" precision="FP32">
					<dim>1</dim>
				</port>
				<port id="1" precision="FP32">
					<dim>1</dim>
				</port>
			</input>
			<output>
				<port id="2" precision="FP32" names="410">
					<dim>1</dim>
				</port>
			</output>
		</layer>
		<layer id="426" name="Constant_2222" type="Const" version="opset1">
			<data element_type="i64" shape="1" offset="3041408" size="8"/>
			<rt_info>
				<attribute name="fused_names" version="0" value="Constant_2222"/>
			</rt_info>
			<output>
				<port id="0" precision="I64">
					<dim>1</dim>
				</port>
			</output>
		</layer>
		<layer id="427" name="Unsqueeze_317" type="Unsqueeze" version="opset1">
			<rt_info>
				<attribute name="fused_names" version="0" value="Unsqueeze_317"/>
			</rt_info>
			<input>
				<port id="0" precision="FP32">
					<dim>1</dim>
				</port>
				<port id="1" precision="I64">
					<dim>1</dim>
				</port>
			</input>
			<output>
				<port id="2" precision="FP32" names="414">
					<dim>1</dim>
					<dim>1</dim>
				</port>
			</output>
		</layer>
		<layer id="428" name="Sub_314" type="Subtract" version="opset1">
			<data auto_broadcast="numpy"/>
			<rt_info>
				<attribute name="fused_names" version="0" value="Sub_314"/>
			</rt_info>
			<input>
				<port id="0" precision="FP32">
					<dim>1</dim>
				</port>
				<port id="1" precision="FP32">
					<dim>1</dim>
				</port>
			</input>
			<output>
				<port id="2" precision="FP32" names="411">
					<dim>1</dim>
				</port>
			</output>
		</layer>
		<layer id="429" name="Constant_2224" type="Const" version="opset1">
			<data element_type="i64" shape="1" offset="3041408" size="8"/>
			<rt_info>
				<attribute name="fused_names" version="0" value="Constant_2224"/>
			</rt_info>
			<output>
				<port id="0" precision="I64">
					<dim>1</dim>
				</port>
			</output>
		</layer>
		<layer id="430" name="Unsqueeze_318" type="Unsqueeze" version="opset1">
			<rt_info>
				<attribute name="fused_names" version="0" value="Unsqueeze_318"/>
			</rt_info>
			<input>
				<port id="0" precision="FP32">
					<dim>1</dim>
				</port>
				<port id="1" precision="I64">
					<dim>1</dim>
				</port>
			</input>
			<output>
				<port id="2" precision="FP32" names="415">
					<dim>1</dim>
					<dim>1</dim>
				</port>
			</output>
		</layer>
		<layer id="431" name="Sub_315" type="Subtract" version="opset1">
			<data auto_broadcast="numpy"/>
			<rt_info>
				<attribute name="fused_names" version="0" value="Sub_315"/>
			</rt_info>
			<input>
				<port id="0" precision="FP32">
					<dim>1</dim>
				</port>
				<port id="1" precision="FP32">
					<dim>1</dim>
				</port>
			</input>
			<output>
				<port id="2" precision="FP32" names="412">
					<dim>1</dim>
				</port>
			</output>
		</layer>
		<layer id="432" name="Constant_2226" type="Const" version="opset1">
			<data element_type="i64" shape="1" offset="3041408" size="8"/>
			<rt_info>
				<attribute name="fused_names" version="0" value="Constant_2226"/>
			</rt_info>
			<output>
				<port id="0" precision="I64">
					<dim>1</dim>
				</port>
			</output>
		</layer>
		<layer id="433" name="Unsqueeze_319" type="Unsqueeze" version="opset1">
			<rt_info>
				<attribute name="fused_names" version="0" value="Unsqueeze_319"/>
			</rt_info>
			<input>
				<port id="0" precision="FP32">
					<dim>1</dim>
				</port>
				<port id="1" precision="I64">
					<dim>1</dim>
				</port>
			</input>
			<output>
				<port id="2" precision="FP32" names="416">
					<dim>1</dim>
					<dim>1</dim>
				</port>
			</output>
		</layer>
		<layer id="434" name="outputs_coord" type="Concat" version="opset1">
			<data axis="-1"/>
			<rt_info>
				<attribute name="fused_names" version="0" value="outputs_coord"/>
			</rt_info>
			<input>
				<port id="0" precision="FP32">
					<dim>1</dim>
					<dim>1</dim>
				</port>
				<port id="1" precision="FP32">
					<dim>1</dim>
					<dim>1</dim>
				</port>
				<port id="2" precision="FP32">
					<dim>1</dim>
					<dim>1</dim>
				</port>
				<port id="3" precision="FP32">
					<dim>1</dim>
					<dim>1</dim>
				</port>
			</input>
			<output>
				<port id="4" precision="FP32" names="outputs_coord">
					<dim>1</dim>
					<dim>4</dim>
				</port>
			</output>
		</layer>
		<layer id="435" name="outputs_coord/sink_port_0" type="Result" version="opset1">
			<rt_info>
				<attribute name="fused_names" version="0" value="outputs_coord/sink_port_0"/>
			</rt_info>
			<input>
				<port id="0" precision="FP32">
					<dim>1</dim>
					<dim>4</dim>
				</port>
			</input>
		</layer>
	</layers>
	<edges>
		<edge from-layer="0" from-port="0" to-layer="210" to-port="0"/>
		<edge from-layer="1" from-port="0" to-layer="159" to-port="0"/>
		<edge from-layer="2" from-port="0" to-layer="209" to-port="0"/>
		<edge from-layer="3" from-port="0" to-layer="8" to-port="0"/>
		<edge from-layer="3" from-port="0" to-layer="109" to-port="0"/>
		<edge from-layer="4" from-port="0" to-layer="5" to-port="0"/>
		<edge from-layer="5" from-port="1" to-layer="369" to-port="0"/>
		<edge from-layer="6" from-port="0" to-layer="7" to-port="0"/>
		<edge from-layer="7" from-port="1" to-layer="8" to-port="1"/>
		<edge from-layer="8" from-port="2" to-layer="11" to-port="0"/>
		<edge from-layer="9" from-port="0" to-layer="10" to-port="0"/>
		<edge from-layer="10" from-port="1" to-layer="11" to-port="1"/>
		<edge from-layer="11" from-port="2" to-layer="14" to-port="0"/>
		<edge from-layer="12" from-port="0" to-layer="13" to-port="0"/>
		<edge from-layer="13" from-port="1" to-layer="14" to-port="1"/>
		<edge from-layer="14" from-port="2" to-layer="17" to-port="0"/>
		<edge from-layer="15" from-port="0" to-layer="16" to-port="0"/>
		<edge from-layer="16" from-port="1" to-layer="17" to-port="1"/>
		<edge from-layer="17" from-port="2" to-layer="18" to-port="0"/>
		<edge from-layer="18" from-port="1" to-layer="21" to-port="0"/>
		<edge from-layer="19" from-port="0" to-layer="20" to-port="0"/>
		<edge from-layer="20" from-port="1" to-layer="21" to-port="1"/>
		<edge from-layer="21" from-port="2" to-layer="24" to-port="0"/>
		<edge from-layer="22" from-port="0" to-layer="23" to-port="0"/>
		<edge from-layer="23" from-port="1" to-layer="24" to-port="1"/>
		<edge from-layer="24" from-port="2" to-layer="25" to-port="0"/>
		<edge from-layer="25" from-port="1" to-layer="28" to-port="0"/>
		<edge from-layer="26" from-port="0" to-layer="27" to-port="0"/>
		<edge from-layer="27" from-port="1" to-layer="28" to-port="1"/>
		<edge from-layer="28" from-port="2" to-layer="31" to-port="0"/>
		<edge from-layer="29" from-port="0" to-layer="30" to-port="0"/>
		<edge from-layer="30" from-port="1" to-layer="31" to-port="1"/>
		<edge from-layer="31" from-port="2" to-layer="32" to-port="0"/>
		<edge from-layer="32" from-port="1" to-layer="35" to-port="0"/>
		<edge from-layer="33" from-port="0" to-layer="34" to-port="0"/>
		<edge from-layer="34" from-port="1" to-layer="35" to-port="1"/>
		<edge from-layer="35" from-port="2" to-layer="38" to-port="0"/>
		<edge from-layer="36" from-port="0" to-layer="37" to-port="0"/>
		<edge from-layer="37" from-port="1" to-layer="38" to-port="1"/>
		<edge from-layer="38" from-port="2" to-layer="39" to-port="0"/>
		<edge from-layer="39" from-port="1" to-layer="42" to-port="0"/>
		<edge from-layer="40" from-port="0" to-layer="41" to-port="0"/>
		<edge from-layer="41" from-port="1" to-layer="42" to-port="1"/>
		<edge from-layer="42" from-port="2" to-layer="45" to-port="0"/>
		<edge from-layer="43" from-port="0" to-layer="44" to-port="0"/>
		<edge from-layer="44" from-port="1" to-layer="45" to-port="1"/>
		<edge from-layer="45" from-port="2" to-layer="46" to-port="0"/>
		<edge from-layer="46" from-port="1" to-layer="49" to-port="0"/>
		<edge from-layer="47" from-port="0" to-layer="48" to-port="0"/>
		<edge from-layer="48" from-port="1" to-layer="49" to-port="1"/>
		<edge from-layer="49" from-port="2" to-layer="52" to-port="0"/>
		<edge from-layer="50" from-port="0" to-layer="51" to-port="0"/>
		<edge from-layer="51" from-port="1" to-layer="52" to-port="1"/>
		<edge from-layer="52" from-port="2" to-layer="53" to-port="0"/>
		<edge from-layer="53" from-port="1" to-layer="56" to-port="0"/>
		<edge from-layer="54" from-port="0" to-layer="55" to-port="0"/>
		<edge from-layer="55" from-port="1" to-layer="56" to-port="1"/>
		<edge from-layer="56" from-port="2" to-layer="59" to-port="0"/>
		<edge from-layer="57" from-port="0" to-layer="58" to-port="0"/>
		<edge from-layer="58" from-port="1" to-layer="59" to-port="1"/>
		<edge from-layer="59" from-port="2" to-layer="60" to-port="0"/>
		<edge from-layer="60" from-port="1" to-layer="63" to-port="0"/>
		<edge from-layer="61" from-port="0" to-layer="62" to-port="0"/>
		<edge from-layer="62" from-port="1" to-layer="63" to-port="1"/>
		<edge from-layer="63" from-port="2" to-layer="66" to-port="0"/>
		<edge from-layer="64" from-port="0" to-layer="65" to-port="0"/>
		<edge from-layer="65" from-port="1" to-layer="66" to-port="1"/>
		<edge from-layer="66" from-port="2" to-layer="67" to-port="0"/>
		<edge from-layer="67" from-port="1" to-layer="70" to-port="0"/>
		<edge from-layer="68" from-port="0" to-layer="69" to-port="0"/>
		<edge from-layer="69" from-port="1" to-layer="70" to-port="1"/>
		<edge from-layer="70" from-port="2" to-layer="73" to-port="0"/>
		<edge from-layer="71" from-port="0" to-layer="72" to-port="0"/>
		<edge from-layer="72" from-port="1" to-layer="73" to-port="1"/>
		<edge from-layer="73" from-port="2" to-layer="74" to-port="0"/>
		<edge from-layer="74" from-port="1" to-layer="77" to-port="0"/>
		<edge from-layer="75" from-port="0" to-layer="76" to-port="0"/>
		<edge from-layer="76" from-port="1" to-layer="77" to-port="1"/>
		<edge from-layer="77" from-port="2" to-layer="80" to-port="0"/>
		<edge from-layer="78" from-port="0" to-layer="79" to-port="0"/>
		<edge from-layer="79" from-port="1" to-layer="80" to-port="1"/>
		<edge from-layer="80" from-port="2" to-layer="81" to-port="0"/>
		<edge from-layer="81" from-port="1" to-layer="84" to-port="0"/>
		<edge from-layer="82" from-port="0" to-layer="83" to-port="0"/>
		<edge from-layer="83" from-port="1" to-layer="84" to-port="1"/>
		<edge from-layer="84" from-port="2" to-layer="87" to-port="0"/>
		<edge from-layer="85" from-port="0" to-layer="86" to-port="0"/>
		<edge from-layer="86" from-port="1" to-layer="87" to-port="1"/>
		<edge from-layer="87" from-port="2" to-layer="88" to-port="0"/>
		<edge from-layer="88" from-port="1" to-layer="91" to-port="0"/>
		<edge from-layer="89" from-port="0" to-layer="90" to-port="0"/>
		<edge from-layer="90" from-port="1" to-layer="91" to-port="1"/>
		<edge from-layer="91" from-port="2" to-layer="94" to-port="0"/>
		<edge from-layer="92" from-port="0" to-layer="93" to-port="0"/>
		<edge from-layer="93" from-port="1" to-layer="94" to-port="1"/>
		<edge from-layer="94" from-port="2" to-layer="95" to-port="0"/>
		<edge from-layer="94" from-port="2" to-layer="102" to-port="0"/>
		<edge from-layer="95" from-port="1" to-layer="145" to-port="0"/>
		<edge from-layer="95" from-port="1" to-layer="99" to-port="0"/>
		<edge from-layer="96" from-port="0" to-layer="99" to-port="1"/>
		<edge from-layer="97" from-port="0" to-layer="99" to-port="2"/>
		<edge from-layer="98" from-port="0" to-layer="99" to-port="3"/>
		<edge from-layer="99" from-port="4" to-layer="101" to-port="0"/>
		<edge from-layer="100" from-port="0" to-layer="101" to-port="1"/>
		<edge from-layer="101" from-port="2" to-layer="102" to-port="1"/>
		<edge from-layer="102" from-port="2" to-layer="104" to-port="0"/>
		<edge from-layer="103" from-port="0" to-layer="104" to-port="1"/>
		<edge from-layer="104" from-port="2" to-layer="209" to-port="1"/>
		<edge from-layer="104" from-port="2" to-layer="107" to-port="0"/>
		<edge from-layer="105" from-port="0" to-layer="106" to-port="0"/>
		<edge from-layer="106" from-port="1" to-layer="210" to-port="1"/>
		<edge from-layer="106" from-port="1" to-layer="107" to-port="1"/>
		<edge from-layer="107" from-port="2" to-layer="169" to-port="0"/>
		<edge from-layer="107" from-port="2" to-layer="177" to-port="0"/>
		<edge from-layer="107" from-port="2" to-layer="304" to-port="0"/>
		<edge from-layer="108" from-port="0" to-layer="109" to-port="1"/>
		<edge from-layer="109" from-port="2" to-layer="112" to-port="0"/>
		<edge from-layer="110" from-port="0" to-layer="111" to-port="0"/>
		<edge from-layer="111" from-port="1" to-layer="112" to-port="1"/>
		<edge from-layer="112" from-port="2" to-layer="113" to-port="0"/>
		<edge from-layer="113" from-port="1" to-layer="115" to-port="0"/>
		<edge from-layer="114" from-port="0" to-layer="115" to-port="1"/>
		<edge from-layer="115" from-port="2" to-layer="116" to-port="0"/>
		<edge from-layer="116" from-port="1" to-layer="117" to-port="0"/>
		<edge from-layer="116" from-port="1" to-layer="123" to-port="2"/>
		<edge from-layer="116" from-port="1" to-layer="123" to-port="1"/>
		<edge from-layer="117" from-port="1" to-layer="120" to-port="0"/>
		<edge from-layer="118" from-port="0" to-layer="120" to-port="1"/>
		<edge from-layer="119" from-port="0" to-layer="120" to-port="2"/>
		<edge from-layer="120" from-port="3" to-layer="122" to-port="0"/>
		<edge from-layer="121" from-port="0" to-layer="122" to-port="1"/>
		<edge from-layer="122" from-port="2" to-layer="123" to-port="0"/>
		<edge from-layer="123" from-port="3" to-layer="130" to-port="1"/>
		<edge from-layer="123" from-port="3" to-layer="130" to-port="2"/>
		<edge from-layer="123" from-port="3" to-layer="124" to-port="0"/>
		<edge from-layer="124" from-port="1" to-layer="127" to-port="0"/>
		<edge from-layer="125" from-port="0" to-layer="127" to-port="1"/>
		<edge from-layer="126" from-port="0" to-layer="127" to-port="2"/>
		<edge from-layer="127" from-port="3" to-layer="129" to-port="0"/>
		<edge from-layer="128" from-port="0" to-layer="129" to-port="1"/>
		<edge from-layer="129" from-port="2" to-layer="130" to-port="0"/>
		<edge from-layer="130" from-port="3" to-layer="131" to-port="0"/>
		<edge from-layer="131" from-port="1" to-layer="132" to-port="0"/>
		<edge from-layer="132" from-port="1" to-layer="134" to-port="0"/>
		<edge from-layer="133" from-port="0" to-layer="134" to-port="1"/>
		<edge from-layer="134" from-port="2" to-layer="136" to-port="0"/>
		<edge from-layer="135" from-port="0" to-layer="136" to-port="1"/>
		<edge from-layer="136" from-port="2" to-layer="137" to-port="0"/>
		<edge from-layer="137" from-port="1" to-layer="138" to-port="0"/>
		<edge from-layer="137" from-port="1" to-layer="152" to-port="0"/>
		<edge from-layer="138" from-port="1" to-layer="148" to-port="0"/>
		<edge from-layer="138" from-port="1" to-layer="142" to-port="0"/>
		<edge from-layer="139" from-port="0" to-layer="142" to-port="1"/>
		<edge from-layer="140" from-port="0" to-layer="142" to-port="2"/>
		<edge from-layer="141" from-port="0" to-layer="142" to-port="3"/>
		<edge from-layer="142" from-port="4" to-layer="146" to-port="0"/>
		<edge from-layer="143" from-port="0" to-layer="145" to-port="1"/>
		<edge from-layer="144" from-port="0" to-layer="145" to-port="2"/>
		<edge from-layer="145" from-port="3" to-layer="146" to-port="1"/>
		<edge from-layer="146" from-port="2" to-layer="147" to-port="0"/>
		<edge from-layer="146" from-port="2" to-layer="152" to-port="1"/>
		<edge from-layer="147" from-port="1" to-layer="149" to-port="0"/>
		<edge from-layer="148" from-port="1" to-layer="149" to-port="1"/>
		<edge from-layer="149" from-port="2" to-layer="151" to-port="0"/>
		<edge from-layer="150" from-port="0" to-layer="151" to-port="1"/>
		<edge from-layer="151" from-port="2" to-layer="152" to-port="2"/>
		<edge from-layer="152" from-port="3" to-layer="153" to-port="0"/>
		<edge from-layer="153" from-port="1" to-layer="156" to-port="0"/>
		<edge from-layer="154" from-port="0" to-layer="156" to-port="1"/>
		<edge from-layer="155" from-port="0" to-layer="156" to-port="2"/>
		<edge from-layer="156" from-port="3" to-layer="158" to-port="0"/>
		<edge from-layer="157" from-port="0" to-layer="158" to-port="1"/>
		<edge from-layer="158" from-port="2" to-layer="159" to-port="1"/>
		<edge from-layer="159" from-port="2" to-layer="161" to-port="0"/>
		<edge from-layer="160" from-port="0" to-layer="161" to-port="1"/>
		<edge from-layer="161" from-port="2" to-layer="163" to-port="0"/>
		<edge from-layer="162" from-port="0" to-layer="163" to-port="1"/>
		<edge from-layer="163" from-port="2" to-layer="255" to-port="0"/>
		<edge from-layer="164" from-port="0" to-layer="165" to-port="0"/>
		<edge from-layer="165" from-port="1" to-layer="255" to-port="1"/>
		<edge from-layer="166" from-port="0" to-layer="167" to-port="0"/>
		<edge from-layer="167" from-port="1" to-layer="219" to-port="0"/>
		<edge from-layer="167" from-port="1" to-layer="174" to-port="0"/>
		<edge from-layer="167" from-port="1" to-layer="273" to-port="0"/>
		<edge from-layer="168" from-port="0" to-layer="174" to-port="1"/>
		<edge from-layer="169" from-port="1" to-layer="246" to-port="0"/>
		<edge from-layer="169" from-port="1" to-layer="191" to-port="0"/>
		<edge from-layer="169" from-port="1" to-layer="243" to-port="0"/>
		<edge from-layer="169" from-port="1" to-layer="200" to-port="0"/>
		<edge from-layer="169" from-port="1" to-layer="194" to-port="0"/>
		<edge from-layer="169" from-port="1" to-layer="261" to-port="0"/>
		<edge from-layer="169" from-port="1" to-layer="297" to-port="1"/>
		<edge from-layer="169" from-port="1" to-layer="182" to-port="0"/>
		<edge from-layer="169" from-port="1" to-layer="224" to-port="0"/>
		<edge from-layer="169" from-port="1" to-layer="213" to-port="0"/>
		<edge from-layer="169" from-port="1" to-layer="172" to-port="0"/>
		<edge from-layer="170" from-port="0" to-layer="172" to-port="1"/>
		<edge from-layer="171" from-port="0" to-layer="200" to-port="2"/>
		<edge from-layer="171" from-port="0" to-layer="224" to-port="2"/>
		<edge from-layer="171" from-port="0" to-layer="213" to-port="2"/>
		<edge from-layer="171" from-port="0" to-layer="172" to-port="2"/>
		<edge from-layer="171" from-port="0" to-layer="182" to-port="2"/>
		<edge from-layer="172" from-port="3" to-layer="174" to-port="2"/>
		<edge from-layer="173" from-port="0" to-layer="174" to-port="3"/>
		<edge from-layer="174" from-port="4" to-layer="176" to-port="0"/>
		<edge from-layer="175" from-port="0" to-layer="176" to-port="1"/>
		<edge from-layer="176" from-port="2" to-layer="177" to-port="1"/>
		<edge from-layer="177" from-port="2" to-layer="185" to-port="0"/>
		<edge from-layer="178" from-port="0" to-layer="179" to-port="0"/>
		<edge from-layer="179" from-port="1" to-layer="281" to-port="0"/>
		<edge from-layer="179" from-port="1" to-layer="184" to-port="0"/>
		<edge from-layer="179" from-port="1" to-layer="228" to-port="0"/>
		<edge from-layer="180" from-port="0" to-layer="184" to-port="1"/>
		<edge from-layer="181" from-port="0" to-layer="182" to-port="1"/>
		<edge from-layer="182" from-port="3" to-layer="184" to-port="2"/>
		<edge from-layer="183" from-port="0" to-layer="184" to-port="3"/>
		<edge from-layer="184" from-port="4" to-layer="185" to-port="1"/>
		<edge from-layer="185" from-port="2" to-layer="188" to-port="0"/>
		<edge from-layer="186" from-port="0" to-layer="187" to-port="0"/>
		<edge from-layer="187" from-port="1" to-layer="188" to-port="1"/>
		<edge from-layer="188" from-port="2" to-layer="206" to-port="0"/>
		<edge from-layer="189" from-port="0" to-layer="191" to-port="1"/>
		<edge from-layer="190" from-port="0" to-layer="191" to-port="2"/>
		<edge from-layer="190" from-port="0" to-layer="261" to-port="2"/>
		<edge from-layer="190" from-port="0" to-layer="246" to-port="2"/>
		<edge from-layer="191" from-port="3" to-layer="205" to-port="0"/>
		<edge from-layer="192" from-port="0" to-layer="194" to-port="1"/>
		<edge from-layer="193" from-port="0" to-layer="243" to-port="2"/>
		<edge from-layer="193" from-port="0" to-layer="194" to-port="2"/>
		<edge from-layer="194" from-port="3" to-layer="196" to-port="0"/>
		<edge from-layer="194" from-port="3" to-layer="257" to-port="0"/>
		<edge from-layer="194" from-port="3" to-layer="285" to-port="0"/>
		<edge from-layer="194" from-port="3" to-layer="232" to-port="0"/>
		<edge from-layer="195" from-port="0" to-layer="196" to-port="1"/>
		<edge from-layer="196" from-port="2" to-layer="198" to-port="0"/>
		<edge from-layer="197" from-port="0" to-layer="198" to-port="1"/>
		<edge from-layer="198" from-port="2" to-layer="205" to-port="1"/>
		<edge from-layer="199" from-port="0" to-layer="200" to-port="1"/>
		<edge from-layer="200" from-port="3" to-layer="215" to-port="0"/>
		<edge from-layer="200" from-port="3" to-layer="202" to-port="0"/>
		<edge from-layer="200" from-port="3" to-layer="268" to-port="0"/>
		<edge from-layer="201" from-port="0" to-layer="202" to-port="1"/>
		<edge from-layer="202" from-port="2" to-layer="204" to-port="0"/>
		<edge from-layer="202" from-port="2" to-layer="289" to-port="0"/>
		<edge from-layer="202" from-port="2" to-layer="236" to-port="0"/>
		<edge from-layer="203" from-port="0" to-layer="204" to-port="1"/>
		<edge from-layer="204" from-port="2" to-layer="205" to-port="2"/>
		<edge from-layer="205" from-port="3" to-layer="206" to-port="1"/>
		<edge from-layer="206" from-port="2" to-layer="208" to-port="0"/>
		<edge from-layer="207" from-port="0" to-layer="208" to-port="1"/>
		<edge from-layer="208" from-port="2" to-layer="241" to-port="0"/>
		<edge from-layer="209" from-port="2" to-layer="211" to-port="0"/>
		<edge from-layer="209" from-port="2" to-layer="276" to-port="0"/>
		<edge from-layer="210" from-port="2" to-layer="211" to-port="1"/>
		<edge from-layer="211" from-port="2" to-layer="222" to-port="0"/>
		<edge from-layer="212" from-port="0" to-layer="213" to-port="1"/>
		<edge from-layer="213" from-port="3" to-layer="219" to-port="1"/>
		<edge from-layer="214" from-port="0" to-layer="215" to-port="1"/>
		<edge from-layer="215" from-port="2" to-layer="226" to-port="0"/>
		<edge from-layer="215" from-port="2" to-layer="217" to-port="0"/>
		<edge from-layer="216" from-port="0" to-layer="217" to-port="1"/>
		<edge from-layer="217" from-port="2" to-layer="219" to-port="2"/>
		<edge from-layer="218" from-port="0" to-layer="219" to-port="3"/>
		<edge from-layer="219" from-port="4" to-layer="221" to-port="0"/>
		<edge from-layer="220" from-port="0" to-layer="221" to-port="1"/>
		<edge from-layer="221" from-port="2" to-layer="222" to-port="1"/>
		<edge from-layer="222" from-port="2" to-layer="229" to-port="0"/>
		<edge from-layer="223" from-port="0" to-layer="224" to-port="1"/>
		<edge from-layer="224" from-port="3" to-layer="228" to-port="1"/>
		<edge from-layer="225" from-port="0" to-layer="226" to-port="1"/>
		<edge from-layer="226" from-port="2" to-layer="228" to-port="2"/>
		<edge from-layer="227" from-port="0" to-layer="228" to-port="3"/>
		<edge from-layer="228" from-port="4" to-layer="229" to-port="1"/>
		<edge from-layer="229" from-port="2" to-layer="238" to-port="0"/>
		<edge from-layer="230" from-port="0" to-layer="237" to-port="0"/>
		<edge from-layer="231" from-port="0" to-layer="232" to-port="1"/>
		<edge from-layer="232" from-port="2" to-layer="234" to-port="0"/>
		<edge from-layer="233" from-port="0" to-layer="234" to-port="1"/>
		<edge from-layer="234" from-port="2" to-layer="237" to-port="1"/>
		<edge from-layer="235" from-port="0" to-layer="236" to-port="1"/>
		<edge from-layer="236" from-port="2" to-layer="237" to-port="2"/>
		<edge from-layer="237" from-port="3" to-layer="238" to-port="1"/>
		<edge from-layer="238" from-port="2" to-layer="248" to-port="0"/>
		<edge from-layer="238" from-port="2" to-layer="240" to-port="0"/>
		<edge from-layer="239" from-port="0" to-layer="240" to-port="1"/>
		<edge from-layer="240" from-port="2" to-layer="241" to-port="1"/>
		<edge from-layer="241" from-port="2" to-layer="254" to-port="0"/>
		<edge from-layer="242" from-port="0" to-layer="243" to-port="1"/>
		<edge from-layer="243" from-port="3" to-layer="253" to-port="0"/>
		<edge from-layer="244" from-port="0" to-layer="253" to-port="1"/>
		<edge from-layer="245" from-port="0" to-layer="246" to-port="1"/>
		<edge from-layer="246" from-port="3" to-layer="253" to-port="2"/>
		<edge from-layer="247" from-port="0" to-layer="248" to-port="1"/>
		<edge from-layer="248" from-port="2" to-layer="249" to-port="0"/>
		<edge from-layer="249" from-port="1" to-layer="263" to-port="0"/>
		<edge from-layer="249" from-port="1" to-layer="252" to-port="0"/>
		<edge from-layer="250" from-port="0" to-layer="252" to-port="1"/>
		<edge from-layer="251" from-port="0" to-layer="263" to-port="2"/>
		<edge from-layer="251" from-port="0" to-layer="252" to-port="2"/>
		<edge from-layer="252" from-port="3" to-layer="253" to-port="3"/>
		<edge from-layer="253" from-port="4" to-layer="254" to-port="1"/>
		<edge from-layer="254" from-port="2" to-layer="255" to-port="2"/>
		<edge from-layer="255" from-port="3" to-layer="265" to-port="0"/>
		<edge from-layer="256" from-port="0" to-layer="257" to-port="1"/>
		<edge from-layer="257" from-port="2" to-layer="259" to-port="0"/>
		<edge from-layer="258" from-port="0" to-layer="259" to-port="1"/>
		<edge from-layer="259" from-port="2" to-layer="264" to-port="0"/>
		<edge from-layer="260" from-port="0" to-layer="261" to-port="1"/>
		<edge from-layer="261" from-port="3" to-layer="264" to-port="1"/>
		<edge from-layer="262" from-port="0" to-layer="263" to-port="1"/>
		<edge from-layer="263" from-port="3" to-layer="264" to-port="2"/>
		<edge from-layer="264" from-port="3" to-layer="265" to-port="1"/>
		<edge from-layer="265" from-port="2" to-layer="266" to-port="0"/>
		<edge from-layer="266" from-port="1" to-layer="294" to-port="0"/>
		<edge from-layer="267" from-port="0" to-layer="268" to-port="1"/>
		<edge from-layer="268" from-port="2" to-layer="278" to-port="0"/>
		<edge from-layer="268" from-port="2" to-layer="270" to-port="0"/>
		<edge from-layer="269" from-port="0" to-layer="270" to-port="1"/>
		<edge from-layer="270" from-port="2" to-layer="273" to-port="1"/>
		<edge from-layer="271" from-port="0" to-layer="273" to-port="2"/>
		<edge from-layer="272" from-port="0" to-layer="273" to-port="3"/>
		<edge from-layer="273" from-port="4" to-layer="275" to-port="0"/>
		<edge from-layer="274" from-port="0" to-layer="275" to-port="1"/>
		<edge from-layer="275" from-port="2" to-layer="276" to-port="1"/>
		<edge from-layer="276" from-port="2" to-layer="282" to-port="0"/>
		<edge from-layer="277" from-port="0" to-layer="278" to-port="1"/>
		<edge from-layer="278" from-port="2" to-layer="281" to-port="1"/>
		<edge from-layer="279" from-port="0" to-layer="281" to-port="2"/>
		<edge from-layer="280" from-port="0" to-layer="281" to-port="3"/>
		<edge from-layer="281" from-port="4" to-layer="282" to-port="1"/>
		<edge from-layer="282" from-port="2" to-layer="291" to-port="0"/>
		<edge from-layer="283" from-port="0" to-layer="290" to-port="0"/>
		<edge from-layer="284" from-port="0" to-layer="285" to-port="1"/>
		<edge from-layer="285" from-port="2" to-layer="287" to-port="0"/>
		<edge from-layer="286" from-port="0" to-layer="287" to-port="1"/>
		<edge from-layer="287" from-port="2" to-layer="290" to-port="1"/>
		<edge from-layer="288" from-port="0" to-layer="289" to-port="1"/>
		<edge from-layer="289" from-port="2" to-layer="290" to-port="2"/>
		<edge from-layer="290" from-port="3" to-layer="291" to-port="1"/>
		<edge from-layer="291" from-port="2" to-layer="293" to-port="0"/>
		<edge from-layer="292" from-port="0" to-layer="293" to-port="1"/>
		<edge from-layer="293" from-port="2" to-layer="294" to-port="1"/>
		<edge from-layer="294" from-port="2" to-layer="296" to-port="0"/>
		<edge from-layer="295" from-port="0" to-layer="296" to-port="1"/>
		<edge from-layer="296" from-port="2" to-layer="297" to-port="0"/>
		<edge from-layer="297" from-port="2" to-layer="300" to-port="0"/>
		<edge from-layer="298" from-port="0" to-layer="299" to-port="0"/>
		<edge from-layer="299" from-port="1" to-layer="300" to-port="1"/>
		<edge from-layer="300" from-port="2" to-layer="303" to-port="0"/>
		<edge from-layer="301" from-port="0" to-layer="302" to-port="0"/>
		<edge from-layer="302" from-port="1" to-layer="303" to-port="1"/>
		<edge from-layer="303" from-port="2" to-layer="304" to-port="1"/>
		<edge from-layer="304" from-port="2" to-layer="306" to-port="0"/>
		<edge from-layer="305" from-port="0" to-layer="306" to-port="1"/>
		<edge from-layer="306" from-port="2" to-layer="309" to-port="0"/>
		<edge from-layer="307" from-port="0" to-layer="308" to-port="0"/>
		<edge from-layer="308" from-port="1" to-layer="309" to-port="1"/>
		<edge from-layer="309" from-port="2" to-layer="312" to-port="0"/>
		<edge from-layer="310" from-port="0" to-layer="311" to-port="0"/>
		<edge from-layer="311" from-port="1" to-layer="312" to-port="1"/>
		<edge from-layer="312" from-port="2" to-layer="315" to-port="0"/>
		<edge from-layer="312" from-port="2" to-layer="326" to-port="0"/>
		<edge from-layer="313" from-port="0" to-layer="314" to-port="0"/>
		<edge from-layer="314" from-port="1" to-layer="315" to-port="1"/>
		<edge from-layer="315" from-port="2" to-layer="318" to-port="0"/>
		<edge from-layer="316" from-port="0" to-layer="317" to-port="0"/>
		<edge from-layer="317" from-port="1" to-layer="318" to-port="1"/>
		<edge from-layer="318" from-port="2" to-layer="319" to-port="0"/>
		<edge from-layer="319" from-port="1" to-layer="322" to-port="0"/>
		<edge from-layer="320" from-port="0" to-layer="321" to-port="0"/>
		<edge from-layer="321" from-port="1" to-layer="322" to-port="1"/>
		<edge from-layer="322" from-port="2" to-layer="325" to-port="0"/>
		<edge from-layer="323" from-port="0" to-layer="324" to-port="0"/>
		<edge from-layer="324" from-port="1" to-layer="325" to-port="1"/>
		<edge from-layer="325" from-port="2" to-layer="326" to-port="1"/>
		<edge from-layer="326" from-port="2" to-layer="328" to-port="0"/>
		<edge from-layer="327" from-port="0" to-layer="328" to-port="1"/>
		<edge from-layer="328" from-port="2" to-layer="331" to-port="0"/>
		<edge from-layer="329" from-port="0" to-layer="330" to-port="0"/>
		<edge from-layer="330" from-port="1" to-layer="331" to-port="1"/>
		<edge from-layer="331" from-port="2" to-layer="334" to-port="0"/>
		<edge from-layer="332" from-port="0" to-layer="333" to-port="0"/>
		<edge from-layer="333" from-port="1" to-layer="334" to-port="1"/>
		<edge from-layer="334" from-port="2" to-layer="338" to-port="0"/>
		<edge from-layer="335" from-port="0" to-layer="338" to-port="1"/>
		<edge from-layer="336" from-port="0" to-layer="338" to-port="2"/>
		<edge from-layer="337" from-port="0" to-layer="338" to-port="3"/>
		<edge from-layer="338" from-port="4" to-layer="340" to-port="0"/>
		<edge from-layer="339" from-port="0" to-layer="340" to-port="1"/>
		<edge from-layer="340" from-port="2" to-layer="342" to-port="0"/>
		<edge from-layer="341" from-port="0" to-layer="342" to-port="1"/>
		<edge from-layer="342" from-port="2" to-layer="345" to-port="0"/>
		<edge from-layer="343" from-port="0" to-layer="344" to-port="0"/>
		<edge from-layer="344" from-port="1" to-layer="345" to-port="1"/>
		<edge from-layer="345" from-port="2" to-layer="348" to-port="0"/>
		<edge from-layer="346" from-port="0" to-layer="347" to-port="0"/>
		<edge from-layer="347" from-port="1" to-layer="348" to-port="1"/>
		<edge from-layer="348" from-port="2" to-layer="349" to-port="0"/>
		<edge from-layer="349" from-port="1" to-layer="352" to-port="0"/>
		<edge from-layer="350" from-port="0" to-layer="351" to-port="0"/>
		<edge from-layer="351" from-port="1" to-layer="352" to-port="1"/>
		<edge from-layer="352" from-port="2" to-layer="355" to-port="0"/>
		<edge from-layer="353" from-port="0" to-layer="354" to-port="0"/>
		<edge from-layer="354" from-port="1" to-layer="355" to-port="1"/>
		<edge from-layer="355" from-port="2" to-layer="356" to-port="0"/>
		<edge from-layer="356" from-port="1" to-layer="359" to-port="0"/>
		<edge from-layer="357" from-port="0" to-layer="358" to-port="0"/>
		<edge from-layer="358" from-port="1" to-layer="359" to-port="1"/>
		<edge from-layer="359" from-port="2" to-layer="362" to-port="0"/>
		<edge from-layer="360" from-port="0" to-layer="361" to-port="0"/>
		<edge from-layer="361" from-port="1" to-layer="362" to-port="1"/>
		<edge from-layer="362" from-port="2" to-layer="365" to-port="0"/>
		<edge from-layer="362" from-port="2" to-layer="385" to-port="0"/>
		<edge from-layer="363" from-port="0" to-layer="365" to-port="1"/>
		<edge from-layer="364" from-port="0" to-layer="365" to-port="2"/>
		<edge from-layer="365" from-port="3" to-layer="367" to-port="0"/>
		<edge from-layer="366" from-port="0" to-layer="367" to-port="1"/>
		<edge from-layer="367" from-port="2" to-layer="368" to-port="0"/>
		<edge from-layer="368" from-port="1" to-layer="369" to-port="1"/>
		<edge from-layer="368" from-port="1" to-layer="376" to-port="1"/>
		<edge from-layer="369" from-port="2" to-layer="371" to-port="0"/>
		<edge from-layer="370" from-port="0" to-layer="371" to-port="1"/>
		<edge from-layer="371" from-port="2" to-layer="373" to-port="0"/>
		<edge from-layer="372" from-port="0" to-layer="373" to-port="1"/>
		<edge from-layer="373" from-port="2" to-layer="401" to-port="0"/>
		<edge from-layer="374" from-port="0" to-layer="375" to-port="0"/>
		<edge from-layer="375" from-port="1" to-layer="376" to-port="0"/>
		<edge from-layer="376" from-port="2" to-layer="378" to-port="0"/>
		<edge from-layer="377" from-port="0" to-layer="378" to-port="1"/>
		<edge from-layer="378" from-port="2" to-layer="380" to-port="0"/>
		<edge from-layer="379" from-port="0" to-layer="380" to-port="1"/>
		<edge from-layer="380" from-port="2" to-layer="401" to-port="1"/>
		<edge from-layer="381" from-port="0" to-layer="382" to-port="0"/>
		<edge from-layer="382" from-port="1" to-layer="389" to-port="0"/>
		<edge from-layer="383" from-port="0" to-layer="385" to-port="1"/>
		<edge from-layer="384" from-port="0" to-layer="385" to-port="2"/>
		<edge from-layer="385" from-port="3" to-layer="387" to-port="0"/>
		<edge from-layer="386" from-port="0" to-layer="387" to-port="1"/>
		<edge from-layer="387" from-port="2" to-layer="388" to-port="0"/>
		<edge from-layer="388" from-port="1" to-layer="389" to-port="1"/>
		<edge from-layer="388" from-port="1" to-layer="396" to-port="1"/>
		<edge from-layer="389" from-port="2" to-layer="391" to-port="0"/>
		<edge from-layer="390" from-port="0" to-layer="391" to-port="1"/>
		<edge from-layer="391" from-port="2" to-layer="393" to-port="0"/>
		<edge from-layer="392" from-port="0" to-layer="393" to-port="1"/>
		<edge from-layer="393" from-port="2" to-layer="401" to-port="2"/>
		<edge from-layer="394" from-port="0" to-layer="395" to-port="0"/>
		<edge from-layer="395" from-port="1" to-layer="396" to-port="0"/>
		<edge from-layer="396" from-port="2" to-layer="398" to-port="0"/>
		<edge from-layer="397" from-port="0" to-layer="398" to-port="1"/>
		<edge from-layer="398" from-port="2" to-layer="400" to-port="0"/>
		<edge from-layer="399" from-port="0" to-layer="400" to-port="1"/>
		<edge from-layer="400" from-port="2" to-layer="401" to-port="3"/>
		<edge from-layer="401" from-port="4" to-layer="404" to-port="0"/>
		<edge from-layer="402" from-port="0" to-layer="403" to-port="0"/>
		<edge from-layer="403" from-port="1" to-layer="404" to-port="1"/>
		<edge from-layer="404" from-port="2" to-layer="407" to-port="0"/>
		<edge from-layer="405" from-port="0" to-layer="407" to-port="1"/>
		<edge from-layer="406" from-port="0" to-layer="407" to-port="2"/>
		<edge from-layer="407" from-port="3" to-layer="409" to-port="0"/>
		<edge from-layer="407" from-port="5" to-layer="411" to-port="0"/>
		<edge from-layer="407" from-port="4" to-layer="419" to-port="0"/>
		<edge from-layer="407" from-port="6" to-layer="421" to-port="0"/>
		<edge from-layer="408" from-port="0" to-layer="409" to-port="1"/>
		<edge from-layer="409" from-port="2" to-layer="412" to-port="0"/>
		<edge from-layer="409" from-port="2" to-layer="428" to-port="1"/>
		<edge from-layer="410" from-port="0" to-layer="411" to-port="1"/>
		<edge from-layer="411" from-port="2" to-layer="412" to-port="1"/>
		<edge from-layer="411" from-port="2" to-layer="428" to-port="0"/>
		<edge from-layer="412" from-port="2" to-layer="415" to-port="0"/>
		<edge from-layer="413" from-port="0" to-layer="414" to-port="0"/>
		<edge from-layer="414" from-port="1" to-layer="415" to-port="1"/>
		<edge from-layer="415" from-port="2" to-layer="417" to-port="0"/>
		<edge from-layer="416" from-port="0" to-layer="417" to-port="1"/>
		<edge from-layer="417" from-port="2" to-layer="434" to-port="0"/>
		<edge from-layer="418" from-port="0" to-layer="419" to-port="1"/>
		<edge from-layer="419" from-port="2" to-layer="422" to-port="0"/>
		<edge from-layer="419" from-port="2" to-layer="431" to-port="1"/>
		<edge from-layer="420" from-port="0" to-layer="421" to-port="1"/>
		<edge from-layer="421" from-port="2" to-layer="422" to-port="1"/>
		<edge from-layer="421" from-port="2" to-layer="431" to-port="0"/>
		<edge from-layer="422" from-port="2" to-layer="425" to-port="0"/>
		<edge from-layer="423" from-port="0" to-layer="424" to-port="0"/>
		<edge from-layer="424" from-port="1" to-layer="425" to-port="1"/>
		<edge from-layer="425" from-port="2" to-layer="427" to-port="0"/>
		<edge from-layer="426" from-port="0" to-layer="427" to-port="1"/>
		<edge from-layer="427" from-port="2" to-layer="434" to-port="1"/>
		<edge from-layer="428" from-port="2" to-layer="430" to-port="0"/>
		<edge from-layer="429" from-port="0" to-layer="430" to-port="1"/>
		<edge from-layer="430" from-port="2" to-layer="434" to-port="2"/>
		<edge from-layer="431" from-port="2" to-layer="433" to-port="0"/>
		<edge from-layer="432" from-port="0" to-layer="433" to-port="1"/>
		<edge from-layer="433" from-port="2" to-layer="434" to-port="3"/>
		<edge from-layer="434" from-port="4" to-layer="435" to-port="0"/>
	</edges>
	<meta_data>
		<MO_version value="2022.2.0-7713-af16ea1d79a-releases/2022/2"/>
		<Runtime_version value="2022.2.0-7713-af16ea1d79a-releases/2022/2"/>
		<legacy_path value="False"/>
		<cli_parameters>
			<caffe_parser_path value="DIR"/>
			<compress_fp16 value="True"/>
			<data_type value="FP32"/>
			<disable_nhwc_to_nchw value="False"/>
			<disable_omitting_optional value="False"/>
			<disable_resnet_optimization value="False"/>
			<disable_weights_compression value="False"/>
			<enable_concat_optimization value="False"/>
			<enable_flattening_nested_params value="False"/>
			<enable_ssd_gluoncv value="False"/>
			<extensions value="DIR"/>
			<framework value="onnx"/>
			<freeze_placeholder_with_value value="{}"/>
			<input value="img_x,feat_z,mask_z,pos_z"/>
			<input_model value="DIR/complete.onnx"/>
			<input_model_is_text value="False"/>
			<input_shape value="[1,3,320,320],[64,1,128],[1,64],[64,1,128]"/>
			<k value="DIR/CustomLayersMapping.xml"/>
			<layout value="()"/>
			<layout_values value="{}"/>
			<legacy_mxnet_model value="False"/>
			<log_level value="DEBUG"/>
			<mean_scale_values value="{}"/>
			<mean_values value="()"/>
			<model_name value="complete"/>
			<output value="['outputs_coord']"/>
			<output_dir value="DIR"/>
			<placeholder_data_types value="{}"/>
			<placeholder_shapes value="{'img_x': (1, 3, 320, 320), 'feat_z': (64, 1, 128), 'mask_z': (1, 64), 'pos_z': (64, 1, 128)}"/>
			<progress value="False"/>
			<remove_memory value="False"/>
			<remove_output_softmax value="False"/>
			<reverse_input_channels value="False"/>
			<save_params_from_nd value="False"/>
			<scale_values value="()"/>
			<silent value="False"/>
			<source_layout value="()"/>
			<static_shape value="False"/>
			<stream_output value="False"/>
			<target_layout value="()"/>
			<transform value=""/>
			<use_legacy_frontend value="False"/>
			<use_new_frontend value="False"/>
			<unset unset_cli_parameters="batch, counts, disable_fusing, finegrain_fusing, input_checkpoint, input_meta_graph, input_proto, input_symbol, mean_file, mean_file_offsets, nd_prefix_name, pretrained_model_name, saved_model_dir, saved_model_tags, scale, tensorboard_logdir, tensorflow_custom_layer_libraries, tensorflow_custom_operations_config_update, tensorflow_object_detection_api_pipeline_config, tensorflow_use_custom_operations_config, transformations_config"/>
		</cli_parameters>
	</meta_data>
</net>
