<?xml version="1.0" ?>
<net name="torch-jit-export" version="11">
	<layers>
		<layer id="4" name="img_x" type="Parameter" version="opset1">
			<data shape="1,3,320,320" element_type="f32"/>
			<rt_info>
				<attribute name="fused_names" version="0" value="img_x"/>
				<attribute name="old_api_map_element_type" version="0" value="f16"/>
			</rt_info>
			<output>
				<port id="0" precision="FP32" names="img_x">
					<dim>1</dim>
					<dim>3</dim>
					<dim>320</dim>
					<dim>320</dim>
				</port>
			</output>
		</layer>
		<layer id="3" name="mask_x" type="Parameter" version="opset1">
			<data shape="320,320" element_type="boolean"/>
			<rt_info>
				<attribute name="fused_names" version="0" value="mask_x"/>
			</rt_info>
			<output>
				<port id="0" precision="BOOL" names="mask_x">
					<dim>320</dim>
					<dim>320</dim>
				</port>
			</output>
		</layer>
		<layer id="2" name="feat_z" type="Parameter" version="opset1">
			<data shape="64,1,128" element_type="f32"/>
			<rt_info>
				<attribute name="fused_names" version="0" value="feat_z"/>
				<attribute name="old_api_map_element_type" version="0" value="f16"/>
			</rt_info>
			<output>
				<port id="0" precision="FP32" names="feat_z">
					<dim>64</dim>
					<dim>1</dim>
					<dim>128</dim>
				</port>
			</output>
		</layer>
		<layer id="1" name="mask_z" type="Parameter" version="opset1">
			<data shape="1,64" element_type="boolean"/>
			<rt_info>
				<attribute name="fused_names" version="0" value="mask_z"/>
			</rt_info>
			<output>
				<port id="0" precision="BOOL" names="mask_z">
					<dim>1</dim>
					<dim>64</dim>
				</port>
			</output>
		</layer>
		<layer id="0" name="pos_z" type="Parameter" version="opset1">
			<data shape="64,1,128" element_type="f32"/>
			<rt_info>
				<attribute name="fused_names" version="0" value="pos_z"/>
				<attribute name="old_api_map_element_type" version="0" value="f16"/>
			</rt_info>
			<output>
				<port id="0" precision="FP32" names="pos_z">
					<dim>64</dim>
					<dim>1</dim>
					<dim>128</dim>
				</port>
			</output>
		</layer>
		<layer id="5" name="Constant_2884_compressed" type="Const" version="opset1">
			<data element_type="f16" shape="1, 400" offset="0" size="800"/>
			<output>
				<port id="0" precision="FP16">
					<dim>1</dim>
					<dim>400</dim>
				</port>
			</output>
		</layer>
		<layer id="6" name="Constant_2884" type="Convert" version="opset1">
			<data destination_type="f32"/>
			<rt_info>
				<attribute name="decompression" version="0"/>
			</rt_info>
			<input>
				<port id="0" precision="FP16">
					<dim>1</dim>
					<dim>400</dim>
				</port>
			</input>
			<output>
				<port id="1" precision="FP32">
					<dim>1</dim>
					<dim>400</dim>
				</port>
			</output>
		</layer>
		<layer id="7" name="Constant_2872_compressed" type="Const" version="opset1">
			<data element_type="f16" shape="1, 1, 1, 1" offset="800" size="2"/>
			<output>
				<port id="0" precision="FP16">
					<dim>1</dim>
					<dim>1</dim>
					<dim>1</dim>
					<dim>1</dim>
				</port>
			</output>
		</layer>
		<layer id="8" name="Constant_2872" type="Convert" version="opset1">
			<data destination_type="f32"/>
			<rt_info>
				<attribute name="decompression" version="0"/>
			</rt_info>
			<input>
				<port id="0" precision="FP16">
					<dim>1</dim>
					<dim>1</dim>
					<dim>1</dim>
					<dim>1</dim>
				</port>
			</input>
			<output>
				<port id="1" precision="FP32">
					<dim>1</dim>
					<dim>1</dim>
					<dim>1</dim>
					<dim>1</dim>
				</port>
			</output>
		</layer>
		<layer id="9" name="Div_1" type="Multiply" version="opset1">
			<data auto_broadcast="numpy"/>
			<rt_info>
				<attribute name="fused_names" version="0" value="49, Div_1"/>
			</rt_info>
			<input>
				<port id="0" precision="FP32">
					<dim>1</dim>
					<dim>3</dim>
					<dim>320</dim>
					<dim>320</dim>
				</port>
				<port id="1" precision="FP32">
					<dim>1</dim>
					<dim>1</dim>
					<dim>1</dim>
					<dim>1</dim>
				</port>
			</input>
			<output>
				<port id="2" precision="FP32" names="50">
					<dim>1</dim>
					<dim>3</dim>
					<dim>320</dim>
					<dim>320</dim>
				</port>
			</output>
		</layer>
		<layer id="10" name="51_compressed" type="Const" version="opset1">
			<data element_type="f16" shape="1, 3, 1, 1" offset="802" size="6"/>
			<output>
				<port id="0" precision="FP16">
					<dim>1</dim>
					<dim>3</dim>
					<dim>1</dim>
					<dim>1</dim>
				</port>
			</output>
		</layer>
		<layer id="11" name="51" type="Convert" version="opset1">
			<data destination_type="f32"/>
			<rt_info>
				<attribute name="decompression" version="0"/>
				<attribute name="fused_names" version="0" value="51"/>
			</rt_info>
			<input>
				<port id="0" precision="FP16">
					<dim>1</dim>
					<dim>3</dim>
					<dim>1</dim>
					<dim>1</dim>
				</port>
			</input>
			<output>
				<port id="1" precision="FP32" names="51">
					<dim>1</dim>
					<dim>3</dim>
					<dim>1</dim>
					<dim>1</dim>
				</port>
			</output>
		</layer>
		<layer id="12" name="Sub_3" type="Subtract" version="opset1">
			<data auto_broadcast="numpy"/>
			<rt_info>
				<attribute name="fused_names" version="0" value="Sub_3"/>
			</rt_info>
			<input>
				<port id="0" precision="FP32">
					<dim>1</dim>
					<dim>3</dim>
					<dim>320</dim>
					<dim>320</dim>
				</port>
				<port id="1" precision="FP32">
					<dim>1</dim>
					<dim>3</dim>
					<dim>1</dim>
					<dim>1</dim>
				</port>
			</input>
			<output>
				<port id="2" precision="FP32" names="52">
					<dim>1</dim>
					<dim>3</dim>
					<dim>320</dim>
					<dim>320</dim>
				</port>
			</output>
		</layer>
		<layer id="13" name="Constant_2812_compressed" type="Const" version="opset1">
			<data element_type="f16" shape="48, 3, 3, 3" offset="808" size="2592"/>
			<output>
				<port id="0" precision="FP16">
					<dim>48</dim>
					<dim>3</dim>
					<dim>3</dim>
					<dim>3</dim>
				</port>
			</output>
		</layer>
		<layer id="14" name="Constant_2812" type="Convert" version="opset1">
			<data destination_type="f32"/>
			<rt_info>
				<attribute name="decompression" version="0"/>
				<attribute name="fused_names" version="0" value="53, Conv_8/WithoutBiases, Div_5, backbone.body.stage0.rbr_reparam.weight"/>
			</rt_info>
			<input>
				<port id="0" precision="FP16">
					<dim>48</dim>
					<dim>3</dim>
					<dim>3</dim>
					<dim>3</dim>
				</port>
			</input>
			<output>
				<port id="1" precision="FP32">
					<dim>48</dim>
					<dim>3</dim>
					<dim>3</dim>
					<dim>3</dim>
				</port>
			</output>
		</layer>
		<layer id="15" name="Conv_8/WithoutBiases" type="Convolution" version="opset1">
			<data strides="2, 2" dilations="1, 1" pads_begin="1, 1" pads_end="1, 1" auto_pad="explicit"/>
			<rt_info>
				<attribute name="fused_names" version="0" value="53, Conv_8/WithoutBiases, Div_5, backbone.body.stage0.rbr_reparam.weight"/>
			</rt_info>
			<input>
				<port id="0" precision="FP32">
					<dim>1</dim>
					<dim>3</dim>
					<dim>320</dim>
					<dim>320</dim>
				</port>
				<port id="1" precision="FP32">
					<dim>48</dim>
					<dim>3</dim>
					<dim>3</dim>
					<dim>3</dim>
				</port>
			</input>
			<output>
				<port id="2" precision="FP32">
					<dim>1</dim>
					<dim>48</dim>
					<dim>160</dim>
					<dim>160</dim>
				</port>
			</output>
		</layer>
		<layer id="16" name="Reshape_103_compressed" type="Const" version="opset1">
			<data element_type="f16" shape="1, 48, 1, 1" offset="3400" size="96"/>
			<output>
				<port id="0" precision="FP16">
					<dim>1</dim>
					<dim>48</dim>
					<dim>1</dim>
					<dim>1</dim>
				</port>
			</output>
		</layer>
		<layer id="17" name="Reshape_103" type="Convert" version="opset1">
			<data destination_type="f32"/>
			<rt_info>
				<attribute name="decompression" version="0"/>
			</rt_info>
			<input>
				<port id="0" precision="FP16">
					<dim>1</dim>
					<dim>48</dim>
					<dim>1</dim>
					<dim>1</dim>
				</port>
			</input>
			<output>
				<port id="1" precision="FP32">
					<dim>1</dim>
					<dim>48</dim>
					<dim>1</dim>
					<dim>1</dim>
				</port>
			</output>
		</layer>
		<layer id="18" name="Conv_8" type="Add" version="opset1">
			<data auto_broadcast="numpy"/>
			<rt_info>
				<attribute name="fused_names" version="0" value="Concat_102, Conv_8, Reshape_103"/>
			</rt_info>
			<input>
				<port id="0" precision="FP32">
					<dim>1</dim>
					<dim>48</dim>
					<dim>160</dim>
					<dim>160</dim>
				</port>
				<port id="1" precision="FP32">
					<dim>1</dim>
					<dim>48</dim>
					<dim>1</dim>
					<dim>1</dim>
				</port>
			</input>
			<output>
				<port id="2" precision="FP32" names="57">
					<dim>1</dim>
					<dim>48</dim>
					<dim>160</dim>
					<dim>160</dim>
				</port>
			</output>
		</layer>
		<layer id="19" name="Relu_9" type="ReLU" version="opset1">
			<rt_info>
				<attribute name="fused_names" version="0" value="Relu_9"/>
			</rt_info>
			<input>
				<port id="0" precision="FP32">
					<dim>1</dim>
					<dim>48</dim>
					<dim>160</dim>
					<dim>160</dim>
				</port>
			</input>
			<output>
				<port id="1" precision="FP32" names="58">
					<dim>1</dim>
					<dim>48</dim>
					<dim>160</dim>
					<dim>160</dim>
				</port>
			</output>
		</layer>
		<layer id="20" name="backbone.body.stage1.0.rbr_reparam.weight_compressed" type="Const" version="opset1">
			<data element_type="f16" shape="48, 48, 3, 3" offset="3496" size="41472"/>
			<output>
				<port id="0" precision="FP16">
					<dim>48</dim>
					<dim>48</dim>
					<dim>3</dim>
					<dim>3</dim>
				</port>
			</output>
		</layer>
		<layer id="21" name="backbone.body.stage1.0.rbr_reparam.weight" type="Convert" version="opset1">
			<data destination_type="f32"/>
			<rt_info>
				<attribute name="decompression" version="0"/>
				<attribute name="fused_names" version="0" value="backbone.body.stage1.0.rbr_reparam.weight"/>
			</rt_info>
			<input>
				<port id="0" precision="FP16">
					<dim>48</dim>
					<dim>48</dim>
					<dim>3</dim>
					<dim>3</dim>
				</port>
			</input>
			<output>
				<port id="1" precision="FP32" names="backbone.body.stage1.0.rbr_reparam.weight">
					<dim>48</dim>
					<dim>48</dim>
					<dim>3</dim>
					<dim>3</dim>
				</port>
			</output>
		</layer>
		<layer id="22" name="Conv_10/WithoutBiases" type="Convolution" version="opset1">
			<data strides="2, 2" dilations="1, 1" pads_begin="1, 1" pads_end="1, 1" auto_pad="explicit"/>
			<rt_info>
				<attribute name="fused_names" version="0" value="Conv_10/WithoutBiases"/>
			</rt_info>
			<input>
				<port id="0" precision="FP32">
					<dim>1</dim>
					<dim>48</dim>
					<dim>160</dim>
					<dim>160</dim>
				</port>
				<port id="1" precision="FP32">
					<dim>48</dim>
					<dim>48</dim>
					<dim>3</dim>
					<dim>3</dim>
				</port>
			</input>
			<output>
				<port id="2" precision="FP32">
					<dim>1</dim>
					<dim>48</dim>
					<dim>80</dim>
					<dim>80</dim>
				</port>
			</output>
		</layer>
		<layer id="23" name="Reshape_152_compressed" type="Const" version="opset1">
			<data element_type="f16" shape="1, 48, 1, 1" offset="44968" size="96"/>
			<output>
				<port id="0" precision="FP16">
					<dim>1</dim>
					<dim>48</dim>
					<dim>1</dim>
					<dim>1</dim>
				</port>
			</output>
		</layer>
		<layer id="24" name="Reshape_152" type="Convert" version="opset1">
			<data destination_type="f32"/>
			<rt_info>
				<attribute name="decompression" version="0"/>
			</rt_info>
			<input>
				<port id="0" precision="FP16">
					<dim>1</dim>
					<dim>48</dim>
					<dim>1</dim>
					<dim>1</dim>
				</port>
			</input>
			<output>
				<port id="1" precision="FP32">
					<dim>1</dim>
					<dim>48</dim>
					<dim>1</dim>
					<dim>1</dim>
				</port>
			</output>
		</layer>
		<layer id="25" name="Conv_10" type="Add" version="opset1">
			<data auto_broadcast="numpy"/>
			<rt_info>
				<attribute name="fused_names" version="0" value="Concat_151, Conv_10, Reshape_152"/>
			</rt_info>
			<input>
				<port id="0" precision="FP32">
					<dim>1</dim>
					<dim>48</dim>
					<dim>80</dim>
					<dim>80</dim>
				</port>
				<port id="1" precision="FP32">
					<dim>1</dim>
					<dim>48</dim>
					<dim>1</dim>
					<dim>1</dim>
				</port>
			</input>
			<output>
				<port id="2" precision="FP32" names="59">
					<dim>1</dim>
					<dim>48</dim>
					<dim>80</dim>
					<dim>80</dim>
				</port>
			</output>
		</layer>
		<layer id="26" name="Relu_11" type="ReLU" version="opset1">
			<rt_info>
				<attribute name="fused_names" version="0" value="Relu_11"/>
			</rt_info>
			<input>
				<port id="0" precision="FP32">
					<dim>1</dim>
					<dim>48</dim>
					<dim>80</dim>
					<dim>80</dim>
				</port>
			</input>
			<output>
				<port id="1" precision="FP32" names="60">
					<dim>1</dim>
					<dim>48</dim>
					<dim>80</dim>
					<dim>80</dim>
				</port>
			</output>
		</layer>
		<layer id="27" name="backbone.body.stage1.1.rbr_reparam.weight_compressed" type="Const" version="opset1">
			<data element_type="f16" shape="48, 48, 3, 3" offset="45064" size="41472"/>
			<output>
				<port id="0" precision="FP16">
					<dim>48</dim>
					<dim>48</dim>
					<dim>3</dim>
					<dim>3</dim>
				</port>
			</output>
		</layer>
		<layer id="28" name="backbone.body.stage1.1.rbr_reparam.weight" type="Convert" version="opset1">
			<data destination_type="f32"/>
			<rt_info>
				<attribute name="decompression" version="0"/>
				<attribute name="fused_names" version="0" value="backbone.body.stage1.1.rbr_reparam.weight"/>
			</rt_info>
			<input>
				<port id="0" precision="FP16">
					<dim>48</dim>
					<dim>48</dim>
					<dim>3</dim>
					<dim>3</dim>
				</port>
			</input>
			<output>
				<port id="1" precision="FP32" names="backbone.body.stage1.1.rbr_reparam.weight">
					<dim>48</dim>
					<dim>48</dim>
					<dim>3</dim>
					<dim>3</dim>
				</port>
			</output>
		</layer>
		<layer id="29" name="Conv_12/WithoutBiases" type="Convolution" version="opset1">
			<data strides="1, 1" dilations="1, 1" pads_begin="1, 1" pads_end="1, 1" auto_pad="explicit"/>
			<rt_info>
				<attribute name="fused_names" version="0" value="Conv_12/WithoutBiases"/>
			</rt_info>
			<input>
				<port id="0" precision="FP32">
					<dim>1</dim>
					<dim>48</dim>
					<dim>80</dim>
					<dim>80</dim>
				</port>
				<port id="1" precision="FP32">
					<dim>48</dim>
					<dim>48</dim>
					<dim>3</dim>
					<dim>3</dim>
				</port>
			</input>
			<output>
				<port id="2" precision="FP32">
					<dim>1</dim>
					<dim>48</dim>
					<dim>80</dim>
					<dim>80</dim>
				</port>
			</output>
		</layer>
		<layer id="30" name="Reshape_201_compressed" type="Const" version="opset1">
			<data element_type="f16" shape="1, 48, 1, 1" offset="86536" size="96"/>
			<output>
				<port id="0" precision="FP16">
					<dim>1</dim>
					<dim>48</dim>
					<dim>1</dim>
					<dim>1</dim>
				</port>
			</output>
		</layer>
		<layer id="31" name="Reshape_201" type="Convert" version="opset1">
			<data destination_type="f32"/>
			<rt_info>
				<attribute name="decompression" version="0"/>
			</rt_info>
			<input>
				<port id="0" precision="FP16">
					<dim>1</dim>
					<dim>48</dim>
					<dim>1</dim>
					<dim>1</dim>
				</port>
			</input>
			<output>
				<port id="1" precision="FP32">
					<dim>1</dim>
					<dim>48</dim>
					<dim>1</dim>
					<dim>1</dim>
				</port>
			</output>
		</layer>
		<layer id="32" name="Conv_12" type="Add" version="opset1">
			<data auto_broadcast="numpy"/>
			<rt_info>
				<attribute name="fused_names" version="0" value="Concat_200, Conv_12, Reshape_201"/>
			</rt_info>
			<input>
				<port id="0" precision="FP32">
					<dim>1</dim>
					<dim>48</dim>
					<dim>80</dim>
					<dim>80</dim>
				</port>
				<port id="1" precision="FP32">
					<dim>1</dim>
					<dim>48</dim>
					<dim>1</dim>
					<dim>1</dim>
				</port>
			</input>
			<output>
				<port id="2" precision="FP32" names="61">
					<dim>1</dim>
					<dim>48</dim>
					<dim>80</dim>
					<dim>80</dim>
				</port>
			</output>
		</layer>
		<layer id="33" name="Relu_13" type="ReLU" version="opset1">
			<rt_info>
				<attribute name="fused_names" version="0" value="Relu_13"/>
			</rt_info>
			<input>
				<port id="0" precision="FP32">
					<dim>1</dim>
					<dim>48</dim>
					<dim>80</dim>
					<dim>80</dim>
				</port>
			</input>
			<output>
				<port id="1" precision="FP32" names="62">
					<dim>1</dim>
					<dim>48</dim>
					<dim>80</dim>
					<dim>80</dim>
				</port>
			</output>
		</layer>
		<layer id="34" name="backbone.body.stage2.0.rbr_reparam.weight_compressed" type="Const" version="opset1">
			<data element_type="f16" shape="96, 48, 3, 3" offset="86632" size="82944"/>
			<output>
				<port id="0" precision="FP16">
					<dim>96</dim>
					<dim>48</dim>
					<dim>3</dim>
					<dim>3</dim>
				</port>
			</output>
		</layer>
		<layer id="35" name="backbone.body.stage2.0.rbr_reparam.weight" type="Convert" version="opset1">
			<data destination_type="f32"/>
			<rt_info>
				<attribute name="decompression" version="0"/>
				<attribute name="fused_names" version="0" value="backbone.body.stage2.0.rbr_reparam.weight"/>
			</rt_info>
			<input>
				<port id="0" precision="FP16">
					<dim>96</dim>
					<dim>48</dim>
					<dim>3</dim>
					<dim>3</dim>
				</port>
			</input>
			<output>
				<port id="1" precision="FP32" names="backbone.body.stage2.0.rbr_reparam.weight">
					<dim>96</dim>
					<dim>48</dim>
					<dim>3</dim>
					<dim>3</dim>
				</port>
			</output>
		</layer>
		<layer id="36" name="Conv_14/WithoutBiases" type="Convolution" version="opset1">
			<data strides="2, 2" dilations="1, 1" pads_begin="1, 1" pads_end="1, 1" auto_pad="explicit"/>
			<rt_info>
				<attribute name="fused_names" version="0" value="Conv_14/WithoutBiases"/>
			</rt_info>
			<input>
				<port id="0" precision="FP32">
					<dim>1</dim>
					<dim>48</dim>
					<dim>80</dim>
					<dim>80</dim>
				</port>
				<port id="1" precision="FP32">
					<dim>96</dim>
					<dim>48</dim>
					<dim>3</dim>
					<dim>3</dim>
				</port>
			</input>
			<output>
				<port id="2" precision="FP32">
					<dim>1</dim>
					<dim>96</dim>
					<dim>40</dim>
					<dim>40</dim>
				</port>
			</output>
		</layer>
		<layer id="37" name="Reshape_250_compressed" type="Const" version="opset1">
			<data element_type="f16" shape="1, 96, 1, 1" offset="169576" size="192"/>
			<output>
				<port id="0" precision="FP16">
					<dim>1</dim>
					<dim>96</dim>
					<dim>1</dim>
					<dim>1</dim>
				</port>
			</output>
		</layer>
		<layer id="38" name="Reshape_250" type="Convert" version="opset1">
			<data destination_type="f32"/>
			<rt_info>
				<attribute name="decompression" version="0"/>
			</rt_info>
			<input>
				<port id="0" precision="FP16">
					<dim>1</dim>
					<dim>96</dim>
					<dim>1</dim>
					<dim>1</dim>
				</port>
			</input>
			<output>
				<port id="1" precision="FP32">
					<dim>1</dim>
					<dim>96</dim>
					<dim>1</dim>
					<dim>1</dim>
				</port>
			</output>
		</layer>
		<layer id="39" name="Conv_14" type="Add" version="opset1">
			<data auto_broadcast="numpy"/>
			<rt_info>
				<attribute name="fused_names" version="0" value="Concat_249, Conv_14, Reshape_250"/>
			</rt_info>
			<input>
				<port id="0" precision="FP32">
					<dim>1</dim>
					<dim>96</dim>
					<dim>40</dim>
					<dim>40</dim>
				</port>
				<port id="1" precision="FP32">
					<dim>1</dim>
					<dim>96</dim>
					<dim>1</dim>
					<dim>1</dim>
				</port>
			</input>
			<output>
				<port id="2" precision="FP32" names="63">
					<dim>1</dim>
					<dim>96</dim>
					<dim>40</dim>
					<dim>40</dim>
				</port>
			</output>
		</layer>
		<layer id="40" name="Relu_15" type="ReLU" version="opset1">
			<rt_info>
				<attribute name="fused_names" version="0" value="Relu_15"/>
			</rt_info>
			<input>
				<port id="0" precision="FP32">
					<dim>1</dim>
					<dim>96</dim>
					<dim>40</dim>
					<dim>40</dim>
				</port>
			</input>
			<output>
				<port id="1" precision="FP32" names="64">
					<dim>1</dim>
					<dim>96</dim>
					<dim>40</dim>
					<dim>40</dim>
				</port>
			</output>
		</layer>
		<layer id="41" name="backbone.body.stage2.1.rbr_reparam.weight_compressed" type="Const" version="opset1">
			<data element_type="f16" shape="96, 96, 3, 3" offset="169768" size="165888"/>
			<output>
				<port id="0" precision="FP16">
					<dim>96</dim>
					<dim>96</dim>
					<dim>3</dim>
					<dim>3</dim>
				</port>
			</output>
		</layer>
		<layer id="42" name="backbone.body.stage2.1.rbr_reparam.weight" type="Convert" version="opset1">
			<data destination_type="f32"/>
			<rt_info>
				<attribute name="decompression" version="0"/>
				<attribute name="fused_names" version="0" value="backbone.body.stage2.1.rbr_reparam.weight"/>
			</rt_info>
			<input>
				<port id="0" precision="FP16">
					<dim>96</dim>
					<dim>96</dim>
					<dim>3</dim>
					<dim>3</dim>
				</port>
			</input>
			<output>
				<port id="1" precision="FP32" names="backbone.body.stage2.1.rbr_reparam.weight">
					<dim>96</dim>
					<dim>96</dim>
					<dim>3</dim>
					<dim>3</dim>
				</port>
			</output>
		</layer>
		<layer id="43" name="Conv_16/WithoutBiases" type="Convolution" version="opset1">
			<data strides="1, 1" dilations="1, 1" pads_begin="1, 1" pads_end="1, 1" auto_pad="explicit"/>
			<rt_info>
				<attribute name="fused_names" version="0" value="Conv_16/WithoutBiases"/>
			</rt_info>
			<input>
				<port id="0" precision="FP32">
					<dim>1</dim>
					<dim>96</dim>
					<dim>40</dim>
					<dim>40</dim>
				</port>
				<port id="1" precision="FP32">
					<dim>96</dim>
					<dim>96</dim>
					<dim>3</dim>
					<dim>3</dim>
				</port>
			</input>
			<output>
				<port id="2" precision="FP32">
					<dim>1</dim>
					<dim>96</dim>
					<dim>40</dim>
					<dim>40</dim>
				</port>
			</output>
		</layer>
		<layer id="44" name="Reshape_299_compressed" type="Const" version="opset1">
			<data element_type="f16" shape="1, 96, 1, 1" offset="335656" size="192"/>
			<output>
				<port id="0" precision="FP16">
					<dim>1</dim>
					<dim>96</dim>
					<dim>1</dim>
					<dim>1</dim>
				</port>
			</output>
		</layer>
		<layer id="45" name="Reshape_299" type="Convert" version="opset1">
			<data destination_type="f32"/>
			<rt_info>
				<attribute name="decompression" version="0"/>
			</rt_info>
			<input>
				<port id="0" precision="FP16">
					<dim>1</dim>
					<dim>96</dim>
					<dim>1</dim>
					<dim>1</dim>
				</port>
			</input>
			<output>
				<port id="1" precision="FP32">
					<dim>1</dim>
					<dim>96</dim>
					<dim>1</dim>
					<dim>1</dim>
				</port>
			</output>
		</layer>
		<layer id="46" name="Conv_16" type="Add" version="opset1">
			<data auto_broadcast="numpy"/>
			<rt_info>
				<attribute name="fused_names" version="0" value="Concat_298, Conv_16, Reshape_299"/>
			</rt_info>
			<input>
				<port id="0" precision="FP32">
					<dim>1</dim>
					<dim>96</dim>
					<dim>40</dim>
					<dim>40</dim>
				</port>
				<port id="1" precision="FP32">
					<dim>1</dim>
					<dim>96</dim>
					<dim>1</dim>
					<dim>1</dim>
				</port>
			</input>
			<output>
				<port id="2" precision="FP32" names="65">
					<dim>1</dim>
					<dim>96</dim>
					<dim>40</dim>
					<dim>40</dim>
				</port>
			</output>
		</layer>
		<layer id="47" name="Relu_17" type="ReLU" version="opset1">
			<rt_info>
				<attribute name="fused_names" version="0" value="Relu_17"/>
			</rt_info>
			<input>
				<port id="0" precision="FP32">
					<dim>1</dim>
					<dim>96</dim>
					<dim>40</dim>
					<dim>40</dim>
				</port>
			</input>
			<output>
				<port id="1" precision="FP32" names="66">
					<dim>1</dim>
					<dim>96</dim>
					<dim>40</dim>
					<dim>40</dim>
				</port>
			</output>
		</layer>
		<layer id="48" name="backbone.body.stage2.2.rbr_reparam.weight_compressed" type="Const" version="opset1">
			<data element_type="f16" shape="96, 96, 3, 3" offset="335848" size="165888"/>
			<output>
				<port id="0" precision="FP16">
					<dim>96</dim>
					<dim>96</dim>
					<dim>3</dim>
					<dim>3</dim>
				</port>
			</output>
		</layer>
		<layer id="49" name="backbone.body.stage2.2.rbr_reparam.weight" type="Convert" version="opset1">
			<data destination_type="f32"/>
			<rt_info>
				<attribute name="decompression" version="0"/>
				<attribute name="fused_names" version="0" value="backbone.body.stage2.2.rbr_reparam.weight"/>
			</rt_info>
			<input>
				<port id="0" precision="FP16">
					<dim>96</dim>
					<dim>96</dim>
					<dim>3</dim>
					<dim>3</dim>
				</port>
			</input>
			<output>
				<port id="1" precision="FP32" names="backbone.body.stage2.2.rbr_reparam.weight">
					<dim>96</dim>
					<dim>96</dim>
					<dim>3</dim>
					<dim>3</dim>
				</port>
			</output>
		</layer>
		<layer id="50" name="Conv_18/WithoutBiases" type="Convolution" version="opset1">
			<data strides="1, 1" dilations="1, 1" pads_begin="1, 1" pads_end="1, 1" auto_pad="explicit"/>
			<rt_info>
				<attribute name="fused_names" version="0" value="Conv_18/WithoutBiases"/>
			</rt_info>
			<input>
				<port id="0" precision="FP32">
					<dim>1</dim>
					<dim>96</dim>
					<dim>40</dim>
					<dim>40</dim>
				</port>
				<port id="1" precision="FP32">
					<dim>96</dim>
					<dim>96</dim>
					<dim>3</dim>
					<dim>3</dim>
				</port>
			</input>
			<output>
				<port id="2" precision="FP32">
					<dim>1</dim>
					<dim>96</dim>
					<dim>40</dim>
					<dim>40</dim>
				</port>
			</output>
		</layer>
		<layer id="51" name="Reshape_348_compressed" type="Const" version="opset1">
			<data element_type="f16" shape="1, 96, 1, 1" offset="501736" size="192"/>
			<output>
				<port id="0" precision="FP16">
					<dim>1</dim>
					<dim>96</dim>
					<dim>1</dim>
					<dim>1</dim>
				</port>
			</output>
		</layer>
		<layer id="52" name="Reshape_348" type="Convert" version="opset1">
			<data destination_type="f32"/>
			<rt_info>
				<attribute name="decompression" version="0"/>
			</rt_info>
			<input>
				<port id="0" precision="FP16">
					<dim>1</dim>
					<dim>96</dim>
					<dim>1</dim>
					<dim>1</dim>
				</port>
			</input>
			<output>
				<port id="1" precision="FP32">
					<dim>1</dim>
					<dim>96</dim>
					<dim>1</dim>
					<dim>1</dim>
				</port>
			</output>
		</layer>
		<layer id="53" name="Conv_18" type="Add" version="opset1">
			<data auto_broadcast="numpy"/>
			<rt_info>
				<attribute name="fused_names" version="0" value="Concat_347, Conv_18, Reshape_348"/>
			</rt_info>
			<input>
				<port id="0" precision="FP32">
					<dim>1</dim>
					<dim>96</dim>
					<dim>40</dim>
					<dim>40</dim>
				</port>
				<port id="1" precision="FP32">
					<dim>1</dim>
					<dim>96</dim>
					<dim>1</dim>
					<dim>1</dim>
				</port>
			</input>
			<output>
				<port id="2" precision="FP32" names="67">
					<dim>1</dim>
					<dim>96</dim>
					<dim>40</dim>
					<dim>40</dim>
				</port>
			</output>
		</layer>
		<layer id="54" name="Relu_19" type="ReLU" version="opset1">
			<rt_info>
				<attribute name="fused_names" version="0" value="Relu_19"/>
			</rt_info>
			<input>
				<port id="0" precision="FP32">
					<dim>1</dim>
					<dim>96</dim>
					<dim>40</dim>
					<dim>40</dim>
				</port>
			</input>
			<output>
				<port id="1" precision="FP32" names="68">
					<dim>1</dim>
					<dim>96</dim>
					<dim>40</dim>
					<dim>40</dim>
				</port>
			</output>
		</layer>
		<layer id="55" name="backbone.body.stage2.3.rbr_reparam.weight_compressed" type="Const" version="opset1">
			<data element_type="f16" shape="96, 96, 3, 3" offset="501928" size="165888"/>
			<output>
				<port id="0" precision="FP16">
					<dim>96</dim>
					<dim>96</dim>
					<dim>3</dim>
					<dim>3</dim>
				</port>
			</output>
		</layer>
		<layer id="56" name="backbone.body.stage2.3.rbr_reparam.weight" type="Convert" version="opset1">
			<data destination_type="f32"/>
			<rt_info>
				<attribute name="decompression" version="0"/>
				<attribute name="fused_names" version="0" value="backbone.body.stage2.3.rbr_reparam.weight"/>
			</rt_info>
			<input>
				<port id="0" precision="FP16">
					<dim>96</dim>
					<dim>96</dim>
					<dim>3</dim>
					<dim>3</dim>
				</port>
			</input>
			<output>
				<port id="1" precision="FP32" names="backbone.body.stage2.3.rbr_reparam.weight">
					<dim>96</dim>
					<dim>96</dim>
					<dim>3</dim>
					<dim>3</dim>
				</port>
			</output>
		</layer>
		<layer id="57" name="Conv_20/WithoutBiases" type="Convolution" version="opset1">
			<data strides="1, 1" dilations="1, 1" pads_begin="1, 1" pads_end="1, 1" auto_pad="explicit"/>
			<rt_info>
				<attribute name="fused_names" version="0" value="Conv_20/WithoutBiases"/>
			</rt_info>
			<input>
				<port id="0" precision="FP32">
					<dim>1</dim>
					<dim>96</dim>
					<dim>40</dim>
					<dim>40</dim>
				</port>
				<port id="1" precision="FP32">
					<dim>96</dim>
					<dim>96</dim>
					<dim>3</dim>
					<dim>3</dim>
				</port>
			</input>
			<output>
				<port id="2" precision="FP32">
					<dim>1</dim>
					<dim>96</dim>
					<dim>40</dim>
					<dim>40</dim>
				</port>
			</output>
		</layer>
		<layer id="58" name="Reshape_397_compressed" type="Const" version="opset1">
			<data element_type="f16" shape="1, 96, 1, 1" offset="667816" size="192"/>
			<output>
				<port id="0" precision="FP16">
					<dim>1</dim>
					<dim>96</dim>
					<dim>1</dim>
					<dim>1</dim>
				</port>
			</output>
		</layer>
		<layer id="59" name="Reshape_397" type="Convert" version="opset1">
			<data destination_type="f32"/>
			<rt_info>
				<attribute name="decompression" version="0"/>
			</rt_info>
			<input>
				<port id="0" precision="FP16">
					<dim>1</dim>
					<dim>96</dim>
					<dim>1</dim>
					<dim>1</dim>
				</port>
			</input>
			<output>
				<port id="1" precision="FP32">
					<dim>1</dim>
					<dim>96</dim>
					<dim>1</dim>
					<dim>1</dim>
				</port>
			</output>
		</layer>
		<layer id="60" name="Conv_20" type="Add" version="opset1">
			<data auto_broadcast="numpy"/>
			<rt_info>
				<attribute name="fused_names" version="0" value="Concat_396, Conv_20, Reshape_397"/>
			</rt_info>
			<input>
				<port id="0" precision="FP32">
					<dim>1</dim>
					<dim>96</dim>
					<dim>40</dim>
					<dim>40</dim>
				</port>
				<port id="1" precision="FP32">
					<dim>1</dim>
					<dim>96</dim>
					<dim>1</dim>
					<dim>1</dim>
				</port>
			</input>
			<output>
				<port id="2" precision="FP32" names="69">
					<dim>1</dim>
					<dim>96</dim>
					<dim>40</dim>
					<dim>40</dim>
				</port>
			</output>
		</layer>
		<layer id="61" name="Relu_21" type="ReLU" version="opset1">
			<rt_info>
				<attribute name="fused_names" version="0" value="Relu_21"/>
			</rt_info>
			<input>
				<port id="0" precision="FP32">
					<dim>1</dim>
					<dim>96</dim>
					<dim>40</dim>
					<dim>40</dim>
				</port>
			</input>
			<output>
				<port id="1" precision="FP32" names="70">
					<dim>1</dim>
					<dim>96</dim>
					<dim>40</dim>
					<dim>40</dim>
				</port>
			</output>
		</layer>
		<layer id="62" name="backbone.body.stage3.0.rbr_reparam.weight_compressed" type="Const" version="opset1">
			<data element_type="f16" shape="192, 96, 3, 3" offset="668008" size="331776"/>
			<output>
				<port id="0" precision="FP16">
					<dim>192</dim>
					<dim>96</dim>
					<dim>3</dim>
					<dim>3</dim>
				</port>
			</output>
		</layer>
		<layer id="63" name="backbone.body.stage3.0.rbr_reparam.weight" type="Convert" version="opset1">
			<data destination_type="f32"/>
			<rt_info>
				<attribute name="decompression" version="0"/>
				<attribute name="fused_names" version="0" value="backbone.body.stage3.0.rbr_reparam.weight"/>
			</rt_info>
			<input>
				<port id="0" precision="FP16">
					<dim>192</dim>
					<dim>96</dim>
					<dim>3</dim>
					<dim>3</dim>
				</port>
			</input>
			<output>
				<port id="1" precision="FP32" names="backbone.body.stage3.0.rbr_reparam.weight">
					<dim>192</dim>
					<dim>96</dim>
					<dim>3</dim>
					<dim>3</dim>
				</port>
			</output>
		</layer>
		<layer id="64" name="Conv_22/WithoutBiases" type="Convolution" version="opset1">
			<data strides="2, 2" dilations="1, 1" pads_begin="1, 1" pads_end="1, 1" auto_pad="explicit"/>
			<rt_info>
				<attribute name="fused_names" version="0" value="Conv_22/WithoutBiases"/>
			</rt_info>
			<input>
				<port id="0" precision="FP32">
					<dim>1</dim>
					<dim>96</dim>
					<dim>40</dim>
					<dim>40</dim>
				</port>
				<port id="1" precision="FP32">
					<dim>192</dim>
					<dim>96</dim>
					<dim>3</dim>
					<dim>3</dim>
				</port>
			</input>
			<output>
				<port id="2" precision="FP32">
					<dim>1</dim>
					<dim>192</dim>
					<dim>20</dim>
					<dim>20</dim>
				</port>
			</output>
		</layer>
		<layer id="65" name="Reshape_446_compressed" type="Const" version="opset1">
			<data element_type="f16" shape="1, 192, 1, 1" offset="999784" size="384"/>
			<output>
				<port id="0" precision="FP16">
					<dim>1</dim>
					<dim>192</dim>
					<dim>1</dim>
					<dim>1</dim>
				</port>
			</output>
		</layer>
		<layer id="66" name="Reshape_446" type="Convert" version="opset1">
			<data destination_type="f32"/>
			<rt_info>
				<attribute name="decompression" version="0"/>
			</rt_info>
			<input>
				<port id="0" precision="FP16">
					<dim>1</dim>
					<dim>192</dim>
					<dim>1</dim>
					<dim>1</dim>
				</port>
			</input>
			<output>
				<port id="1" precision="FP32">
					<dim>1</dim>
					<dim>192</dim>
					<dim>1</dim>
					<dim>1</dim>
				</port>
			</output>
		</layer>
		<layer id="67" name="Conv_22" type="Add" version="opset1">
			<data auto_broadcast="numpy"/>
			<rt_info>
				<attribute name="fused_names" version="0" value="Concat_445, Conv_22, Reshape_446"/>
			</rt_info>
			<input>
				<port id="0" precision="FP32">
					<dim>1</dim>
					<dim>192</dim>
					<dim>20</dim>
					<dim>20</dim>
				</port>
				<port id="1" precision="FP32">
					<dim>1</dim>
					<dim>192</dim>
					<dim>1</dim>
					<dim>1</dim>
				</port>
			</input>
			<output>
				<port id="2" precision="FP32" names="71">
					<dim>1</dim>
					<dim>192</dim>
					<dim>20</dim>
					<dim>20</dim>
				</port>
			</output>
		</layer>
		<layer id="68" name="Relu_23" type="ReLU" version="opset1">
			<rt_info>
				<attribute name="fused_names" version="0" value="Relu_23"/>
			</rt_info>
			<input>
				<port id="0" precision="FP32">
					<dim>1</dim>
					<dim>192</dim>
					<dim>20</dim>
					<dim>20</dim>
				</port>
			</input>
			<output>
				<port id="1" precision="FP32" names="72">
					<dim>1</dim>
					<dim>192</dim>
					<dim>20</dim>
					<dim>20</dim>
				</port>
			</output>
		</layer>
		<layer id="69" name="backbone.body.stage3.1.rbr_reparam.weight_compressed" type="Const" version="opset1">
			<data element_type="f16" shape="192, 192, 3, 3" offset="1000168" size="663552"/>
			<output>
				<port id="0" precision="FP16">
					<dim>192</dim>
					<dim>192</dim>
					<dim>3</dim>
					<dim>3</dim>
				</port>
			</output>
		</layer>
		<layer id="70" name="backbone.body.stage3.1.rbr_reparam.weight" type="Convert" version="opset1">
			<data destination_type="f32"/>
			<rt_info>
				<attribute name="decompression" version="0"/>
				<attribute name="fused_names" version="0" value="backbone.body.stage3.1.rbr_reparam.weight"/>
			</rt_info>
			<input>
				<port id="0" precision="FP16">
					<dim>192</dim>
					<dim>192</dim>
					<dim>3</dim>
					<dim>3</dim>
				</port>
			</input>
			<output>
				<port id="1" precision="FP32" names="backbone.body.stage3.1.rbr_reparam.weight">
					<dim>192</dim>
					<dim>192</dim>
					<dim>3</dim>
					<dim>3</dim>
				</port>
			</output>
		</layer>
		<layer id="71" name="Conv_24/WithoutBiases" type="Convolution" version="opset1">
			<data strides="1, 1" dilations="1, 1" pads_begin="1, 1" pads_end="1, 1" auto_pad="explicit"/>
			<rt_info>
				<attribute name="fused_names" version="0" value="Conv_24/WithoutBiases"/>
			</rt_info>
			<input>
				<port id="0" precision="FP32">
					<dim>1</dim>
					<dim>192</dim>
					<dim>20</dim>
					<dim>20</dim>
				</port>
				<port id="1" precision="FP32">
					<dim>192</dim>
					<dim>192</dim>
					<dim>3</dim>
					<dim>3</dim>
				</port>
			</input>
			<output>
				<port id="2" precision="FP32">
					<dim>1</dim>
					<dim>192</dim>
					<dim>20</dim>
					<dim>20</dim>
				</port>
			</output>
		</layer>
		<layer id="72" name="Reshape_495_compressed" type="Const" version="opset1">
			<data element_type="f16" shape="1, 192, 1, 1" offset="1663720" size="384"/>
			<output>
				<port id="0" precision="FP16">
					<dim>1</dim>
					<dim>192</dim>
					<dim>1</dim>
					<dim>1</dim>
				</port>
			</output>
		</layer>
		<layer id="73" name="Reshape_495" type="Convert" version="opset1">
			<data destination_type="f32"/>
			<rt_info>
				<attribute name="decompression" version="0"/>
			</rt_info>
			<input>
				<port id="0" precision="FP16">
					<dim>1</dim>
					<dim>192</dim>
					<dim>1</dim>
					<dim>1</dim>
				</port>
			</input>
			<output>
				<port id="1" precision="FP32">
					<dim>1</dim>
					<dim>192</dim>
					<dim>1</dim>
					<dim>1</dim>
				</port>
			</output>
		</layer>
		<layer id="74" name="Conv_24" type="Add" version="opset1">
			<data auto_broadcast="numpy"/>
			<rt_info>
				<attribute name="fused_names" version="0" value="Concat_494, Conv_24, Reshape_495"/>
			</rt_info>
			<input>
				<port id="0" precision="FP32">
					<dim>1</dim>
					<dim>192</dim>
					<dim>20</dim>
					<dim>20</dim>
				</port>
				<port id="1" precision="FP32">
					<dim>1</dim>
					<dim>192</dim>
					<dim>1</dim>
					<dim>1</dim>
				</port>
			</input>
			<output>
				<port id="2" precision="FP32" names="73">
					<dim>1</dim>
					<dim>192</dim>
					<dim>20</dim>
					<dim>20</dim>
				</port>
			</output>
		</layer>
		<layer id="75" name="Relu_25" type="ReLU" version="opset1">
			<rt_info>
				<attribute name="fused_names" version="0" value="Relu_25"/>
			</rt_info>
			<input>
				<port id="0" precision="FP32">
					<dim>1</dim>
					<dim>192</dim>
					<dim>20</dim>
					<dim>20</dim>
				</port>
			</input>
			<output>
				<port id="1" precision="FP32" names="74">
					<dim>1</dim>
					<dim>192</dim>
					<dim>20</dim>
					<dim>20</dim>
				</port>
			</output>
		</layer>
		<layer id="76" name="backbone.body.stage3.2.rbr_reparam.weight_compressed" type="Const" version="opset1">
			<data element_type="f16" shape="192, 192, 3, 3" offset="1664104" size="663552"/>
			<output>
				<port id="0" precision="FP16">
					<dim>192</dim>
					<dim>192</dim>
					<dim>3</dim>
					<dim>3</dim>
				</port>
			</output>
		</layer>
		<layer id="77" name="backbone.body.stage3.2.rbr_reparam.weight" type="Convert" version="opset1">
			<data destination_type="f32"/>
			<rt_info>
				<attribute name="decompression" version="0"/>
				<attribute name="fused_names" version="0" value="backbone.body.stage3.2.rbr_reparam.weight"/>
			</rt_info>
			<input>
				<port id="0" precision="FP16">
					<dim>192</dim>
					<dim>192</dim>
					<dim>3</dim>
					<dim>3</dim>
				</port>
			</input>
			<output>
				<port id="1" precision="FP32" names="backbone.body.stage3.2.rbr_reparam.weight">
					<dim>192</dim>
					<dim>192</dim>
					<dim>3</dim>
					<dim>3</dim>
				</port>
			</output>
		</layer>
		<layer id="78" name="Conv_26/WithoutBiases" type="Convolution" version="opset1">
			<data strides="1, 1" dilations="1, 1" pads_begin="1, 1" pads_end="1, 1" auto_pad="explicit"/>
			<rt_info>
				<attribute name="fused_names" version="0" value="Conv_26/WithoutBiases"/>
			</rt_info>
			<input>
				<port id="0" precision="FP32">
					<dim>1</dim>
					<dim>192</dim>
					<dim>20</dim>
					<dim>20</dim>
				</port>
				<port id="1" precision="FP32">
					<dim>192</dim>
					<dim>192</dim>
					<dim>3</dim>
					<dim>3</dim>
				</port>
			</input>
			<output>
				<port id="2" precision="FP32">
					<dim>1</dim>
					<dim>192</dim>
					<dim>20</dim>
					<dim>20</dim>
				</port>
			</output>
		</layer>
		<layer id="79" name="Reshape_544_compressed" type="Const" version="opset1">
			<data element_type="f16" shape="1, 192, 1, 1" offset="2327656" size="384"/>
			<output>
				<port id="0" precision="FP16">
					<dim>1</dim>
					<dim>192</dim>
					<dim>1</dim>
					<dim>1</dim>
				</port>
			</output>
		</layer>
		<layer id="80" name="Reshape_544" type="Convert" version="opset1">
			<data destination_type="f32"/>
			<rt_info>
				<attribute name="decompression" version="0"/>
			</rt_info>
			<input>
				<port id="0" precision="FP16">
					<dim>1</dim>
					<dim>192</dim>
					<dim>1</dim>
					<dim>1</dim>
				</port>
			</input>
			<output>
				<port id="1" precision="FP32">
					<dim>1</dim>
					<dim>192</dim>
					<dim>1</dim>
					<dim>1</dim>
				</port>
			</output>
		</layer>
		<layer id="81" name="Conv_26" type="Add" version="opset1">
			<data auto_broadcast="numpy"/>
			<rt_info>
				<attribute name="fused_names" version="0" value="Concat_543, Conv_26, Reshape_544"/>
			</rt_info>
			<input>
				<port id="0" precision="FP32">
					<dim>1</dim>
					<dim>192</dim>
					<dim>20</dim>
					<dim>20</dim>
				</port>
				<port id="1" precision="FP32">
					<dim>1</dim>
					<dim>192</dim>
					<dim>1</dim>
					<dim>1</dim>
				</port>
			</input>
			<output>
				<port id="2" precision="FP32" names="75">
					<dim>1</dim>
					<dim>192</dim>
					<dim>20</dim>
					<dim>20</dim>
				</port>
			</output>
		</layer>
		<layer id="82" name="Relu_27" type="ReLU" version="opset1">
			<rt_info>
				<attribute name="fused_names" version="0" value="Relu_27"/>
			</rt_info>
			<input>
				<port id="0" precision="FP32">
					<dim>1</dim>
					<dim>192</dim>
					<dim>20</dim>
					<dim>20</dim>
				</port>
			</input>
			<output>
				<port id="1" precision="FP32" names="76">
					<dim>1</dim>
					<dim>192</dim>
					<dim>20</dim>
					<dim>20</dim>
				</port>
			</output>
		</layer>
		<layer id="83" name="backbone.body.stage3.3.rbr_reparam.weight_compressed" type="Const" version="opset1">
			<data element_type="f16" shape="192, 192, 3, 3" offset="2328040" size="663552"/>
			<output>
				<port id="0" precision="FP16">
					<dim>192</dim>
					<dim>192</dim>
					<dim>3</dim>
					<dim>3</dim>
				</port>
			</output>
		</layer>
		<layer id="84" name="backbone.body.stage3.3.rbr_reparam.weight" type="Convert" version="opset1">
			<data destination_type="f32"/>
			<rt_info>
				<attribute name="decompression" version="0"/>
				<attribute name="fused_names" version="0" value="backbone.body.stage3.3.rbr_reparam.weight"/>
			</rt_info>
			<input>
				<port id="0" precision="FP16">
					<dim>192</dim>
					<dim>192</dim>
					<dim>3</dim>
					<dim>3</dim>
				</port>
			</input>
			<output>
				<port id="1" precision="FP32" names="backbone.body.stage3.3.rbr_reparam.weight">
					<dim>192</dim>
					<dim>192</dim>
					<dim>3</dim>
					<dim>3</dim>
				</port>
			</output>
		</layer>
		<layer id="85" name="Conv_28/WithoutBiases" type="Convolution" version="opset1">
			<data strides="1, 1" dilations="1, 1" pads_begin="1, 1" pads_end="1, 1" auto_pad="explicit"/>
			<rt_info>
				<attribute name="fused_names" version="0" value="Conv_28/WithoutBiases"/>
			</rt_info>
			<input>
				<port id="0" precision="FP32">
					<dim>1</dim>
					<dim>192</dim>
					<dim>20</dim>
					<dim>20</dim>
				</port>
				<port id="1" precision="FP32">
					<dim>192</dim>
					<dim>192</dim>
					<dim>3</dim>
					<dim>3</dim>
				</port>
			</input>
			<output>
				<port id="2" precision="FP32">
					<dim>1</dim>
					<dim>192</dim>
					<dim>20</dim>
					<dim>20</dim>
				</port>
			</output>
		</layer>
		<layer id="86" name="Reshape_593_compressed" type="Const" version="opset1">
			<data element_type="f16" shape="1, 192, 1, 1" offset="2991592" size="384"/>
			<output>
				<port id="0" precision="FP16">
					<dim>1</dim>
					<dim>192</dim>
					<dim>1</dim>
					<dim>1</dim>
				</port>
			</output>
		</layer>
		<layer id="87" name="Reshape_593" type="Convert" version="opset1">
			<data destination_type="f32"/>
			<rt_info>
				<attribute name="decompression" version="0"/>
			</rt_info>
			<input>
				<port id="0" precision="FP16">
					<dim>1</dim>
					<dim>192</dim>
					<dim>1</dim>
					<dim>1</dim>
				</port>
			</input>
			<output>
				<port id="1" precision="FP32">
					<dim>1</dim>
					<dim>192</dim>
					<dim>1</dim>
					<dim>1</dim>
				</port>
			</output>
		</layer>
		<layer id="88" name="Conv_28" type="Add" version="opset1">
			<data auto_broadcast="numpy"/>
			<rt_info>
				<attribute name="fused_names" version="0" value="Concat_592, Conv_28, Reshape_593"/>
			</rt_info>
			<input>
				<port id="0" precision="FP32">
					<dim>1</dim>
					<dim>192</dim>
					<dim>20</dim>
					<dim>20</dim>
				</port>
				<port id="1" precision="FP32">
					<dim>1</dim>
					<dim>192</dim>
					<dim>1</dim>
					<dim>1</dim>
				</port>
			</input>
			<output>
				<port id="2" precision="FP32" names="77">
					<dim>1</dim>
					<dim>192</dim>
					<dim>20</dim>
					<dim>20</dim>
				</port>
			</output>
		</layer>
		<layer id="89" name="Relu_29" type="ReLU" version="opset1">
			<rt_info>
				<attribute name="fused_names" version="0" value="Relu_29"/>
			</rt_info>
			<input>
				<port id="0" precision="FP32">
					<dim>1</dim>
					<dim>192</dim>
					<dim>20</dim>
					<dim>20</dim>
				</port>
			</input>
			<output>
				<port id="1" precision="FP32" names="78">
					<dim>1</dim>
					<dim>192</dim>
					<dim>20</dim>
					<dim>20</dim>
				</port>
			</output>
		</layer>
		<layer id="90" name="bottleneck.weight_compressed" type="Const" version="opset1">
			<data element_type="f16" shape="128, 192, 1, 1" offset="2991976" size="49152"/>
			<output>
				<port id="0" precision="FP16">
					<dim>128</dim>
					<dim>192</dim>
					<dim>1</dim>
					<dim>1</dim>
				</port>
			</output>
		</layer>
		<layer id="91" name="bottleneck.weight" type="Convert" version="opset1">
			<data destination_type="f32"/>
			<rt_info>
				<attribute name="decompression" version="0"/>
				<attribute name="fused_names" version="0" value="bottleneck.weight"/>
			</rt_info>
			<input>
				<port id="0" precision="FP16">
					<dim>128</dim>
					<dim>192</dim>
					<dim>1</dim>
					<dim>1</dim>
				</port>
			</input>
			<output>
				<port id="1" precision="FP32" names="bottleneck.weight">
					<dim>128</dim>
					<dim>192</dim>
					<dim>1</dim>
					<dim>1</dim>
				</port>
			</output>
		</layer>
		<layer id="92" name="Conv_30/WithoutBiases" type="Convolution" version="opset1">
			<data strides="1, 1" dilations="1, 1" pads_begin="0, 0" pads_end="0, 0" auto_pad="explicit"/>
			<rt_info>
				<attribute name="fused_names" version="0" value="Conv_30/WithoutBiases"/>
			</rt_info>
			<input>
				<port id="0" precision="FP32">
					<dim>1</dim>
					<dim>192</dim>
					<dim>20</dim>
					<dim>20</dim>
				</port>
				<port id="1" precision="FP32">
					<dim>128</dim>
					<dim>192</dim>
					<dim>1</dim>
					<dim>1</dim>
				</port>
			</input>
			<output>
				<port id="2" precision="FP32">
					<dim>1</dim>
					<dim>128</dim>
					<dim>20</dim>
					<dim>20</dim>
				</port>
			</output>
		</layer>
		<layer id="93" name="Reshape_642_compressed" type="Const" version="opset1">
			<data element_type="f16" shape="1, 128, 1, 1" offset="3041128" size="256"/>
			<output>
				<port id="0" precision="FP16">
					<dim>1</dim>
					<dim>128</dim>
					<dim>1</dim>
					<dim>1</dim>
				</port>
			</output>
		</layer>
		<layer id="94" name="Reshape_642" type="Convert" version="opset1">
			<data destination_type="f32"/>
			<rt_info>
				<attribute name="decompression" version="0"/>
			</rt_info>
			<input>
				<port id="0" precision="FP16">
					<dim>1</dim>
					<dim>128</dim>
					<dim>1</dim>
					<dim>1</dim>
				</port>
			</input>
			<output>
				<port id="1" precision="FP32">
					<dim>1</dim>
					<dim>128</dim>
					<dim>1</dim>
					<dim>1</dim>
				</port>
			</output>
		</layer>
		<layer id="95" name="Conv_30" type="Add" version="opset1">
			<data auto_broadcast="numpy"/>
			<rt_info>
				<attribute name="fused_names" version="0" value="Concat_641, Conv_30, Reshape_642"/>
			</rt_info>
			<input>
				<port id="0" precision="FP32">
					<dim>1</dim>
					<dim>128</dim>
					<dim>20</dim>
					<dim>20</dim>
				</port>
				<port id="1" precision="FP32">
					<dim>1</dim>
					<dim>128</dim>
					<dim>1</dim>
					<dim>1</dim>
				</port>
			</input>
			<output>
				<port id="2" precision="FP32" names="79">
					<dim>1</dim>
					<dim>128</dim>
					<dim>20</dim>
					<dim>20</dim>
				</port>
			</output>
		</layer>
		<layer id="96" name="404" type="Const" version="opset1">
			<data element_type="i64" shape="3" offset="3041384" size="24"/>
			<rt_info>
				<attribute name="fused_names" version="0" value="404"/>
			</rt_info>
			<output>
				<port id="0" precision="I64" names="404">
					<dim>3</dim>
				</port>
			</output>
		</layer>
		<layer id="97" name="Reshape_83" type="Reshape" version="opset1">
			<data special_zero="true"/>
			<rt_info>
				<attribute name="fused_names" version="0" value="Reshape_83"/>
			</rt_info>
			<input>
				<port id="0" precision="FP32">
					<dim>1</dim>
					<dim>128</dim>
					<dim>20</dim>
					<dim>20</dim>
				</port>
				<port id="1" precision="I64">
					<dim>3</dim>
				</port>
			</input>
			<output>
				<port id="2" precision="FP32" names="135">
					<dim>1</dim>
					<dim>128</dim>
					<dim>400</dim>
				</port>
			</output>
		</layer>
		<layer id="98" name="Constant_694" type="Const" version="opset1">
			<data element_type="i64" shape="3" offset="3041408" size="24"/>
			<rt_info>
				<attribute name="fused_names" version="0" value="Constant_694"/>
			</rt_info>
			<output>
				<port id="0" precision="I64">
					<dim>3</dim>
				</port>
			</output>
		</layer>
		<layer id="99" name="Transpose_84" type="Transpose" version="opset1">
			<rt_info>
				<attribute name="fused_names" version="0" value="Transpose_84"/>
			</rt_info>
			<input>
				<port id="0" precision="FP32">
					<dim>1</dim>
					<dim>128</dim>
					<dim>400</dim>
				</port>
				<port id="1" precision="I64">
					<dim>3</dim>
				</port>
			</input>
			<output>
				<port id="2" precision="FP32" names="136">
					<dim>400</dim>
					<dim>1</dim>
					<dim>128</dim>
				</port>
			</output>
		</layer>
		<layer id="100" name="145_compressed" type="Const" version="opset1">
			<data element_type="f16" shape="400, 1, 128" offset="3041432" size="102400"/>
			<output>
				<port id="0" precision="FP16">
					<dim>400</dim>
					<dim>1</dim>
					<dim>128</dim>
				</port>
			</output>
		</layer>
		<layer id="101" name="145" type="Convert" version="opset1">
			<data destination_type="f32"/>
			<rt_info>
				<attribute name="decompression" version="0"/>
				<attribute name="fused_names" version="0" value="145"/>
			</rt_info>
			<input>
				<port id="0" precision="FP16">
					<dim>400</dim>
					<dim>1</dim>
					<dim>128</dim>
				</port>
			</input>
			<output>
				<port id="1" precision="FP32" names="145">
					<dim>400</dim>
					<dim>1</dim>
					<dim>128</dim>
				</port>
			</output>
		</layer>
		<layer id="102" name="Add_98" type="Add" version="opset1">
			<data auto_broadcast="numpy"/>
			<rt_info>
				<attribute name="fused_names" version="0" value="Add_98"/>
			</rt_info>
			<input>
				<port id="0" precision="FP32">
					<dim>400</dim>
					<dim>1</dim>
					<dim>128</dim>
				</port>
				<port id="1" precision="FP32">
					<dim>400</dim>
					<dim>1</dim>
					<dim>128</dim>
				</port>
			</input>
			<output>
				<port id="2" precision="FP32" names="150">
					<dim>400</dim>
					<dim>1</dim>
					<dim>128</dim>
				</port>
			</output>
		</layer>
		<layer id="103" name="Constant_81" type="Const" version="opset1">
			<data element_type="i64" shape="1" offset="3143832" size="8"/>
			<rt_info>
				<attribute name="fused_names" version="0" value="Constant_81"/>
			</rt_info>
			<output>
				<port id="0" precision="I64">
					<dim>1</dim>
				</port>
			</output>
		</layer>
		<layer id="104" name="Unsqueeze_6" type="Unsqueeze" version="opset1">
			<rt_info>
				<attribute name="fused_names" version="0" value="Unsqueeze_6"/>
			</rt_info>
			<input>
				<port id="0" precision="BOOL">
					<dim>320</dim>
					<dim>320</dim>
				</port>
				<port id="1" precision="I64">
					<dim>1</dim>
				</port>
			</input>
			<output>
				<port id="2" precision="BOOL" names="55">
					<dim>1</dim>
					<dim>320</dim>
					<dim>320</dim>
				</port>
			</output>
		</layer>
		<layer id="105" name="Constant_670" type="Const" version="opset1">
			<data element_type="i64" shape="1" offset="3143832" size="8"/>
			<rt_info>
				<attribute name="fused_names" version="0" value="Constant_670"/>
			</rt_info>
			<output>
				<port id="0" precision="I64">
					<dim>1</dim>
				</port>
			</output>
		</layer>
		<layer id="106" name="Unsqueeze_31" type="Unsqueeze" version="opset1">
			<rt_info>
				<attribute name="fused_names" version="0" value="Unsqueeze_31"/>
			</rt_info>
			<input>
				<port id="0" precision="BOOL">
					<dim>1</dim>
					<dim>320</dim>
					<dim>320</dim>
				</port>
				<port id="1" precision="I64">
					<dim>1</dim>
				</port>
			</input>
			<output>
				<port id="2" precision="BOOL" names="80">
					<dim>1</dim>
					<dim>1</dim>
					<dim>320</dim>
					<dim>320</dim>
				</port>
			</output>
		</layer>
		<layer id="107" name="Cast_32" type="Convert" version="opset1">
			<data destination_type="f32"/>
			<rt_info>
				<attribute name="fused_names" version="0" value="Cast_32"/>
			</rt_info>
			<input>
				<port id="0" precision="BOOL">
					<dim>1</dim>
					<dim>1</dim>
					<dim>320</dim>
					<dim>320</dim>
				</port>
			</input>
			<output>
				<port id="1" precision="FP32" names="81">
					<dim>1</dim>
					<dim>1</dim>
					<dim>320</dim>
					<dim>320</dim>
				</port>
			</output>
		</layer>
		<layer id="108" name="98" type="Const" version="opset1">
			<data element_type="i64" shape="4" offset="3143840" size="32"/>
			<rt_info>
				<attribute name="fused_names" version="0" value="98"/>
			</rt_info>
			<output>
				<port id="0" precision="I64" names="98">
					<dim>4</dim>
				</port>
			</output>
		</layer>
		<layer id="109" name="Convert_675" type="Const" version="opset1">
			<data element_type="f32" shape="4" offset="3143872" size="16"/>
			<output>
				<port id="0" precision="FP32">
					<dim>4</dim>
				</port>
			</output>
		</layer>
		<layer id="110" name="ShapeOf_673" type="ShapeOf" version="opset3">
			<data output_type="i64"/>
			<rt_info>
				<attribute name="fused_names" version="0" value="ShapeOf_673"/>
			</rt_info>
			<input>
				<port id="0" precision="FP32">
					<dim>1</dim>
					<dim>1</dim>
					<dim>320</dim>
					<dim>320</dim>
				</port>
			</input>
			<output>
				<port id="1" precision="I64">
					<dim>4</dim>
				</port>
			</output>
		</layer>
		<layer id="111" name="Convert_674" type="Convert" version="opset1">
			<data destination_type="f32"/>
			<rt_info>
				<attribute name="fused_names" version="0" value="Convert_674"/>
			</rt_info>
			<input>
				<port id="0" precision="I64">
					<dim>4</dim>
				</port>
			</input>
			<output>
				<port id="1" precision="FP32">
					<dim>4</dim>
				</port>
			</output>
		</layer>
		<layer id="112" name="Divide_676" type="Divide" version="opset1">
			<data auto_broadcast="numpy" m_pythondiv="true"/>
			<rt_info>
				<attribute name="fused_names" version="0" value="Convert_675, Divide_676"/>
			</rt_info>
			<input>
				<port id="0" precision="FP32">
					<dim>4</dim>
				</port>
				<port id="1" precision="FP32">
					<dim>4</dim>
				</port>
			</input>
			<output>
				<port id="2" precision="FP32">
					<dim>4</dim>
				</port>
			</output>
		</layer>
		<layer id="113" name="Constant_2873" type="Const" version="opset1">
			<data element_type="f32" shape="1" offset="3143888" size="4"/>
			<output>
				<port id="0" precision="FP32">
					<dim>1</dim>
				</port>
			</output>
		</layer>
		<layer id="114" name="Add_678" type="Add" version="opset1">
			<data auto_broadcast="numpy"/>
			<rt_info>
				<attribute name="fused_names" version="0" value="Add_678"/>
			</rt_info>
			<input>
				<port id="0" precision="FP32">
					<dim>4</dim>
				</port>
				<port id="1" precision="FP32">
					<dim>1</dim>
				</port>
			</input>
			<output>
				<port id="2" precision="FP32">
					<dim>4</dim>
				</port>
			</output>
		</layer>
		<layer id="115" name="Resize_51" type="Interpolate" version="opset4">
			<data mode="nearest" shape_calculation_mode="sizes" coordinate_transformation_mode="asymmetric" nearest_mode="floor" antialias="false" pads_begin="0, 0, 0, 0" pads_end="0, 0, 0, 0" cube_coeff="-0.75"/>
			<rt_info>
				<attribute name="fused_names" version="0" value="Resize_51"/>
			</rt_info>
			<input>
				<port id="0" precision="FP32">
					<dim>1</dim>
					<dim>1</dim>
					<dim>320</dim>
					<dim>320</dim>
				</port>
				<port id="1" precision="I64">
					<dim>4</dim>
				</port>
				<port id="2" precision="FP32">
					<dim>4</dim>
				</port>
			</input>
			<output>
				<port id="3" precision="FP32" names="100">
					<dim>1</dim>
					<dim>1</dim>
					<dim>20</dim>
					<dim>20</dim>
				</port>
			</output>
		</layer>
		<layer id="116" name="Cast_52" type="Convert" version="opset1">
			<data destination_type="boolean"/>
			<rt_info>
				<attribute name="fused_names" version="0" value="Cast_52"/>
			</rt_info>
			<input>
				<port id="0" precision="FP32">
					<dim>1</dim>
					<dim>1</dim>
					<dim>20</dim>
					<dim>20</dim>
				</port>
			</input>
			<output>
				<port id="1" precision="BOOL" names="101">
					<dim>1</dim>
					<dim>1</dim>
					<dim>20</dim>
					<dim>20</dim>
				</port>
			</output>
		</layer>
		<layer id="117" name="102" type="Const" version="opset1">
			<data element_type="i64" shape="" offset="3143832" size="8"/>
			<rt_info>
				<attribute name="fused_names" version="0" value="102"/>
			</rt_info>
			<output>
				<port id="0" precision="I64" names="102"/>
			</output>
		</layer>
		<layer id="118" name="Constant_686" type="Const" version="opset1">
			<data element_type="i64" shape="" offset="3143832" size="8"/>
			<rt_info>
				<attribute name="fused_names" version="0" value="Constant_686"/>
			</rt_info>
			<output>
				<port id="0" precision="I64"/>
			</output>
		</layer>
		<layer id="119" name="Gather_54" type="Gather" version="opset8">
			<data batch_dims="0"/>
			<rt_info>
				<attribute name="fused_names" version="0" value="Gather_54"/>
			</rt_info>
			<input>
				<port id="0" precision="BOOL">
					<dim>1</dim>
					<dim>1</dim>
					<dim>20</dim>
					<dim>20</dim>
				</port>
				<port id="1" precision="I64"/>
				<port id="2" precision="I64"/>
			</input>
			<output>
				<port id="3" precision="BOOL" names="103">
					<dim>1</dim>
					<dim>20</dim>
					<dim>20</dim>
				</port>
			</output>
		</layer>
		<layer id="120" name="Constant_696" type="Const" version="opset1">
			<data element_type="i64" shape="2" offset="3143892" size="16"/>
			<rt_info>
				<attribute name="fused_names" version="0" value="Constant_696"/>
			</rt_info>
			<output>
				<port id="0" precision="I64">
					<dim>2</dim>
				</port>
			</output>
		</layer>
		<layer id="121" name="Flatten_94" type="Reshape" version="opset1">
			<data special_zero="true"/>
			<rt_info>
				<attribute name="fused_names" version="0" value="Flatten_94"/>
			</rt_info>
			<input>
				<port id="0" precision="BOOL">
					<dim>1</dim>
					<dim>20</dim>
					<dim>20</dim>
				</port>
				<port id="1" precision="I64">
					<dim>2</dim>
				</port>
			</input>
			<output>
				<port id="2" precision="BOOL" names="146">
					<dim>1</dim>
					<dim>400</dim>
				</port>
			</output>
		</layer>
		<layer id="122" name="Concat_96" type="Concat" version="opset1">
			<data axis="1"/>
			<rt_info>
				<attribute name="fused_names" version="0" value="Concat_96"/>
			</rt_info>
			<input>
				<port id="0" precision="BOOL">
					<dim>1</dim>
					<dim>64</dim>
				</port>
				<port id="1" precision="BOOL">
					<dim>1</dim>
					<dim>400</dim>
				</port>
			</input>
			<output>
				<port id="2" precision="BOOL" names="148">
					<dim>1</dim>
					<dim>464</dim>
				</port>
			</output>
		</layer>
		<layer id="123" name="Constant_743" type="Const" version="opset1">
			<data element_type="i64" shape="1" offset="3143908" size="8"/>
			<rt_info>
				<attribute name="fused_names" version="0" value="Constant_743"/>
			</rt_info>
			<output>
				<port id="0" precision="I64">
					<dim>1</dim>
				</port>
			</output>
		</layer>
		<layer id="124" name="Unsqueeze_180" type="Unsqueeze" version="opset1">
			<rt_info>
				<attribute name="fused_names" version="0" value="Unsqueeze_180"/>
			</rt_info>
			<input>
				<port id="0" precision="BOOL">
					<dim>1</dim>
					<dim>464</dim>
				</port>
				<port id="1" precision="I64">
					<dim>1</dim>
				</port>
			</input>
			<output>
				<port id="2" precision="BOOL" names="258">
					<dim>1</dim>
					<dim>1</dim>
					<dim>464</dim>
				</port>
			</output>
		</layer>
		<layer id="125" name="Constant_745" type="Const" version="opset1">
			<data element_type="i64" shape="1" offset="3143916" size="8"/>
			<rt_info>
				<attribute name="fused_names" version="0" value="Constant_745"/>
			</rt_info>
			<output>
				<port id="0" precision="I64">
					<dim>1</dim>
				</port>
			</output>
		</layer>
		<layer id="126" name="Unsqueeze_181" type="Unsqueeze" version="opset1">
			<rt_info>
				<attribute name="fused_names" version="0" value="Unsqueeze_181"/>
			</rt_info>
			<input>
				<port id="0" precision="BOOL">
					<dim>1</dim>
					<dim>1</dim>
					<dim>464</dim>
				</port>
				<port id="1" precision="I64">
					<dim>1</dim>
				</port>
			</input>
			<output>
				<port id="2" precision="BOOL" names="259">
					<dim>1</dim>
					<dim>1</dim>
					<dim>1</dim>
					<dim>464</dim>
				</port>
			</output>
		</layer>
		<layer id="127" name="261_compressed" type="Const" version="opset1">
			<data element_type="f16" shape="" offset="3143924" size="2"/>
			<output>
				<port id="0" precision="FP16"/>
			</output>
		</layer>
		<layer id="128" name="261" type="Convert" version="opset1">
			<data destination_type="f32"/>
			<rt_info>
				<attribute name="decompression" version="0"/>
				<attribute name="fused_names" version="0" value="261"/>
			</rt_info>
			<input>
				<port id="0" precision="FP16"/>
			</input>
			<output>
				<port id="1" precision="FP32" names="261"/>
			</output>
		</layer>
		<layer id="129" name="Constant_2818_compressed" type="Const" version="opset1">
			<data element_type="f16" shape="128, 128" offset="3143926" size="32768"/>
			<output>
				<port id="0" precision="FP16">
					<dim>128</dim>
					<dim>128</dim>
				</port>
			</output>
		</layer>
		<layer id="130" name="Constant_2818" type="Convert" version="opset1">
			<data destination_type="f32"/>
			<rt_info>
				<attribute name="decompression" version="0"/>
				<attribute name="fused_names" version="0" value="179, 218, Add_121, MatMul_120, Mul_147"/>
			</rt_info>
			<input>
				<port id="0" precision="FP16">
					<dim>128</dim>
					<dim>128</dim>
				</port>
			</input>
			<output>
				<port id="1" precision="FP32">
					<dim>128</dim>
					<dim>128</dim>
				</port>
			</output>
		</layer>
		<layer id="131" name="Multiply_2804" type="MatMul" version="opset1">
			<data transpose_a="false" transpose_b="true"/>
			<rt_info>
				<attribute name="fused_names" version="0" value="179, 218, Add_121, MatMul_120, Mul_147"/>
			</rt_info>
			<input>
				<port id="0" precision="FP32">
					<dim>400</dim>
					<dim>1</dim>
					<dim>128</dim>
				</port>
				<port id="1" precision="FP32">
					<dim>128</dim>
					<dim>128</dim>
				</port>
			</input>
			<output>
				<port id="2" precision="FP32">
					<dim>400</dim>
					<dim>1</dim>
					<dim>128</dim>
				</port>
			</output>
		</layer>
		<layer id="132" name="Constant_2874_compressed" type="Const" version="opset1">
			<data element_type="f16" shape="1, 1, 128" offset="3176694" size="256"/>
			<output>
				<port id="0" precision="FP16">
					<dim>1</dim>
					<dim>1</dim>
					<dim>128</dim>
				</port>
			</output>
		</layer>
		<layer id="133" name="Constant_2874" type="Convert" version="opset1">
			<data destination_type="f32"/>
			<rt_info>
				<attribute name="decompression" version="0"/>
			</rt_info>
			<input>
				<port id="0" precision="FP16">
					<dim>1</dim>
					<dim>1</dim>
					<dim>128</dim>
				</port>
			</input>
			<output>
				<port id="1" precision="FP32">
					<dim>1</dim>
					<dim>1</dim>
					<dim>128</dim>
				</port>
			</output>
		</layer>
		<layer id="134" name="Mul_147" type="Add" version="opset1">
			<data auto_broadcast="numpy"/>
			<rt_info>
				<attribute name="fused_names" version="0" value="Add_121, Mul_147"/>
			</rt_info>
			<input>
				<port id="0" precision="FP32">
					<dim>400</dim>
					<dim>1</dim>
					<dim>128</dim>
				</port>
				<port id="1" precision="FP32">
					<dim>1</dim>
					<dim>1</dim>
					<dim>128</dim>
				</port>
			</input>
			<output>
				<port id="2" precision="FP32" names="219">
					<dim>400</dim>
					<dim>1</dim>
					<dim>128</dim>
				</port>
			</output>
		</layer>
		<layer id="135" name="225" type="Const" version="opset1">
			<data element_type="i64" shape="3" offset="3176950" size="24"/>
			<rt_info>
				<attribute name="fused_names" version="0" value="225"/>
			</rt_info>
			<output>
				<port id="0" precision="I64" names="225">
					<dim>3</dim>
				</port>
			</output>
		</layer>
		<layer id="136" name="Reshape_154" type="Reshape" version="opset1">
			<data special_zero="true"/>
			<rt_info>
				<attribute name="fused_names" version="0" value="Reshape_154"/>
			</rt_info>
			<input>
				<port id="0" precision="FP32">
					<dim>400</dim>
					<dim>1</dim>
					<dim>128</dim>
				</port>
				<port id="1" precision="I64">
					<dim>3</dim>
				</port>
			</input>
			<output>
				<port id="2" precision="FP32" names="226">
					<dim>400</dim>
					<dim>8</dim>
					<dim>16</dim>
				</port>
			</output>
		</layer>
		<layer id="137" name="Constant_721" type="Const" version="opset1">
			<data element_type="i64" shape="3" offset="3176974" size="24"/>
			<rt_info>
				<attribute name="fused_names" version="0" value="Constant_721"/>
			</rt_info>
			<output>
				<port id="0" precision="I64">
					<dim>3</dim>
				</port>
			</output>
		</layer>
		<layer id="138" name="Transpose_155" type="Transpose" version="opset1">
			<rt_info>
				<attribute name="fused_names" version="0" value="Transpose_155"/>
			</rt_info>
			<input>
				<port id="0" precision="FP32">
					<dim>400</dim>
					<dim>8</dim>
					<dim>16</dim>
				</port>
				<port id="1" precision="I64">
					<dim>3</dim>
				</port>
			</input>
			<output>
				<port id="2" precision="FP32" names="227">
					<dim>8</dim>
					<dim>400</dim>
					<dim>16</dim>
				</port>
			</output>
		</layer>
		<layer id="139" name="Concat_95" type="Concat" version="opset1">
			<data axis="0"/>
			<rt_info>
				<attribute name="fused_names" version="0" value="Concat_95"/>
			</rt_info>
			<input>
				<port id="0" precision="FP32">
					<dim>64</dim>
					<dim>1</dim>
					<dim>128</dim>
				</port>
				<port id="1" precision="FP32">
					<dim>400</dim>
					<dim>1</dim>
					<dim>128</dim>
				</port>
			</input>
			<output>
				<port id="2" precision="FP32" names="147">
					<dim>464</dim>
					<dim>1</dim>
					<dim>128</dim>
				</port>
			</output>
		</layer>
		<layer id="140" name="Concat_97" type="Concat" version="opset1">
			<data axis="0"/>
			<rt_info>
				<attribute name="fused_names" version="0" value="Concat_97"/>
			</rt_info>
			<input>
				<port id="0" precision="FP32">
					<dim>64</dim>
					<dim>1</dim>
					<dim>128</dim>
				</port>
				<port id="1" precision="FP32">
					<dim>400</dim>
					<dim>1</dim>
					<dim>128</dim>
				</port>
			</input>
			<output>
				<port id="2" precision="FP32" names="149">
					<dim>464</dim>
					<dim>1</dim>
					<dim>128</dim>
				</port>
			</output>
		</layer>
		<layer id="141" name="Add_99" type="Add" version="opset1">
			<data auto_broadcast="numpy"/>
			<rt_info>
				<attribute name="fused_names" version="0" value="Add_99"/>
			</rt_info>
			<input>
				<port id="0" precision="FP32">
					<dim>464</dim>
					<dim>1</dim>
					<dim>128</dim>
				</port>
				<port id="1" precision="FP32">
					<dim>464</dim>
					<dim>1</dim>
					<dim>128</dim>
				</port>
			</input>
			<output>
				<port id="2" precision="FP32" names="151">
					<dim>464</dim>
					<dim>1</dim>
					<dim>128</dim>
				</port>
			</output>
		</layer>
		<layer id="142" name="Constant_2707_compressed" type="Const" version="opset1">
			<data element_type="f16" shape="128, 128" offset="3176998" size="32768"/>
			<output>
				<port id="0" precision="FP16">
					<dim>128</dim>
					<dim>128</dim>
				</port>
			</output>
		</layer>
		<layer id="143" name="Constant_2707" type="Convert" version="opset1">
			<data destination_type="f32"/>
			<rt_info>
				<attribute name="decompression" version="0"/>
				<attribute name="fused_names" version="0" value="196, MatMul_133"/>
			</rt_info>
			<input>
				<port id="0" precision="FP16">
					<dim>128</dim>
					<dim>128</dim>
				</port>
			</input>
			<output>
				<port id="1" precision="FP32">
					<dim>128</dim>
					<dim>128</dim>
				</port>
			</output>
		</layer>
		<layer id="144" name="MatMul_133" type="MatMul" version="opset1">
			<data transpose_a="false" transpose_b="true"/>
			<rt_info>
				<attribute name="fused_names" version="0" value="196, MatMul_133"/>
			</rt_info>
			<input>
				<port id="0" precision="FP32">
					<dim>464</dim>
					<dim>1</dim>
					<dim>128</dim>
				</port>
				<port id="1" precision="FP32">
					<dim>128</dim>
					<dim>128</dim>
				</port>
			</input>
			<output>
				<port id="2" precision="FP32" names="197">
					<dim>464</dim>
					<dim>1</dim>
					<dim>128</dim>
				</port>
			</output>
		</layer>
		<layer id="145" name="Constant_2875_compressed" type="Const" version="opset1">
			<data element_type="f16" shape="1, 1, 128" offset="3209766" size="256"/>
			<output>
				<port id="0" precision="FP16">
					<dim>1</dim>
					<dim>1</dim>
					<dim>128</dim>
				</port>
			</output>
		</layer>
		<layer id="146" name="Constant_2875" type="Convert" version="opset1">
			<data destination_type="f32"/>
			<rt_info>
				<attribute name="decompression" version="0"/>
			</rt_info>
			<input>
				<port id="0" precision="FP16">
					<dim>1</dim>
					<dim>1</dim>
					<dim>128</dim>
				</port>
			</input>
			<output>
				<port id="1" precision="FP32">
					<dim>1</dim>
					<dim>1</dim>
					<dim>128</dim>
				</port>
			</output>
		</layer>
		<layer id="147" name="Add_134" type="Add" version="opset1">
			<data auto_broadcast="numpy"/>
			<rt_info>
				<attribute name="fused_names" version="0" value="Add_134"/>
			</rt_info>
			<input>
				<port id="0" precision="FP32">
					<dim>464</dim>
					<dim>1</dim>
					<dim>128</dim>
				</port>
				<port id="1" precision="FP32">
					<dim>1</dim>
					<dim>1</dim>
					<dim>128</dim>
				</port>
			</input>
			<output>
				<port id="2" precision="FP32" names="198">
					<dim>464</dim>
					<dim>1</dim>
					<dim>128</dim>
				</port>
			</output>
		</layer>
		<layer id="148" name="234" type="Const" version="opset1">
			<data element_type="i64" shape="3" offset="3210022" size="24"/>
			<rt_info>
				<attribute name="fused_names" version="0" value="234"/>
			</rt_info>
			<output>
				<port id="0" precision="I64" names="234">
					<dim>3</dim>
				</port>
			</output>
		</layer>
		<layer id="149" name="Reshape_161" type="Reshape" version="opset1">
			<data special_zero="true"/>
			<rt_info>
				<attribute name="fused_names" version="0" value="Reshape_161"/>
			</rt_info>
			<input>
				<port id="0" precision="FP32">
					<dim>464</dim>
					<dim>1</dim>
					<dim>128</dim>
				</port>
				<port id="1" precision="I64">
					<dim>3</dim>
				</port>
			</input>
			<output>
				<port id="2" precision="FP32" names="235">
					<dim>464</dim>
					<dim>8</dim>
					<dim>16</dim>
				</port>
			</output>
		</layer>
		<layer id="150" name="Constant_734" type="Const" version="opset1">
			<data element_type="i64" shape="3" offset="3210046" size="24"/>
			<rt_info>
				<attribute name="fused_names" version="0" value="Constant_734"/>
			</rt_info>
			<output>
				<port id="0" precision="I64">
					<dim>3</dim>
				</port>
			</output>
		</layer>
		<layer id="151" name="Transpose_173" type="Transpose" version="opset1">
			<rt_info>
				<attribute name="fused_names" version="0" value="Transpose_173"/>
			</rt_info>
			<input>
				<port id="0" precision="FP32">
					<dim>464</dim>
					<dim>8</dim>
					<dim>16</dim>
				</port>
				<port id="1" precision="I64">
					<dim>3</dim>
				</port>
			</input>
			<output>
				<port id="2" precision="FP32" names="249">
					<dim>8</dim>
					<dim>16</dim>
					<dim>464</dim>
				</port>
			</output>
		</layer>
		<layer id="152" name="MatMul_174" type="MatMul" version="opset1">
			<data transpose_a="false" transpose_b="false"/>
			<rt_info>
				<attribute name="fused_names" version="0" value="MatMul_174"/>
			</rt_info>
			<input>
				<port id="0" precision="FP32">
					<dim>8</dim>
					<dim>400</dim>
					<dim>16</dim>
				</port>
				<port id="1" precision="FP32">
					<dim>8</dim>
					<dim>16</dim>
					<dim>464</dim>
				</port>
			</input>
			<output>
				<port id="2" precision="FP32" names="250">
					<dim>8</dim>
					<dim>400</dim>
					<dim>464</dim>
				</port>
			</output>
		</layer>
		<layer id="153" name="396" type="Const" version="opset1">
			<data element_type="i64" shape="4" offset="3210070" size="32"/>
			<rt_info>
				<attribute name="fused_names" version="0" value="396"/>
			</rt_info>
			<output>
				<port id="0" precision="I64" names="396">
					<dim>4</dim>
				</port>
			</output>
		</layer>
		<layer id="154" name="Reshape_179" type="Reshape" version="opset1">
			<data special_zero="true"/>
			<rt_info>
				<attribute name="fused_names" version="0" value="Reshape_179"/>
			</rt_info>
			<input>
				<port id="0" precision="FP32">
					<dim>8</dim>
					<dim>400</dim>
					<dim>464</dim>
				</port>
				<port id="1" precision="I64">
					<dim>4</dim>
				</port>
			</input>
			<output>
				<port id="2" precision="FP32" names="257">
					<dim>1</dim>
					<dim>8</dim>
					<dim>400</dim>
					<dim>464</dim>
				</port>
			</output>
		</layer>
		<layer id="155" name="Where_184" type="Select" version="opset1">
			<data auto_broadcast="numpy"/>
			<rt_info>
				<attribute name="fused_names" version="0" value="Where_184"/>
			</rt_info>
			<input>
				<port id="0" precision="BOOL">
					<dim>1</dim>
					<dim>1</dim>
					<dim>1</dim>
					<dim>464</dim>
				</port>
				<port id="1" precision="FP32"/>
				<port id="2" precision="FP32">
					<dim>1</dim>
					<dim>8</dim>
					<dim>400</dim>
					<dim>464</dim>
				</port>
			</input>
			<output>
				<port id="3" precision="FP32" names="262">
					<dim>1</dim>
					<dim>8</dim>
					<dim>400</dim>
					<dim>464</dim>
				</port>
			</output>
		</layer>
		<layer id="156" name="400" type="Const" version="opset1">
			<data element_type="i64" shape="3" offset="3210102" size="24"/>
			<rt_info>
				<attribute name="fused_names" version="0" value="400"/>
			</rt_info>
			<output>
				<port id="0" precision="I64" names="400">
					<dim>3</dim>
				</port>
			</output>
		</layer>
		<layer id="157" name="Reshape_191" type="Reshape" version="opset1">
			<data special_zero="true"/>
			<rt_info>
				<attribute name="fused_names" version="0" value="Reshape_191"/>
			</rt_info>
			<input>
				<port id="0" precision="FP32">
					<dim>1</dim>
					<dim>8</dim>
					<dim>400</dim>
					<dim>464</dim>
				</port>
				<port id="1" precision="I64">
					<dim>3</dim>
				</port>
			</input>
			<output>
				<port id="2" precision="FP32" names="269">
					<dim>8</dim>
					<dim>400</dim>
					<dim>464</dim>
				</port>
			</output>
		</layer>
		<layer id="158" name="Softmax_192" type="SoftMax" version="opset8">
			<data axis="2"/>
			<rt_info>
				<attribute name="fused_names" version="0" value="Softmax_192"/>
			</rt_info>
			<input>
				<port id="0" precision="FP32">
					<dim>8</dim>
					<dim>400</dim>
					<dim>464</dim>
				</port>
			</input>
			<output>
				<port id="1" precision="FP32" names="270">
					<dim>8</dim>
					<dim>400</dim>
					<dim>464</dim>
				</port>
			</output>
		</layer>
		<layer id="159" name="Constant_2714_compressed" type="Const" version="opset1">
			<data element_type="f16" shape="128, 128" offset="3210126" size="32768"/>
			<output>
				<port id="0" precision="FP16">
					<dim>128</dim>
					<dim>128</dim>
				</port>
			</output>
		</layer>
		<layer id="160" name="Constant_2714" type="Convert" version="opset1">
			<data destination_type="f32"/>
			<rt_info>
				<attribute name="decompression" version="0"/>
				<attribute name="fused_names" version="0" value="215, MatMul_144"/>
			</rt_info>
			<input>
				<port id="0" precision="FP16">
					<dim>128</dim>
					<dim>128</dim>
				</port>
			</input>
			<output>
				<port id="1" precision="FP32">
					<dim>128</dim>
					<dim>128</dim>
				</port>
			</output>
		</layer>
		<layer id="161" name="MatMul_144" type="MatMul" version="opset1">
			<data transpose_a="false" transpose_b="true"/>
			<rt_info>
				<attribute name="fused_names" version="0" value="215, MatMul_144"/>
			</rt_info>
			<input>
				<port id="0" precision="FP32">
					<dim>464</dim>
					<dim>1</dim>
					<dim>128</dim>
				</port>
				<port id="1" precision="FP32">
					<dim>128</dim>
					<dim>128</dim>
				</port>
			</input>
			<output>
				<port id="2" precision="FP32" names="216">
					<dim>464</dim>
					<dim>1</dim>
					<dim>128</dim>
				</port>
			</output>
		</layer>
		<layer id="162" name="Constant_2876_compressed" type="Const" version="opset1">
			<data element_type="f16" shape="1, 1, 128" offset="3242894" size="256"/>
			<output>
				<port id="0" precision="FP16">
					<dim>1</dim>
					<dim>1</dim>
					<dim>128</dim>
				</port>
			</output>
		</layer>
		<layer id="163" name="Constant_2876" type="Convert" version="opset1">
			<data destination_type="f32"/>
			<rt_info>
				<attribute name="decompression" version="0"/>
			</rt_info>
			<input>
				<port id="0" precision="FP16">
					<dim>1</dim>
					<dim>1</dim>
					<dim>128</dim>
				</port>
			</input>
			<output>
				<port id="1" precision="FP32">
					<dim>1</dim>
					<dim>1</dim>
					<dim>128</dim>
				</port>
			</output>
		</layer>
		<layer id="164" name="Add_145" type="Add" version="opset1">
			<data auto_broadcast="numpy"/>
			<rt_info>
				<attribute name="fused_names" version="0" value="Add_145"/>
			</rt_info>
			<input>
				<port id="0" precision="FP32">
					<dim>464</dim>
					<dim>1</dim>
					<dim>128</dim>
				</port>
				<port id="1" precision="FP32">
					<dim>1</dim>
					<dim>1</dim>
					<dim>128</dim>
				</port>
			</input>
			<output>
				<port id="2" precision="FP32" names="217">
					<dim>464</dim>
					<dim>1</dim>
					<dim>128</dim>
				</port>
			</output>
		</layer>
		<layer id="165" name="Reshape_168" type="Reshape" version="opset1">
			<data special_zero="true"/>
			<rt_info>
				<attribute name="fused_names" version="0" value="Reshape_168"/>
			</rt_info>
			<input>
				<port id="0" precision="FP32">
					<dim>464</dim>
					<dim>1</dim>
					<dim>128</dim>
				</port>
				<port id="1" precision="I64">
					<dim>3</dim>
				</port>
			</input>
			<output>
				<port id="2" precision="FP32" names="244">
					<dim>464</dim>
					<dim>8</dim>
					<dim>16</dim>
				</port>
			</output>
		</layer>
		<layer id="166" name="Constant_732" type="Const" version="opset1">
			<data element_type="i64" shape="3" offset="3176974" size="24"/>
			<rt_info>
				<attribute name="fused_names" version="0" value="Constant_732"/>
			</rt_info>
			<output>
				<port id="0" precision="I64">
					<dim>3</dim>
				</port>
			</output>
		</layer>
		<layer id="167" name="Transpose_169" type="Transpose" version="opset1">
			<rt_info>
				<attribute name="fused_names" version="0" value="Transpose_169"/>
			</rt_info>
			<input>
				<port id="0" precision="FP32">
					<dim>464</dim>
					<dim>8</dim>
					<dim>16</dim>
				</port>
				<port id="1" precision="I64">
					<dim>3</dim>
				</port>
			</input>
			<output>
				<port id="2" precision="FP32" names="245">
					<dim>8</dim>
					<dim>464</dim>
					<dim>16</dim>
				</port>
			</output>
		</layer>
		<layer id="168" name="MatMul_193" type="MatMul" version="opset1">
			<data transpose_a="false" transpose_b="false"/>
			<rt_info>
				<attribute name="fused_names" version="0" value="MatMul_193"/>
			</rt_info>
			<input>
				<port id="0" precision="FP32">
					<dim>8</dim>
					<dim>400</dim>
					<dim>464</dim>
				</port>
				<port id="1" precision="FP32">
					<dim>8</dim>
					<dim>464</dim>
					<dim>16</dim>
				</port>
			</input>
			<output>
				<port id="2" precision="FP32" names="271">
					<dim>8</dim>
					<dim>400</dim>
					<dim>16</dim>
				</port>
			</output>
		</layer>
		<layer id="169" name="Constant_756" type="Const" version="opset1">
			<data element_type="i64" shape="3" offset="3176974" size="24"/>
			<rt_info>
				<attribute name="fused_names" version="0" value="Constant_756"/>
			</rt_info>
			<output>
				<port id="0" precision="I64">
					<dim>3</dim>
				</port>
			</output>
		</layer>
		<layer id="170" name="Transpose_194" type="Transpose" version="opset1">
			<rt_info>
				<attribute name="fused_names" version="0" value="Transpose_194"/>
			</rt_info>
			<input>
				<port id="0" precision="FP32">
					<dim>8</dim>
					<dim>400</dim>
					<dim>16</dim>
				</port>
				<port id="1" precision="I64">
					<dim>3</dim>
				</port>
			</input>
			<output>
				<port id="2" precision="FP32" names="272">
					<dim>400</dim>
					<dim>8</dim>
					<dim>16</dim>
				</port>
			</output>
		</layer>
		<layer id="171" name="276" type="Const" version="opset1">
			<data element_type="i64" shape="3" offset="3243150" size="24"/>
			<rt_info>
				<attribute name="fused_names" version="0" value="276"/>
			</rt_info>
			<output>
				<port id="0" precision="I64" names="276">
					<dim>3</dim>
				</port>
			</output>
		</layer>
		<layer id="172" name="Reshape_199" type="Reshape" version="opset1">
			<data special_zero="true"/>
			<rt_info>
				<attribute name="fused_names" version="0" value="Reshape_199"/>
			</rt_info>
			<input>
				<port id="0" precision="FP32">
					<dim>400</dim>
					<dim>8</dim>
					<dim>16</dim>
				</port>
				<port id="1" precision="I64">
					<dim>3</dim>
				</port>
			</input>
			<output>
				<port id="2" precision="FP32" names="277">
					<dim>400</dim>
					<dim>1</dim>
					<dim>128</dim>
				</port>
			</output>
		</layer>
		<layer id="173" name="Constant_2721_compressed" type="Const" version="opset1">
			<data element_type="f16" shape="128, 128" offset="3243174" size="32768"/>
			<output>
				<port id="0" precision="FP16">
					<dim>128</dim>
					<dim>128</dim>
				</port>
			</output>
		</layer>
		<layer id="174" name="Constant_2721" type="Convert" version="opset1">
			<data destination_type="f32"/>
			<rt_info>
				<attribute name="decompression" version="0"/>
				<attribute name="fused_names" version="0" value="410, MatMul_200"/>
			</rt_info>
			<input>
				<port id="0" precision="FP16">
					<dim>128</dim>
					<dim>128</dim>
				</port>
			</input>
			<output>
				<port id="1" precision="FP32">
					<dim>128</dim>
					<dim>128</dim>
				</port>
			</output>
		</layer>
		<layer id="175" name="MatMul_200" type="MatMul" version="opset1">
			<data transpose_a="false" transpose_b="true"/>
			<rt_info>
				<attribute name="fused_names" version="0" value="410, MatMul_200"/>
			</rt_info>
			<input>
				<port id="0" precision="FP32">
					<dim>400</dim>
					<dim>1</dim>
					<dim>128</dim>
				</port>
				<port id="1" precision="FP32">
					<dim>128</dim>
					<dim>128</dim>
				</port>
			</input>
			<output>
				<port id="2" precision="FP32" names="279">
					<dim>400</dim>
					<dim>1</dim>
					<dim>128</dim>
				</port>
			</output>
		</layer>
		<layer id="176" name="Constant_2877_compressed" type="Const" version="opset1">
			<data element_type="f16" shape="1, 1, 128" offset="3275942" size="256"/>
			<output>
				<port id="0" precision="FP16">
					<dim>1</dim>
					<dim>1</dim>
					<dim>128</dim>
				</port>
			</output>
		</layer>
		<layer id="177" name="Constant_2877" type="Convert" version="opset1">
			<data destination_type="f32"/>
			<rt_info>
				<attribute name="decompression" version="0"/>
			</rt_info>
			<input>
				<port id="0" precision="FP16">
					<dim>1</dim>
					<dim>1</dim>
					<dim>128</dim>
				</port>
			</input>
			<output>
				<port id="1" precision="FP32">
					<dim>1</dim>
					<dim>1</dim>
					<dim>128</dim>
				</port>
			</output>
		</layer>
		<layer id="178" name="Add_201" type="Add" version="opset1">
			<data auto_broadcast="numpy"/>
			<rt_info>
				<attribute name="fused_names" version="0" value="Add_201"/>
			</rt_info>
			<input>
				<port id="0" precision="FP32">
					<dim>400</dim>
					<dim>1</dim>
					<dim>128</dim>
				</port>
				<port id="1" precision="FP32">
					<dim>1</dim>
					<dim>1</dim>
					<dim>128</dim>
				</port>
			</input>
			<output>
				<port id="2" precision="FP32" names="280">
					<dim>400</dim>
					<dim>1</dim>
					<dim>128</dim>
				</port>
			</output>
		</layer>
		<layer id="179" name="Add_202" type="Add" version="opset1">
			<data auto_broadcast="numpy"/>
			<rt_info>
				<attribute name="fused_names" version="0" value="Add_202"/>
			</rt_info>
			<input>
				<port id="0" precision="FP32">
					<dim>400</dim>
					<dim>1</dim>
					<dim>128</dim>
				</port>
				<port id="1" precision="FP32">
					<dim>400</dim>
					<dim>1</dim>
					<dim>128</dim>
				</port>
			</input>
			<output>
				<port id="2" precision="FP32" names="281">
					<dim>400</dim>
					<dim>1</dim>
					<dim>128</dim>
				</port>
			</output>
		</layer>
		<layer id="180" name="Constant_767" type="Const" version="opset1">
			<data element_type="i64" shape="1" offset="3276198" size="8"/>
			<rt_info>
				<attribute name="fused_names" version="0" value="Constant_767"/>
			</rt_info>
			<output>
				<port id="0" precision="I64">
					<dim>1</dim>
				</port>
			</output>
		</layer>
		<layer id="181" name="Div_211" type="MVN" version="opset6">
			<data eps="9.9999997473787516e-06" normalize_variance="true" eps_mode="INSIDE_SQRT"/>
			<rt_info>
				<attribute name="fused_names" version="0" value="Add_209, Div_211, Pow_206, ReduceMean_203, ReduceMean_207, Sqrt_210, Sub_204"/>
			</rt_info>
			<input>
				<port id="0" precision="FP32">
					<dim>400</dim>
					<dim>1</dim>
					<dim>128</dim>
				</port>
				<port id="1" precision="I64">
					<dim>1</dim>
				</port>
			</input>
			<output>
				<port id="2" precision="FP32" names="292">
					<dim>400</dim>
					<dim>1</dim>
					<dim>128</dim>
				</port>
			</output>
		</layer>
		<layer id="182" name="Constant_2878_compressed" type="Const" version="opset1">
			<data element_type="f16" shape="1, 1, 128" offset="3276206" size="256"/>
			<output>
				<port id="0" precision="FP16">
					<dim>1</dim>
					<dim>1</dim>
					<dim>128</dim>
				</port>
			</output>
		</layer>
		<layer id="183" name="Constant_2878" type="Convert" version="opset1">
			<data destination_type="f32"/>
			<rt_info>
				<attribute name="decompression" version="0"/>
			</rt_info>
			<input>
				<port id="0" precision="FP16">
					<dim>1</dim>
					<dim>1</dim>
					<dim>128</dim>
				</port>
			</input>
			<output>
				<port id="1" precision="FP32">
					<dim>1</dim>
					<dim>1</dim>
					<dim>128</dim>
				</port>
			</output>
		</layer>
		<layer id="184" name="Mul_212" type="Multiply" version="opset1">
			<data auto_broadcast="numpy"/>
			<rt_info>
				<attribute name="fused_names" version="0" value="Mul_212"/>
			</rt_info>
			<input>
				<port id="0" precision="FP32">
					<dim>400</dim>
					<dim>1</dim>
					<dim>128</dim>
				</port>
				<port id="1" precision="FP32">
					<dim>1</dim>
					<dim>1</dim>
					<dim>128</dim>
				</port>
			</input>
			<output>
				<port id="2" precision="FP32" names="293">
					<dim>400</dim>
					<dim>1</dim>
					<dim>128</dim>
				</port>
			</output>
		</layer>
		<layer id="185" name="Constant_2879_compressed" type="Const" version="opset1">
			<data element_type="f16" shape="1, 1, 128" offset="3276462" size="256"/>
			<output>
				<port id="0" precision="FP16">
					<dim>1</dim>
					<dim>1</dim>
					<dim>128</dim>
				</port>
			</output>
		</layer>
		<layer id="186" name="Constant_2879" type="Convert" version="opset1">
			<data destination_type="f32"/>
			<rt_info>
				<attribute name="decompression" version="0"/>
			</rt_info>
			<input>
				<port id="0" precision="FP16">
					<dim>1</dim>
					<dim>1</dim>
					<dim>128</dim>
				</port>
			</input>
			<output>
				<port id="1" precision="FP32">
					<dim>1</dim>
					<dim>1</dim>
					<dim>128</dim>
				</port>
			</output>
		</layer>
		<layer id="187" name="Add_213" type="Add" version="opset1">
			<data auto_broadcast="numpy"/>
			<rt_info>
				<attribute name="fused_names" version="0" value="Add_213"/>
			</rt_info>
			<input>
				<port id="0" precision="FP32">
					<dim>400</dim>
					<dim>1</dim>
					<dim>128</dim>
				</port>
				<port id="1" precision="FP32">
					<dim>1</dim>
					<dim>1</dim>
					<dim>128</dim>
				</port>
			</input>
			<output>
				<port id="2" precision="FP32" names="294">
					<dim>400</dim>
					<dim>1</dim>
					<dim>128</dim>
				</port>
			</output>
		</layer>
		<layer id="188" name="Constant_2729_compressed" type="Const" version="opset1">
			<data element_type="f16" shape="1024, 128" offset="3276718" size="262144"/>
			<output>
				<port id="0" precision="FP16">
					<dim>1024</dim>
					<dim>128</dim>
				</port>
			</output>
		</layer>
		<layer id="189" name="Constant_2729" type="Convert" version="opset1">
			<data destination_type="f32"/>
			<rt_info>
				<attribute name="decompression" version="0"/>
				<attribute name="fused_names" version="0" value="412, MatMul_214"/>
			</rt_info>
			<input>
				<port id="0" precision="FP16">
					<dim>1024</dim>
					<dim>128</dim>
				</port>
			</input>
			<output>
				<port id="1" precision="FP32">
					<dim>1024</dim>
					<dim>128</dim>
				</port>
			</output>
		</layer>
		<layer id="190" name="MatMul_214" type="MatMul" version="opset1">
			<data transpose_a="false" transpose_b="true"/>
			<rt_info>
				<attribute name="fused_names" version="0" value="412, MatMul_214"/>
			</rt_info>
			<input>
				<port id="0" precision="FP32">
					<dim>400</dim>
					<dim>1</dim>
					<dim>128</dim>
				</port>
				<port id="1" precision="FP32">
					<dim>1024</dim>
					<dim>128</dim>
				</port>
			</input>
			<output>
				<port id="2" precision="FP32" names="296">
					<dim>400</dim>
					<dim>1</dim>
					<dim>1024</dim>
				</port>
			</output>
		</layer>
		<layer id="191" name="Constant_2880_compressed" type="Const" version="opset1">
			<data element_type="f16" shape="1, 1, 1024" offset="3538862" size="2048"/>
			<output>
				<port id="0" precision="FP16">
					<dim>1</dim>
					<dim>1</dim>
					<dim>1024</dim>
				</port>
			</output>
		</layer>
		<layer id="192" name="Constant_2880" type="Convert" version="opset1">
			<data destination_type="f32"/>
			<rt_info>
				<attribute name="decompression" version="0"/>
			</rt_info>
			<input>
				<port id="0" precision="FP16">
					<dim>1</dim>
					<dim>1</dim>
					<dim>1024</dim>
				</port>
			</input>
			<output>
				<port id="1" precision="FP32">
					<dim>1</dim>
					<dim>1</dim>
					<dim>1024</dim>
				</port>
			</output>
		</layer>
		<layer id="193" name="Add_215" type="Add" version="opset1">
			<data auto_broadcast="numpy"/>
			<rt_info>
				<attribute name="fused_names" version="0" value="Add_215"/>
			</rt_info>
			<input>
				<port id="0" precision="FP32">
					<dim>400</dim>
					<dim>1</dim>
					<dim>1024</dim>
				</port>
				<port id="1" precision="FP32">
					<dim>1</dim>
					<dim>1</dim>
					<dim>1024</dim>
				</port>
			</input>
			<output>
				<port id="2" precision="FP32" names="297">
					<dim>400</dim>
					<dim>1</dim>
					<dim>1024</dim>
				</port>
			</output>
		</layer>
		<layer id="194" name="Relu_216" type="ReLU" version="opset1">
			<rt_info>
				<attribute name="fused_names" version="0" value="Relu_216"/>
			</rt_info>
			<input>
				<port id="0" precision="FP32">
					<dim>400</dim>
					<dim>1</dim>
					<dim>1024</dim>
				</port>
			</input>
			<output>
				<port id="1" precision="FP32" names="298">
					<dim>400</dim>
					<dim>1</dim>
					<dim>1024</dim>
				</port>
			</output>
		</layer>
		<layer id="195" name="Constant_2736_compressed" type="Const" version="opset1">
			<data element_type="f16" shape="128, 1024" offset="3540910" size="262144"/>
			<output>
				<port id="0" precision="FP16">
					<dim>128</dim>
					<dim>1024</dim>
				</port>
			</output>
		</layer>
		<layer id="196" name="Constant_2736" type="Convert" version="opset1">
			<data destination_type="f32"/>
			<rt_info>
				<attribute name="decompression" version="0"/>
				<attribute name="fused_names" version="0" value="413, MatMul_217"/>
			</rt_info>
			<input>
				<port id="0" precision="FP16">
					<dim>128</dim>
					<dim>1024</dim>
				</port>
			</input>
			<output>
				<port id="1" precision="FP32">
					<dim>128</dim>
					<dim>1024</dim>
				</port>
			</output>
		</layer>
		<layer id="197" name="MatMul_217" type="MatMul" version="opset1">
			<data transpose_a="false" transpose_b="true"/>
			<rt_info>
				<attribute name="fused_names" version="0" value="413, MatMul_217"/>
			</rt_info>
			<input>
				<port id="0" precision="FP32">
					<dim>400</dim>
					<dim>1</dim>
					<dim>1024</dim>
				</port>
				<port id="1" precision="FP32">
					<dim>128</dim>
					<dim>1024</dim>
				</port>
			</input>
			<output>
				<port id="2" precision="FP32" names="300">
					<dim>400</dim>
					<dim>1</dim>
					<dim>128</dim>
				</port>
			</output>
		</layer>
		<layer id="198" name="Constant_2881_compressed" type="Const" version="opset1">
			<data element_type="f16" shape="1, 1, 128" offset="3803054" size="256"/>
			<output>
				<port id="0" precision="FP16">
					<dim>1</dim>
					<dim>1</dim>
					<dim>128</dim>
				</port>
			</output>
		</layer>
		<layer id="199" name="Constant_2881" type="Convert" version="opset1">
			<data destination_type="f32"/>
			<rt_info>
				<attribute name="decompression" version="0"/>
			</rt_info>
			<input>
				<port id="0" precision="FP16">
					<dim>1</dim>
					<dim>1</dim>
					<dim>128</dim>
				</port>
			</input>
			<output>
				<port id="1" precision="FP32">
					<dim>1</dim>
					<dim>1</dim>
					<dim>128</dim>
				</port>
			</output>
		</layer>
		<layer id="200" name="Add_218" type="Add" version="opset1">
			<data auto_broadcast="numpy"/>
			<rt_info>
				<attribute name="fused_names" version="0" value="Add_218"/>
			</rt_info>
			<input>
				<port id="0" precision="FP32">
					<dim>400</dim>
					<dim>1</dim>
					<dim>128</dim>
				</port>
				<port id="1" precision="FP32">
					<dim>1</dim>
					<dim>1</dim>
					<dim>128</dim>
				</port>
			</input>
			<output>
				<port id="2" precision="FP32" names="301">
					<dim>400</dim>
					<dim>1</dim>
					<dim>128</dim>
				</port>
			</output>
		</layer>
		<layer id="201" name="Add_219" type="Add" version="opset1">
			<data auto_broadcast="numpy"/>
			<rt_info>
				<attribute name="fused_names" version="0" value="Add_219"/>
			</rt_info>
			<input>
				<port id="0" precision="FP32">
					<dim>400</dim>
					<dim>1</dim>
					<dim>128</dim>
				</port>
				<port id="1" precision="FP32">
					<dim>400</dim>
					<dim>1</dim>
					<dim>128</dim>
				</port>
			</input>
			<output>
				<port id="2" precision="FP32" names="302">
					<dim>400</dim>
					<dim>1</dim>
					<dim>128</dim>
				</port>
			</output>
		</layer>
		<layer id="202" name="Constant_784" type="Const" version="opset1">
			<data element_type="i64" shape="1" offset="3276198" size="8"/>
			<rt_info>
				<attribute name="fused_names" version="0" value="Constant_784"/>
			</rt_info>
			<output>
				<port id="0" precision="I64">
					<dim>1</dim>
				</port>
			</output>
		</layer>
		<layer id="203" name="Div_228" type="MVN" version="opset6">
			<data eps="9.9999997473787516e-06" normalize_variance="true" eps_mode="INSIDE_SQRT"/>
			<rt_info>
				<attribute name="fused_names" version="0" value="Add_226, Div_228, Pow_223, ReduceMean_220, ReduceMean_224, Sqrt_227, Sub_221"/>
			</rt_info>
			<input>
				<port id="0" precision="FP32">
					<dim>400</dim>
					<dim>1</dim>
					<dim>128</dim>
				</port>
				<port id="1" precision="I64">
					<dim>1</dim>
				</port>
			</input>
			<output>
				<port id="2" precision="FP32" names="313">
					<dim>400</dim>
					<dim>1</dim>
					<dim>128</dim>
				</port>
			</output>
		</layer>
		<layer id="204" name="Constant_2882_compressed" type="Const" version="opset1">
			<data element_type="f16" shape="1, 1, 128" offset="3803310" size="256"/>
			<output>
				<port id="0" precision="FP16">
					<dim>1</dim>
					<dim>1</dim>
					<dim>128</dim>
				</port>
			</output>
		</layer>
		<layer id="205" name="Constant_2882" type="Convert" version="opset1">
			<data destination_type="f32"/>
			<rt_info>
				<attribute name="decompression" version="0"/>
			</rt_info>
			<input>
				<port id="0" precision="FP16">
					<dim>1</dim>
					<dim>1</dim>
					<dim>128</dim>
				</port>
			</input>
			<output>
				<port id="1" precision="FP32">
					<dim>1</dim>
					<dim>1</dim>
					<dim>128</dim>
				</port>
			</output>
		</layer>
		<layer id="206" name="Mul_229" type="Multiply" version="opset1">
			<data auto_broadcast="numpy"/>
			<rt_info>
				<attribute name="fused_names" version="0" value="Mul_229"/>
			</rt_info>
			<input>
				<port id="0" precision="FP32">
					<dim>400</dim>
					<dim>1</dim>
					<dim>128</dim>
				</port>
				<port id="1" precision="FP32">
					<dim>1</dim>
					<dim>1</dim>
					<dim>128</dim>
				</port>
			</input>
			<output>
				<port id="2" precision="FP32" names="314">
					<dim>400</dim>
					<dim>1</dim>
					<dim>128</dim>
				</port>
			</output>
		</layer>
		<layer id="207" name="Constant_2883_compressed" type="Const" version="opset1">
			<data element_type="f16" shape="1, 1, 128" offset="3803566" size="256"/>
			<output>
				<port id="0" precision="FP16">
					<dim>1</dim>
					<dim>1</dim>
					<dim>128</dim>
				</port>
			</output>
		</layer>
		<layer id="208" name="Constant_2883" type="Convert" version="opset1">
			<data destination_type="f32"/>
			<rt_info>
				<attribute name="decompression" version="0"/>
			</rt_info>
			<input>
				<port id="0" precision="FP16">
					<dim>1</dim>
					<dim>1</dim>
					<dim>128</dim>
				</port>
			</input>
			<output>
				<port id="1" precision="FP32">
					<dim>1</dim>
					<dim>1</dim>
					<dim>128</dim>
				</port>
			</output>
		</layer>
		<layer id="209" name="Add_230" type="Add" version="opset1">
			<data auto_broadcast="numpy"/>
			<rt_info>
				<attribute name="fused_names" version="0" value="Add_230"/>
			</rt_info>
			<input>
				<port id="0" precision="FP32">
					<dim>400</dim>
					<dim>1</dim>
					<dim>128</dim>
				</port>
				<port id="1" precision="FP32">
					<dim>1</dim>
					<dim>1</dim>
					<dim>128</dim>
				</port>
			</input>
			<output>
				<port id="2" precision="FP32" names="315">
					<dim>400</dim>
					<dim>1</dim>
					<dim>128</dim>
				</port>
			</output>
		</layer>
		<layer id="210" name="317" type="Const" version="opset1">
			<data element_type="i64" shape="1" offset="3803822" size="8"/>
			<rt_info>
				<attribute name="fused_names" version="0" value="Slice_235"/>
			</rt_info>
			<output>
				<port id="0" precision="I64" names="317">
					<dim>1</dim>
				</port>
			</output>
		</layer>
		<layer id="211" name="403" type="Const" version="opset1">
			<data element_type="i64" shape="1" offset="3803830" size="8"/>
			<rt_info>
				<attribute name="fused_names" version="0" value="Slice_235"/>
			</rt_info>
			<output>
				<port id="0" precision="I64" names="403">
					<dim>1</dim>
				</port>
			</output>
		</layer>
		<layer id="212" name="170" type="Const" version="opset1">
			<data element_type="i64" shape="1" offset="3143908" size="8"/>
			<rt_info>
				<attribute name="fused_names" version="0" value="Slice_235"/>
			</rt_info>
			<output>
				<port id="0" precision="I64" names="170">
					<dim>1</dim>
				</port>
			</output>
		</layer>
		<layer id="213" name="Slice_235" type="StridedSlice" version="opset1">
			<data begin_mask="0" end_mask="0" new_axis_mask="" shrink_axis_mask="" ellipsis_mask=""/>
			<rt_info>
				<attribute name="fused_names" version="0" value="Slice_235"/>
			</rt_info>
			<input>
				<port id="0" precision="FP32">
					<dim>400</dim>
					<dim>1</dim>
					<dim>128</dim>
				</port>
				<port id="1" precision="I64">
					<dim>1</dim>
				</port>
				<port id="2" precision="I64">
					<dim>1</dim>
				</port>
				<port id="3" precision="I64">
					<dim>1</dim>
				</port>
			</input>
			<output>
				<port id="4" precision="FP32" names="320">
					<dim>400</dim>
					<dim>1</dim>
					<dim>128</dim>
				</port>
			</output>
		</layer>
		<layer id="214" name="Constant_796" type="Const" version="opset1">
			<data element_type="i64" shape="3" offset="3210046" size="24"/>
			<rt_info>
				<attribute name="fused_names" version="0" value="Constant_796"/>
			</rt_info>
			<output>
				<port id="0" precision="I64">
					<dim>3</dim>
				</port>
			</output>
		</layer>
		<layer id="215" name="Transpose_236" type="Transpose" version="opset1">
			<rt_info>
				<attribute name="fused_names" version="0" value="Transpose_236"/>
			</rt_info>
			<input>
				<port id="0" precision="FP32">
					<dim>400</dim>
					<dim>1</dim>
					<dim>128</dim>
				</port>
				<port id="1" precision="I64">
					<dim>3</dim>
				</port>
			</input>
			<output>
				<port id="2" precision="FP32" names="321">
					<dim>1</dim>
					<dim>128</dim>
					<dim>400</dim>
				</port>
			</output>
		</layer>
		<layer id="216" name="334" type="Const" version="opset1">
			<data element_type="i64" shape="4" offset="3803838" size="32"/>
			<rt_info>
				<attribute name="fused_names" version="0" value="334"/>
			</rt_info>
			<output>
				<port id="0" precision="I64" names="334">
					<dim>4</dim>
				</port>
			</output>
		</layer>
		<layer id="217" name="Reshape_246" type="Reshape" version="opset1">
			<data special_zero="true"/>
			<rt_info>
				<attribute name="fused_names" version="0" value="Reshape_246"/>
			</rt_info>
			<input>
				<port id="0" precision="FP32">
					<dim>1</dim>
					<dim>128</dim>
					<dim>400</dim>
				</port>
				<port id="1" precision="I64">
					<dim>4</dim>
				</port>
			</input>
			<output>
				<port id="2" precision="FP32" names="335">
					<dim>1</dim>
					<dim>128</dim>
					<dim>20</dim>
					<dim>20</dim>
				</port>
			</output>
		</layer>
		<layer id="218" name="box_head.conv_tower.0.rbr_reparam.weight_compressed" type="Const" version="opset1">
			<data element_type="f16" shape="128, 128, 3, 3" offset="3803870" size="294912"/>
			<output>
				<port id="0" precision="FP16">
					<dim>128</dim>
					<dim>128</dim>
					<dim>3</dim>
					<dim>3</dim>
				</port>
			</output>
		</layer>
		<layer id="219" name="box_head.conv_tower.0.rbr_reparam.weight" type="Convert" version="opset1">
			<data destination_type="f32"/>
			<rt_info>
				<attribute name="decompression" version="0"/>
				<attribute name="fused_names" version="0" value="box_head.conv_tower.0.rbr_reparam.weight"/>
			</rt_info>
			<input>
				<port id="0" precision="FP16">
					<dim>128</dim>
					<dim>128</dim>
					<dim>3</dim>
					<dim>3</dim>
				</port>
			</input>
			<output>
				<port id="1" precision="FP32" names="box_head.conv_tower.0.rbr_reparam.weight">
					<dim>128</dim>
					<dim>128</dim>
					<dim>3</dim>
					<dim>3</dim>
				</port>
			</output>
		</layer>
		<layer id="220" name="Conv_247/WithoutBiases" type="Convolution" version="opset1">
			<data strides="1, 1" dilations="1, 1" pads_begin="1, 1" pads_end="1, 1" auto_pad="explicit"/>
			<rt_info>
				<attribute name="fused_names" version="0" value="Conv_247/WithoutBiases"/>
			</rt_info>
			<input>
				<port id="0" precision="FP32">
					<dim>1</dim>
					<dim>128</dim>
					<dim>20</dim>
					<dim>20</dim>
				</port>
				<port id="1" precision="FP32">
					<dim>128</dim>
					<dim>128</dim>
					<dim>3</dim>
					<dim>3</dim>
				</port>
			</input>
			<output>
				<port id="2" precision="FP32">
					<dim>1</dim>
					<dim>128</dim>
					<dim>20</dim>
					<dim>20</dim>
				</port>
			</output>
		</layer>
		<layer id="221" name="Reshape_824_compressed" type="Const" version="opset1">
			<data element_type="f16" shape="1, 128, 1, 1" offset="4098782" size="256"/>
			<output>
				<port id="0" precision="FP16">
					<dim>1</dim>
					<dim>128</dim>
					<dim>1</dim>
					<dim>1</dim>
				</port>
			</output>
		</layer>
		<layer id="222" name="Reshape_824" type="Convert" version="opset1">
			<data destination_type="f32"/>
			<rt_info>
				<attribute name="decompression" version="0"/>
			</rt_info>
			<input>
				<port id="0" precision="FP16">
					<dim>1</dim>
					<dim>128</dim>
					<dim>1</dim>
					<dim>1</dim>
				</port>
			</input>
			<output>
				<port id="1" precision="FP32">
					<dim>1</dim>
					<dim>128</dim>
					<dim>1</dim>
					<dim>1</dim>
				</port>
			</output>
		</layer>
		<layer id="223" name="Conv_247" type="Add" version="opset1">
			<data auto_broadcast="numpy"/>
			<rt_info>
				<attribute name="fused_names" version="0" value="Concat_823, Conv_247, Reshape_824"/>
			</rt_info>
			<input>
				<port id="0" precision="FP32">
					<dim>1</dim>
					<dim>128</dim>
					<dim>20</dim>
					<dim>20</dim>
				</port>
				<port id="1" precision="FP32">
					<dim>1</dim>
					<dim>128</dim>
					<dim>1</dim>
					<dim>1</dim>
				</port>
			</input>
			<output>
				<port id="2" precision="FP32" names="336">
					<dim>1</dim>
					<dim>128</dim>
					<dim>20</dim>
					<dim>20</dim>
				</port>
			</output>
		</layer>
		<layer id="224" name="Relu_248" type="ReLU" version="opset1">
			<rt_info>
				<attribute name="fused_names" version="0" value="Relu_248"/>
			</rt_info>
			<input>
				<port id="0" precision="FP32">
					<dim>1</dim>
					<dim>128</dim>
					<dim>20</dim>
					<dim>20</dim>
				</port>
			</input>
			<output>
				<port id="1" precision="FP32" names="337">
					<dim>1</dim>
					<dim>128</dim>
					<dim>20</dim>
					<dim>20</dim>
				</port>
			</output>
		</layer>
		<layer id="225" name="box_head.conv_tower.1.rbr_reparam.weight_compressed" type="Const" version="opset1">
			<data element_type="f16" shape="128, 128, 3, 3" offset="4099038" size="294912"/>
			<output>
				<port id="0" precision="FP16">
					<dim>128</dim>
					<dim>128</dim>
					<dim>3</dim>
					<dim>3</dim>
				</port>
			</output>
		</layer>
		<layer id="226" name="box_head.conv_tower.1.rbr_reparam.weight" type="Convert" version="opset1">
			<data destination_type="f32"/>
			<rt_info>
				<attribute name="decompression" version="0"/>
				<attribute name="fused_names" version="0" value="box_head.conv_tower.1.rbr_reparam.weight"/>
			</rt_info>
			<input>
				<port id="0" precision="FP16">
					<dim>128</dim>
					<dim>128</dim>
					<dim>3</dim>
					<dim>3</dim>
				</port>
			</input>
			<output>
				<port id="1" precision="FP32" names="box_head.conv_tower.1.rbr_reparam.weight">
					<dim>128</dim>
					<dim>128</dim>
					<dim>3</dim>
					<dim>3</dim>
				</port>
			</output>
		</layer>
		<layer id="227" name="Conv_249/WithoutBiases" type="Convolution" version="opset1">
			<data strides="1, 1" dilations="1, 1" pads_begin="1, 1" pads_end="1, 1" auto_pad="explicit"/>
			<rt_info>
				<attribute name="fused_names" version="0" value="Conv_249/WithoutBiases"/>
			</rt_info>
			<input>
				<port id="0" precision="FP32">
					<dim>1</dim>
					<dim>128</dim>
					<dim>20</dim>
					<dim>20</dim>
				</port>
				<port id="1" precision="FP32">
					<dim>128</dim>
					<dim>128</dim>
					<dim>3</dim>
					<dim>3</dim>
				</port>
			</input>
			<output>
				<port id="2" precision="FP32">
					<dim>1</dim>
					<dim>128</dim>
					<dim>20</dim>
					<dim>20</dim>
				</port>
			</output>
		</layer>
		<layer id="228" name="Reshape_873_compressed" type="Const" version="opset1">
			<data element_type="f16" shape="1, 128, 1, 1" offset="4393950" size="256"/>
			<output>
				<port id="0" precision="FP16">
					<dim>1</dim>
					<dim>128</dim>
					<dim>1</dim>
					<dim>1</dim>
				</port>
			</output>
		</layer>
		<layer id="229" name="Reshape_873" type="Convert" version="opset1">
			<data destination_type="f32"/>
			<rt_info>
				<attribute name="decompression" version="0"/>
			</rt_info>
			<input>
				<port id="0" precision="FP16">
					<dim>1</dim>
					<dim>128</dim>
					<dim>1</dim>
					<dim>1</dim>
				</port>
			</input>
			<output>
				<port id="1" precision="FP32">
					<dim>1</dim>
					<dim>128</dim>
					<dim>1</dim>
					<dim>1</dim>
				</port>
			</output>
		</layer>
		<layer id="230" name="Conv_249" type="Add" version="opset1">
			<data auto_broadcast="numpy"/>
			<rt_info>
				<attribute name="fused_names" version="0" value="Concat_872, Conv_249, Reshape_873"/>
			</rt_info>
			<input>
				<port id="0" precision="FP32">
					<dim>1</dim>
					<dim>128</dim>
					<dim>20</dim>
					<dim>20</dim>
				</port>
				<port id="1" precision="FP32">
					<dim>1</dim>
					<dim>128</dim>
					<dim>1</dim>
					<dim>1</dim>
				</port>
			</input>
			<output>
				<port id="2" precision="FP32" names="338">
					<dim>1</dim>
					<dim>128</dim>
					<dim>20</dim>
					<dim>20</dim>
				</port>
			</output>
		</layer>
		<layer id="231" name="Relu_250" type="ReLU" version="opset1">
			<rt_info>
				<attribute name="fused_names" version="0" value="Relu_250"/>
			</rt_info>
			<input>
				<port id="0" precision="FP32">
					<dim>1</dim>
					<dim>128</dim>
					<dim>20</dim>
					<dim>20</dim>
				</port>
			</input>
			<output>
				<port id="1" precision="FP32" names="339">
					<dim>1</dim>
					<dim>128</dim>
					<dim>20</dim>
					<dim>20</dim>
				</port>
			</output>
		</layer>
		<layer id="232" name="box_head.conv_tower.2.weight_compressed" type="Const" version="opset1">
			<data element_type="f16" shape="2, 128, 3, 3" offset="4394206" size="4608"/>
			<output>
				<port id="0" precision="FP16">
					<dim>2</dim>
					<dim>128</dim>
					<dim>3</dim>
					<dim>3</dim>
				</port>
			</output>
		</layer>
		<layer id="233" name="box_head.conv_tower.2.weight" type="Convert" version="opset1">
			<data destination_type="f32"/>
			<rt_info>
				<attribute name="decompression" version="0"/>
				<attribute name="fused_names" version="0" value="box_head.conv_tower.2.weight"/>
			</rt_info>
			<input>
				<port id="0" precision="FP16">
					<dim>2</dim>
					<dim>128</dim>
					<dim>3</dim>
					<dim>3</dim>
				</port>
			</input>
			<output>
				<port id="1" precision="FP32" names="box_head.conv_tower.2.weight">
					<dim>2</dim>
					<dim>128</dim>
					<dim>3</dim>
					<dim>3</dim>
				</port>
			</output>
		</layer>
		<layer id="234" name="Conv_251/WithoutBiases" type="Convolution" version="opset1">
			<data strides="1, 1" dilations="1, 1" pads_begin="1, 1" pads_end="1, 1" auto_pad="explicit"/>
			<rt_info>
				<attribute name="fused_names" version="0" value="Conv_251/WithoutBiases"/>
			</rt_info>
			<input>
				<port id="0" precision="FP32">
					<dim>1</dim>
					<dim>128</dim>
					<dim>20</dim>
					<dim>20</dim>
				</port>
				<port id="1" precision="FP32">
					<dim>2</dim>
					<dim>128</dim>
					<dim>3</dim>
					<dim>3</dim>
				</port>
			</input>
			<output>
				<port id="2" precision="FP32">
					<dim>1</dim>
					<dim>2</dim>
					<dim>20</dim>
					<dim>20</dim>
				</port>
			</output>
		</layer>
		<layer id="235" name="Reshape_922_compressed" type="Const" version="opset1">
			<data element_type="f16" shape="1, 2, 1, 1" offset="4398814" size="4"/>
			<output>
				<port id="0" precision="FP16">
					<dim>1</dim>
					<dim>2</dim>
					<dim>1</dim>
					<dim>1</dim>
				</port>
			</output>
		</layer>
		<layer id="236" name="Reshape_922" type="Convert" version="opset1">
			<data destination_type="f32"/>
			<rt_info>
				<attribute name="decompression" version="0"/>
			</rt_info>
			<input>
				<port id="0" precision="FP16">
					<dim>1</dim>
					<dim>2</dim>
					<dim>1</dim>
					<dim>1</dim>
				</port>
			</input>
			<output>
				<port id="1" precision="FP32">
					<dim>1</dim>
					<dim>2</dim>
					<dim>1</dim>
					<dim>1</dim>
				</port>
			</output>
		</layer>
		<layer id="237" name="Conv_251" type="Add" version="opset1">
			<data auto_broadcast="numpy"/>
			<rt_info>
				<attribute name="fused_names" version="0" value="Concat_921, Conv_251, Reshape_922"/>
			</rt_info>
			<input>
				<port id="0" precision="FP32">
					<dim>1</dim>
					<dim>2</dim>
					<dim>20</dim>
					<dim>20</dim>
				</port>
				<port id="1" precision="FP32">
					<dim>1</dim>
					<dim>2</dim>
					<dim>1</dim>
					<dim>1</dim>
				</port>
			</input>
			<output>
				<port id="2" precision="FP32" names="340">
					<dim>1</dim>
					<dim>2</dim>
					<dim>20</dim>
					<dim>20</dim>
				</port>
			</output>
		</layer>
		<layer id="238" name="Constant_950" type="Const" version="opset1">
			<data element_type="i64" shape="" offset="3143908" size="8"/>
			<rt_info>
				<attribute name="fused_names" version="0" value="Constant_950"/>
			</rt_info>
			<output>
				<port id="0" precision="I64"/>
			</output>
		</layer>
		<layer id="239" name="Gather_253" type="Gather" version="opset8">
			<data batch_dims="0"/>
			<rt_info>
				<attribute name="fused_names" version="0" value="Gather_253"/>
			</rt_info>
			<input>
				<port id="0" precision="FP32">
					<dim>1</dim>
					<dim>2</dim>
					<dim>20</dim>
					<dim>20</dim>
				</port>
				<port id="1" precision="I64"/>
				<port id="2" precision="I64"/>
			</input>
			<output>
				<port id="3" precision="FP32" names="342">
					<dim>1</dim>
					<dim>20</dim>
					<dim>20</dim>
				</port>
			</output>
		</layer>
		<layer id="240" name="345" type="Const" version="opset1">
			<data element_type="i64" shape="2" offset="4398818" size="16"/>
			<rt_info>
				<attribute name="fused_names" version="0" value="345"/>
			</rt_info>
			<output>
				<port id="0" precision="I64" names="345">
					<dim>2</dim>
				</port>
			</output>
		</layer>
		<layer id="241" name="Reshape_257" type="Reshape" version="opset1">
			<data special_zero="true"/>
			<rt_info>
				<attribute name="fused_names" version="0" value="Reshape_257"/>
			</rt_info>
			<input>
				<port id="0" precision="FP32">
					<dim>1</dim>
					<dim>20</dim>
					<dim>20</dim>
				</port>
				<port id="1" precision="I64">
					<dim>2</dim>
				</port>
			</input>
			<output>
				<port id="2" precision="FP32" names="346">
					<dim>1</dim>
					<dim>400</dim>
				</port>
			</output>
		</layer>
		<layer id="242" name="Softmax_258" type="SoftMax" version="opset8">
			<data axis="1"/>
			<rt_info>
				<attribute name="fused_names" version="0" value="Softmax_258"/>
			</rt_info>
			<input>
				<port id="0" precision="FP32">
					<dim>1</dim>
					<dim>400</dim>
				</port>
			</input>
			<output>
				<port id="1" precision="FP32" names="347">
					<dim>1</dim>
					<dim>400</dim>
				</port>
			</output>
		</layer>
		<layer id="243" name="Mul_260" type="Multiply" version="opset1">
			<data auto_broadcast="numpy"/>
			<rt_info>
				<attribute name="fused_names" version="0" value="Mul_260"/>
			</rt_info>
			<input>
				<port id="0" precision="FP32">
					<dim>1</dim>
					<dim>400</dim>
				</port>
				<port id="1" precision="FP32">
					<dim>1</dim>
					<dim>400</dim>
				</port>
			</input>
			<output>
				<port id="2" precision="FP32" names="349">
					<dim>1</dim>
					<dim>400</dim>
				</port>
			</output>
		</layer>
		<layer id="244" name="Constant_962" type="Const" version="opset1">
			<data element_type="i64" shape="1" offset="3143908" size="8"/>
			<rt_info>
				<attribute name="fused_names" version="0" value="Constant_962"/>
			</rt_info>
			<output>
				<port id="0" precision="I64">
					<dim>1</dim>
				</port>
			</output>
		</layer>
		<layer id="245" name="ReduceSum_261" type="ReduceSum" version="opset1">
			<data keep_dims="true"/>
			<rt_info>
				<attribute name="fused_names" version="0" value="ReduceSum_261"/>
			</rt_info>
			<input>
				<port id="0" precision="FP32">
					<dim>1</dim>
					<dim>400</dim>
				</port>
				<port id="1" precision="I64">
					<dim>1</dim>
				</port>
			</input>
			<output>
				<port id="2" precision="FP32" names="350">
					<dim>1</dim>
					<dim>1</dim>
				</port>
			</output>
		</layer>
		<layer id="246" name="Constant_2885_compressed" type="Const" version="opset1">
			<data element_type="f16" shape="1, 400" offset="4398834" size="800"/>
			<output>
				<port id="0" precision="FP16">
					<dim>1</dim>
					<dim>400</dim>
				</port>
			</output>
		</layer>
		<layer id="247" name="Constant_2885" type="Convert" version="opset1">
			<data destination_type="f32"/>
			<rt_info>
				<attribute name="decompression" version="0"/>
			</rt_info>
			<input>
				<port id="0" precision="FP16">
					<dim>1</dim>
					<dim>400</dim>
				</port>
			</input>
			<output>
				<port id="1" precision="FP32">
					<dim>1</dim>
					<dim>400</dim>
				</port>
			</output>
		</layer>
		<layer id="248" name="Mul_263" type="Multiply" version="opset1">
			<data auto_broadcast="numpy"/>
			<rt_info>
				<attribute name="fused_names" version="0" value="Mul_263"/>
			</rt_info>
			<input>
				<port id="0" precision="FP32">
					<dim>1</dim>
					<dim>400</dim>
				</port>
				<port id="1" precision="FP32">
					<dim>1</dim>
					<dim>400</dim>
				</port>
			</input>
			<output>
				<port id="2" precision="FP32" names="352">
					<dim>1</dim>
					<dim>400</dim>
				</port>
			</output>
		</layer>
		<layer id="249" name="Constant_965" type="Const" version="opset1">
			<data element_type="i64" shape="1" offset="3143908" size="8"/>
			<rt_info>
				<attribute name="fused_names" version="0" value="Constant_965"/>
			</rt_info>
			<output>
				<port id="0" precision="I64">
					<dim>1</dim>
				</port>
			</output>
		</layer>
		<layer id="250" name="ReduceSum_264" type="ReduceSum" version="opset1">
			<data keep_dims="true"/>
			<rt_info>
				<attribute name="fused_names" version="0" value="ReduceSum_264"/>
			</rt_info>
			<input>
				<port id="0" precision="FP32">
					<dim>1</dim>
					<dim>400</dim>
				</port>
				<port id="1" precision="I64">
					<dim>1</dim>
				</port>
			</input>
			<output>
				<port id="2" precision="FP32" names="353">
					<dim>1</dim>
					<dim>1</dim>
				</port>
			</output>
		</layer>
		<layer id="251" name="Constant_2886_compressed" type="Const" version="opset1">
			<data element_type="f16" shape="1, 400" offset="0" size="800"/>
			<output>
				<port id="0" precision="FP16">
					<dim>1</dim>
					<dim>400</dim>
				</port>
			</output>
		</layer>
		<layer id="252" name="Constant_2886" type="Convert" version="opset1">
			<data destination_type="f32"/>
			<rt_info>
				<attribute name="decompression" version="0"/>
			</rt_info>
			<input>
				<port id="0" precision="FP16">
					<dim>1</dim>
					<dim>400</dim>
				</port>
			</input>
			<output>
				<port id="1" precision="FP32">
					<dim>1</dim>
					<dim>400</dim>
				</port>
			</output>
		</layer>
		<layer id="253" name="156" type="Const" version="opset1">
			<data element_type="i64" shape="" offset="3143908" size="8"/>
			<rt_info>
				<attribute name="fused_names" version="0" value="156"/>
			</rt_info>
			<output>
				<port id="0" precision="I64" names="156"/>
			</output>
		</layer>
		<layer id="254" name="Constant_952" type="Const" version="opset1">
			<data element_type="i64" shape="" offset="3143908" size="8"/>
			<rt_info>
				<attribute name="fused_names" version="0" value="Constant_952"/>
			</rt_info>
			<output>
				<port id="0" precision="I64"/>
			</output>
		</layer>
		<layer id="255" name="Gather_255" type="Gather" version="opset8">
			<data batch_dims="0"/>
			<rt_info>
				<attribute name="fused_names" version="0" value="Gather_255"/>
			</rt_info>
			<input>
				<port id="0" precision="FP32">
					<dim>1</dim>
					<dim>2</dim>
					<dim>20</dim>
					<dim>20</dim>
				</port>
				<port id="1" precision="I64"/>
				<port id="2" precision="I64"/>
			</input>
			<output>
				<port id="3" precision="FP32" names="344">
					<dim>1</dim>
					<dim>20</dim>
					<dim>20</dim>
				</port>
			</output>
		</layer>
		<layer id="256" name="Reshape_266" type="Reshape" version="opset1">
			<data special_zero="true"/>
			<rt_info>
				<attribute name="fused_names" version="0" value="Reshape_266"/>
			</rt_info>
			<input>
				<port id="0" precision="FP32">
					<dim>1</dim>
					<dim>20</dim>
					<dim>20</dim>
				</port>
				<port id="1" precision="I64">
					<dim>2</dim>
				</port>
			</input>
			<output>
				<port id="2" precision="FP32" names="355">
					<dim>1</dim>
					<dim>400</dim>
				</port>
			</output>
		</layer>
		<layer id="257" name="Softmax_267" type="SoftMax" version="opset8">
			<data axis="1"/>
			<rt_info>
				<attribute name="fused_names" version="0" value="Softmax_267"/>
			</rt_info>
			<input>
				<port id="0" precision="FP32">
					<dim>1</dim>
					<dim>400</dim>
				</port>
			</input>
			<output>
				<port id="1" precision="FP32" names="356">
					<dim>1</dim>
					<dim>400</dim>
				</port>
			</output>
		</layer>
		<layer id="258" name="Mul_269" type="Multiply" version="opset1">
			<data auto_broadcast="numpy"/>
			<rt_info>
				<attribute name="fused_names" version="0" value="Mul_269"/>
			</rt_info>
			<input>
				<port id="0" precision="FP32">
					<dim>1</dim>
					<dim>400</dim>
				</port>
				<port id="1" precision="FP32">
					<dim>1</dim>
					<dim>400</dim>
				</port>
			</input>
			<output>
				<port id="2" precision="FP32" names="358">
					<dim>1</dim>
					<dim>400</dim>
				</port>
			</output>
		</layer>
		<layer id="259" name="Constant_972" type="Const" version="opset1">
			<data element_type="i64" shape="1" offset="3143908" size="8"/>
			<rt_info>
				<attribute name="fused_names" version="0" value="Constant_972"/>
			</rt_info>
			<output>
				<port id="0" precision="I64">
					<dim>1</dim>
				</port>
			</output>
		</layer>
		<layer id="260" name="ReduceSum_270" type="ReduceSum" version="opset1">
			<data keep_dims="true"/>
			<rt_info>
				<attribute name="fused_names" version="0" value="ReduceSum_270"/>
			</rt_info>
			<input>
				<port id="0" precision="FP32">
					<dim>1</dim>
					<dim>400</dim>
				</port>
				<port id="1" precision="I64">
					<dim>1</dim>
				</port>
			</input>
			<output>
				<port id="2" precision="FP32" names="359">
					<dim>1</dim>
					<dim>1</dim>
				</port>
			</output>
		</layer>
		<layer id="261" name="Constant_2887_compressed" type="Const" version="opset1">
			<data element_type="f16" shape="1, 400" offset="4398834" size="800"/>
			<output>
				<port id="0" precision="FP16">
					<dim>1</dim>
					<dim>400</dim>
				</port>
			</output>
		</layer>
		<layer id="262" name="Constant_2887" type="Convert" version="opset1">
			<data destination_type="f32"/>
			<rt_info>
				<attribute name="decompression" version="0"/>
			</rt_info>
			<input>
				<port id="0" precision="FP16">
					<dim>1</dim>
					<dim>400</dim>
				</port>
			</input>
			<output>
				<port id="1" precision="FP32">
					<dim>1</dim>
					<dim>400</dim>
				</port>
			</output>
		</layer>
		<layer id="263" name="Mul_272" type="Multiply" version="opset1">
			<data auto_broadcast="numpy"/>
			<rt_info>
				<attribute name="fused_names" version="0" value="Mul_272"/>
			</rt_info>
			<input>
				<port id="0" precision="FP32">
					<dim>1</dim>
					<dim>400</dim>
				</port>
				<port id="1" precision="FP32">
					<dim>1</dim>
					<dim>400</dim>
				</port>
			</input>
			<output>
				<port id="2" precision="FP32" names="361">
					<dim>1</dim>
					<dim>400</dim>
				</port>
			</output>
		</layer>
		<layer id="264" name="Constant_975" type="Const" version="opset1">
			<data element_type="i64" shape="1" offset="3143908" size="8"/>
			<rt_info>
				<attribute name="fused_names" version="0" value="Constant_975"/>
			</rt_info>
			<output>
				<port id="0" precision="I64">
					<dim>1</dim>
				</port>
			</output>
		</layer>
		<layer id="265" name="ReduceSum_273" type="ReduceSum" version="opset1">
			<data keep_dims="true"/>
			<rt_info>
				<attribute name="fused_names" version="0" value="ReduceSum_273"/>
			</rt_info>
			<input>
				<port id="0" precision="FP32">
					<dim>1</dim>
					<dim>400</dim>
				</port>
				<port id="1" precision="I64">
					<dim>1</dim>
				</port>
			</input>
			<output>
				<port id="2" precision="FP32" names="362">
					<dim>1</dim>
					<dim>1</dim>
				</port>
			</output>
		</layer>
		<layer id="266" name="Concat_278" type="Concat" version="opset1">
			<data axis="1"/>
			<rt_info>
				<attribute name="fused_names" version="0" value="Concat_278"/>
			</rt_info>
			<input>
				<port id="0" precision="FP32">
					<dim>1</dim>
					<dim>1</dim>
				</port>
				<port id="1" precision="FP32">
					<dim>1</dim>
					<dim>1</dim>
				</port>
				<port id="2" precision="FP32">
					<dim>1</dim>
					<dim>1</dim>
				</port>
				<port id="3" precision="FP32">
					<dim>1</dim>
					<dim>1</dim>
				</port>
			</input>
			<output>
				<port id="4" precision="FP32" names="367">
					<dim>1</dim>
					<dim>4</dim>
				</port>
			</output>
		</layer>
		<layer id="267" name="Constant_2888_compressed" type="Const" version="opset1">
			<data element_type="f16" shape="1, 1" offset="4399634" size="2"/>
			<output>
				<port id="0" precision="FP16">
					<dim>1</dim>
					<dim>1</dim>
				</port>
			</output>
		</layer>
		<layer id="268" name="Constant_2888" type="Convert" version="opset1">
			<data destination_type="f32"/>
			<rt_info>
				<attribute name="decompression" version="0"/>
			</rt_info>
			<input>
				<port id="0" precision="FP16">
					<dim>1</dim>
					<dim>1</dim>
				</port>
			</input>
			<output>
				<port id="1" precision="FP32">
					<dim>1</dim>
					<dim>1</dim>
				</port>
			</output>
		</layer>
		<layer id="269" name="Div_279" type="Multiply" version="opset1">
			<data auto_broadcast="numpy"/>
			<rt_info>
				<attribute name="fused_names" version="0" value="417, Div_279"/>
			</rt_info>
			<input>
				<port id="0" precision="FP32">
					<dim>1</dim>
					<dim>4</dim>
				</port>
				<port id="1" precision="FP32">
					<dim>1</dim>
					<dim>1</dim>
				</port>
			</input>
			<output>
				<port id="2" precision="FP32" names="370">
					<dim>1</dim>
					<dim>4</dim>
				</port>
			</output>
		</layer>
		<layer id="270" name="Constant_979" type="Const" version="opset1">
			<data element_type="i64" shape="" offset="3276198" size="8"/>
			<rt_info>
				<attribute name="fused_names" version="0" value="Constant_979"/>
			</rt_info>
			<output>
				<port id="0" precision="I64"/>
			</output>
		</layer>
		<layer id="271" name="Constant_980" type="Const" version="opset1">
			<data element_type="i64" shape="4" offset="4399636" size="32"/>
			<rt_info>
				<attribute name="fused_names" version="0" value="Constant_980"/>
			</rt_info>
			<output>
				<port id="0" precision="I64">
					<dim>4</dim>
				</port>
			</output>
		</layer>
		<layer id="272" name="Split_280" type="VariadicSplit" version="opset1">
			<rt_info>
				<attribute name="fused_names" version="0" value="Split_280"/>
			</rt_info>
			<input>
				<port id="0" precision="FP32">
					<dim>1</dim>
					<dim>4</dim>
				</port>
				<port id="1" precision="I64"/>
				<port id="2" precision="I64">
					<dim>4</dim>
				</port>
			</input>
			<output>
				<port id="3" precision="FP32" names="371">
					<dim>1</dim>
					<dim>1</dim>
				</port>
				<port id="4" precision="FP32" names="372">
					<dim>1</dim>
					<dim>1</dim>
				</port>
				<port id="5" precision="FP32" names="373">
					<dim>1</dim>
					<dim>1</dim>
				</port>
				<port id="6" precision="FP32" names="374">
					<dim>1</dim>
					<dim>1</dim>
				</port>
			</output>
		</layer>
		<layer id="273" name="Constant_982" type="Const" version="opset1">
			<data element_type="u64" shape="1" offset="3143908" size="8"/>
			<rt_info>
				<attribute name="fused_names" version="0" value="Constant_982"/>
			</rt_info>
			<output>
				<port id="0" precision="U64">
					<dim>1</dim>
				</port>
			</output>
		</layer>
		<layer id="274" name="Squeeze_281" type="Squeeze" version="opset1">
			<rt_info>
				<attribute name="fused_names" version="0" value="Squeeze_281"/>
			</rt_info>
			<input>
				<port id="0" precision="FP32">
					<dim>1</dim>
					<dim>1</dim>
				</port>
				<port id="1" precision="U64">
					<dim>1</dim>
				</port>
			</input>
			<output>
				<port id="2" precision="FP32" names="375">
					<dim>1</dim>
				</port>
			</output>
		</layer>
		<layer id="275" name="Constant_986" type="Const" version="opset1">
			<data element_type="u64" shape="1" offset="3143908" size="8"/>
			<rt_info>
				<attribute name="fused_names" version="0" value="Constant_986"/>
			</rt_info>
			<output>
				<port id="0" precision="U64">
					<dim>1</dim>
				</port>
			</output>
		</layer>
		<layer id="276" name="Squeeze_283" type="Squeeze" version="opset1">
			<rt_info>
				<attribute name="fused_names" version="0" value="Squeeze_283"/>
			</rt_info>
			<input>
				<port id="0" precision="FP32">
					<dim>1</dim>
					<dim>1</dim>
				</port>
				<port id="1" precision="U64">
					<dim>1</dim>
				</port>
			</input>
			<output>
				<port id="2" precision="FP32" names="377">
					<dim>1</dim>
				</port>
			</output>
		</layer>
		<layer id="277" name="Add_285" type="Add" version="opset1">
			<data auto_broadcast="numpy"/>
			<rt_info>
				<attribute name="fused_names" version="0" value="Add_285"/>
			</rt_info>
			<input>
				<port id="0" precision="FP32">
					<dim>1</dim>
				</port>
				<port id="1" precision="FP32">
					<dim>1</dim>
				</port>
			</input>
			<output>
				<port id="2" precision="FP32" names="379">
					<dim>1</dim>
				</port>
			</output>
		</layer>
		<layer id="278" name="Constant_2889_compressed" type="Const" version="opset1">
			<data element_type="f16" shape="1" offset="4399668" size="2"/>
			<output>
				<port id="0" precision="FP16">
					<dim>1</dim>
				</port>
			</output>
		</layer>
		<layer id="279" name="Constant_2889" type="Convert" version="opset1">
			<data destination_type="f32"/>
			<rt_info>
				<attribute name="decompression" version="0"/>
			</rt_info>
			<input>
				<port id="0" precision="FP16">
					<dim>1</dim>
				</port>
			</input>
			<output>
				<port id="1" precision="FP32">
					<dim>1</dim>
				</port>
			</output>
		</layer>
		<layer id="280" name="Div_286" type="Multiply" version="opset1">
			<data auto_broadcast="numpy"/>
			<rt_info>
				<attribute name="fused_names" version="0" value="411, Div_286"/>
			</rt_info>
			<input>
				<port id="0" precision="FP32">
					<dim>1</dim>
				</port>
				<port id="1" precision="FP32">
					<dim>1</dim>
				</port>
			</input>
			<output>
				<port id="2" precision="FP32" names="382">
					<dim>1</dim>
				</port>
			</output>
		</layer>
		<layer id="281" name="Constant_996" type="Const" version="opset1">
			<data element_type="i64" shape="1" offset="3276198" size="8"/>
			<rt_info>
				<attribute name="fused_names" version="0" value="Constant_996"/>
			</rt_info>
			<output>
				<port id="0" precision="I64">
					<dim>1</dim>
				</port>
			</output>
		</layer>
		<layer id="282" name="Unsqueeze_291" type="Unsqueeze" version="opset1">
			<rt_info>
				<attribute name="fused_names" version="0" value="Unsqueeze_291"/>
			</rt_info>
			<input>
				<port id="0" precision="FP32">
					<dim>1</dim>
				</port>
				<port id="1" precision="I64">
					<dim>1</dim>
				</port>
			</input>
			<output>
				<port id="2" precision="FP32" names="389">
					<dim>1</dim>
					<dim>1</dim>
				</port>
			</output>
		</layer>
		<layer id="283" name="Constant_984" type="Const" version="opset1">
			<data element_type="u64" shape="1" offset="3143908" size="8"/>
			<rt_info>
				<attribute name="fused_names" version="0" value="Constant_984"/>
			</rt_info>
			<output>
				<port id="0" precision="U64">
					<dim>1</dim>
				</port>
			</output>
		</layer>
		<layer id="284" name="Squeeze_282" type="Squeeze" version="opset1">
			<rt_info>
				<attribute name="fused_names" version="0" value="Squeeze_282"/>
			</rt_info>
			<input>
				<port id="0" precision="FP32">
					<dim>1</dim>
					<dim>1</dim>
				</port>
				<port id="1" precision="U64">
					<dim>1</dim>
				</port>
			</input>
			<output>
				<port id="2" precision="FP32" names="376">
					<dim>1</dim>
				</port>
			</output>
		</layer>
		<layer id="285" name="Constant_988" type="Const" version="opset1">
			<data element_type="u64" shape="1" offset="3143908" size="8"/>
			<rt_info>
				<attribute name="fused_names" version="0" value="Constant_988"/>
			</rt_info>
			<output>
				<port id="0" precision="U64">
					<dim>1</dim>
				</port>
			</output>
		</layer>
		<layer id="286" name="Squeeze_284" type="Squeeze" version="opset1">
			<rt_info>
				<attribute name="fused_names" version="0" value="Squeeze_284"/>
			</rt_info>
			<input>
				<port id="0" precision="FP32">
					<dim>1</dim>
					<dim>1</dim>
				</port>
				<port id="1" precision="U64">
					<dim>1</dim>
				</port>
			</input>
			<output>
				<port id="2" precision="FP32" names="378">
					<dim>1</dim>
				</port>
			</output>
		</layer>
		<layer id="287" name="Add_287" type="Add" version="opset1">
			<data auto_broadcast="numpy"/>
			<rt_info>
				<attribute name="fused_names" version="0" value="Add_287"/>
			</rt_info>
			<input>
				<port id="0" precision="FP32">
					<dim>1</dim>
				</port>
				<port id="1" precision="FP32">
					<dim>1</dim>
				</port>
			</input>
			<output>
				<port id="2" precision="FP32" names="383">
					<dim>1</dim>
				</port>
			</output>
		</layer>
		<layer id="288" name="Constant_2890_compressed" type="Const" version="opset1">
			<data element_type="f16" shape="1" offset="4399668" size="2"/>
			<output>
				<port id="0" precision="FP16">
					<dim>1</dim>
				</port>
			</output>
		</layer>
		<layer id="289" name="Constant_2890" type="Convert" version="opset1">
			<data destination_type="f32"/>
			<rt_info>
				<attribute name="decompression" version="0"/>
			</rt_info>
			<input>
				<port id="0" precision="FP16">
					<dim>1</dim>
				</port>
			</input>
			<output>
				<port id="1" precision="FP32">
					<dim>1</dim>
				</port>
			</output>
		</layer>
		<layer id="290" name="Div_288" type="Multiply" version="opset1">
			<data auto_broadcast="numpy"/>
			<rt_info>
				<attribute name="fused_names" version="0" value="411, Div_288"/>
			</rt_info>
			<input>
				<port id="0" precision="FP32">
					<dim>1</dim>
				</port>
				<port id="1" precision="FP32">
					<dim>1</dim>
				</port>
			</input>
			<output>
				<port id="2" precision="FP32" names="386">
					<dim>1</dim>
				</port>
			</output>
		</layer>
		<layer id="291" name="Constant_998" type="Const" version="opset1">
			<data element_type="i64" shape="1" offset="3276198" size="8"/>
			<rt_info>
				<attribute name="fused_names" version="0" value="Constant_998"/>
			</rt_info>
			<output>
				<port id="0" precision="I64">
					<dim>1</dim>
				</port>
			</output>
		</layer>
		<layer id="292" name="Unsqueeze_292" type="Unsqueeze" version="opset1">
			<rt_info>
				<attribute name="fused_names" version="0" value="Unsqueeze_292"/>
			</rt_info>
			<input>
				<port id="0" precision="FP32">
					<dim>1</dim>
				</port>
				<port id="1" precision="I64">
					<dim>1</dim>
				</port>
			</input>
			<output>
				<port id="2" precision="FP32" names="390">
					<dim>1</dim>
					<dim>1</dim>
				</port>
			</output>
		</layer>
		<layer id="293" name="Sub_289" type="Subtract" version="opset1">
			<data auto_broadcast="numpy"/>
			<rt_info>
				<attribute name="fused_names" version="0" value="Sub_289"/>
			</rt_info>
			<input>
				<port id="0" precision="FP32">
					<dim>1</dim>
				</port>
				<port id="1" precision="FP32">
					<dim>1</dim>
				</port>
			</input>
			<output>
				<port id="2" precision="FP32" names="387">
					<dim>1</dim>
				</port>
			</output>
		</layer>
		<layer id="294" name="Constant_1000" type="Const" version="opset1">
			<data element_type="i64" shape="1" offset="3276198" size="8"/>
			<rt_info>
				<attribute name="fused_names" version="0" value="Constant_1000"/>
			</rt_info>
			<output>
				<port id="0" precision="I64">
					<dim>1</dim>
				</port>
			</output>
		</layer>
		<layer id="295" name="Unsqueeze_293" type="Unsqueeze" version="opset1">
			<rt_info>
				<attribute name="fused_names" version="0" value="Unsqueeze_293"/>
			</rt_info>
			<input>
				<port id="0" precision="FP32">
					<dim>1</dim>
				</port>
				<port id="1" precision="I64">
					<dim>1</dim>
				</port>
			</input>
			<output>
				<port id="2" precision="FP32" names="391">
					<dim>1</dim>
					<dim>1</dim>
				</port>
			</output>
		</layer>
		<layer id="296" name="Sub_290" type="Subtract" version="opset1">
			<data auto_broadcast="numpy"/>
			<rt_info>
				<attribute name="fused_names" version="0" value="Sub_290"/>
			</rt_info>
			<input>
				<port id="0" precision="FP32">
					<dim>1</dim>
				</port>
				<port id="1" precision="FP32">
					<dim>1</dim>
				</port>
			</input>
			<output>
				<port id="2" precision="FP32" names="388">
					<dim>1</dim>
				</port>
			</output>
		</layer>
		<layer id="297" name="Constant_1002" type="Const" version="opset1">
			<data element_type="i64" shape="1" offset="3276198" size="8"/>
			<rt_info>
				<attribute name="fused_names" version="0" value="Constant_1002"/>
			</rt_info>
			<output>
				<port id="0" precision="I64">
					<dim>1</dim>
				</port>
			</output>
		</layer>
		<layer id="298" name="Unsqueeze_294" type="Unsqueeze" version="opset1">
			<rt_info>
				<attribute name="fused_names" version="0" value="Unsqueeze_294"/>
			</rt_info>
			<input>
				<port id="0" precision="FP32">
					<dim>1</dim>
				</port>
				<port id="1" precision="I64">
					<dim>1</dim>
				</port>
			</input>
			<output>
				<port id="2" precision="FP32" names="392">
					<dim>1</dim>
					<dim>1</dim>
				</port>
			</output>
		</layer>
		<layer id="299" name="outputs_coord" type="Concat" version="opset1">
			<data axis="-1"/>
			<rt_info>
				<attribute name="fused_names" version="0" value="outputs_coord"/>
			</rt_info>
			<input>
				<port id="0" precision="FP32">
					<dim>1</dim>
					<dim>1</dim>
				</port>
				<port id="1" precision="FP32">
					<dim>1</dim>
					<dim>1</dim>
				</port>
				<port id="2" precision="FP32">
					<dim>1</dim>
					<dim>1</dim>
				</port>
				<port id="3" precision="FP32">
					<dim>1</dim>
					<dim>1</dim>
				</port>
			</input>
			<output>
				<port id="4" precision="FP32" names="outputs_coord">
					<dim>1</dim>
					<dim>4</dim>
				</port>
			</output>
		</layer>
		<layer id="300" name="outputs_coord/sink_port_0" type="Result" version="opset1">
			<rt_info>
				<attribute name="fused_names" version="0" value="outputs_coord/sink_port_0"/>
			</rt_info>
			<input>
				<port id="0" precision="FP32">
					<dim>1</dim>
					<dim>4</dim>
				</port>
			</input>
		</layer>
	</layers>
	<edges>
		<edge from-layer="0" from-port="0" to-layer="140" to-port="0"/>
		<edge from-layer="1" from-port="0" to-layer="122" to-port="0"/>
		<edge from-layer="2" from-port="0" to-layer="139" to-port="0"/>
		<edge from-layer="3" from-port="0" to-layer="104" to-port="0"/>
		<edge from-layer="4" from-port="0" to-layer="9" to-port="0"/>
		<edge from-layer="5" from-port="0" to-layer="6" to-port="0"/>
		<edge from-layer="6" from-port="1" to-layer="243" to-port="0"/>
		<edge from-layer="7" from-port="0" to-layer="8" to-port="0"/>
		<edge from-layer="8" from-port="1" to-layer="9" to-port="1"/>
		<edge from-layer="9" from-port="2" to-layer="12" to-port="0"/>
		<edge from-layer="10" from-port="0" to-layer="11" to-port="0"/>
		<edge from-layer="11" from-port="1" to-layer="12" to-port="1"/>
		<edge from-layer="12" from-port="2" to-layer="15" to-port="0"/>
		<edge from-layer="13" from-port="0" to-layer="14" to-port="0"/>
		<edge from-layer="14" from-port="1" to-layer="15" to-port="1"/>
		<edge from-layer="15" from-port="2" to-layer="18" to-port="0"/>
		<edge from-layer="16" from-port="0" to-layer="17" to-port="0"/>
		<edge from-layer="17" from-port="1" to-layer="18" to-port="1"/>
		<edge from-layer="18" from-port="2" to-layer="19" to-port="0"/>
		<edge from-layer="19" from-port="1" to-layer="22" to-port="0"/>
		<edge from-layer="20" from-port="0" to-layer="21" to-port="0"/>
		<edge from-layer="21" from-port="1" to-layer="22" to-port="1"/>
		<edge from-layer="22" from-port="2" to-layer="25" to-port="0"/>
		<edge from-layer="23" from-port="0" to-layer="24" to-port="0"/>
		<edge from-layer="24" from-port="1" to-layer="25" to-port="1"/>
		<edge from-layer="25" from-port="2" to-layer="26" to-port="0"/>
		<edge from-layer="26" from-port="1" to-layer="29" to-port="0"/>
		<edge from-layer="27" from-port="0" to-layer="28" to-port="0"/>
		<edge from-layer="28" from-port="1" to-layer="29" to-port="1"/>
		<edge from-layer="29" from-port="2" to-layer="32" to-port="0"/>
		<edge from-layer="30" from-port="0" to-layer="31" to-port="0"/>
		<edge from-layer="31" from-port="1" to-layer="32" to-port="1"/>
		<edge from-layer="32" from-port="2" to-layer="33" to-port="0"/>
		<edge from-layer="33" from-port="1" to-layer="36" to-port="0"/>
		<edge from-layer="34" from-port="0" to-layer="35" to-port="0"/>
		<edge from-layer="35" from-port="1" to-layer="36" to-port="1"/>
		<edge from-layer="36" from-port="2" to-layer="39" to-port="0"/>
		<edge from-layer="37" from-port="0" to-layer="38" to-port="0"/>
		<edge from-layer="38" from-port="1" to-layer="39" to-port="1"/>
		<edge from-layer="39" from-port="2" to-layer="40" to-port="0"/>
		<edge from-layer="40" from-port="1" to-layer="43" to-port="0"/>
		<edge from-layer="41" from-port="0" to-layer="42" to-port="0"/>
		<edge from-layer="42" from-port="1" to-layer="43" to-port="1"/>
		<edge from-layer="43" from-port="2" to-layer="46" to-port="0"/>
		<edge from-layer="44" from-port="0" to-layer="45" to-port="0"/>
		<edge from-layer="45" from-port="1" to-layer="46" to-port="1"/>
		<edge from-layer="46" from-port="2" to-layer="47" to-port="0"/>
		<edge from-layer="47" from-port="1" to-layer="50" to-port="0"/>
		<edge from-layer="48" from-port="0" to-layer="49" to-port="0"/>
		<edge from-layer="49" from-port="1" to-layer="50" to-port="1"/>
		<edge from-layer="50" from-port="2" to-layer="53" to-port="0"/>
		<edge from-layer="51" from-port="0" to-layer="52" to-port="0"/>
		<edge from-layer="52" from-port="1" to-layer="53" to-port="1"/>
		<edge from-layer="53" from-port="2" to-layer="54" to-port="0"/>
		<edge from-layer="54" from-port="1" to-layer="57" to-port="0"/>
		<edge from-layer="55" from-port="0" to-layer="56" to-port="0"/>
		<edge from-layer="56" from-port="1" to-layer="57" to-port="1"/>
		<edge from-layer="57" from-port="2" to-layer="60" to-port="0"/>
		<edge from-layer="58" from-port="0" to-layer="59" to-port="0"/>
		<edge from-layer="59" from-port="1" to-layer="60" to-port="1"/>
		<edge from-layer="60" from-port="2" to-layer="61" to-port="0"/>
		<edge from-layer="61" from-port="1" to-layer="64" to-port="0"/>
		<edge from-layer="62" from-port="0" to-layer="63" to-port="0"/>
		<edge from-layer="63" from-port="1" to-layer="64" to-port="1"/>
		<edge from-layer="64" from-port="2" to-layer="67" to-port="0"/>
		<edge from-layer="65" from-port="0" to-layer="66" to-port="0"/>
		<edge from-layer="66" from-port="1" to-layer="67" to-port="1"/>
		<edge from-layer="67" from-port="2" to-layer="68" to-port="0"/>
		<edge from-layer="68" from-port="1" to-layer="71" to-port="0"/>
		<edge from-layer="69" from-port="0" to-layer="70" to-port="0"/>
		<edge from-layer="70" from-port="1" to-layer="71" to-port="1"/>
		<edge from-layer="71" from-port="2" to-layer="74" to-port="0"/>
		<edge from-layer="72" from-port="0" to-layer="73" to-port="0"/>
		<edge from-layer="73" from-port="1" to-layer="74" to-port="1"/>
		<edge from-layer="74" from-port="2" to-layer="75" to-port="0"/>
		<edge from-layer="75" from-port="1" to-layer="78" to-port="0"/>
		<edge from-layer="76" from-port="0" to-layer="77" to-port="0"/>
		<edge from-layer="77" from-port="1" to-layer="78" to-port="1"/>
		<edge from-layer="78" from-port="2" to-layer="81" to-port="0"/>
		<edge from-layer="79" from-port="0" to-layer="80" to-port="0"/>
		<edge from-layer="80" from-port="1" to-layer="81" to-port="1"/>
		<edge from-layer="81" from-port="2" to-layer="82" to-port="0"/>
		<edge from-layer="82" from-port="1" to-layer="85" to-port="0"/>
		<edge from-layer="83" from-port="0" to-layer="84" to-port="0"/>
		<edge from-layer="84" from-port="1" to-layer="85" to-port="1"/>
		<edge from-layer="85" from-port="2" to-layer="88" to-port="0"/>
		<edge from-layer="86" from-port="0" to-layer="87" to-port="0"/>
		<edge from-layer="87" from-port="1" to-layer="88" to-port="1"/>
		<edge from-layer="88" from-port="2" to-layer="89" to-port="0"/>
		<edge from-layer="89" from-port="1" to-layer="92" to-port="0"/>
		<edge from-layer="90" from-port="0" to-layer="91" to-port="0"/>
		<edge from-layer="91" from-port="1" to-layer="92" to-port="1"/>
		<edge from-layer="92" from-port="2" to-layer="95" to-port="0"/>
		<edge from-layer="93" from-port="0" to-layer="94" to-port="0"/>
		<edge from-layer="94" from-port="1" to-layer="95" to-port="1"/>
		<edge from-layer="95" from-port="2" to-layer="97" to-port="0"/>
		<edge from-layer="96" from-port="0" to-layer="97" to-port="1"/>
		<edge from-layer="97" from-port="2" to-layer="99" to-port="0"/>
		<edge from-layer="98" from-port="0" to-layer="99" to-port="1"/>
		<edge from-layer="99" from-port="2" to-layer="139" to-port="1"/>
		<edge from-layer="99" from-port="2" to-layer="102" to-port="0"/>
		<edge from-layer="100" from-port="0" to-layer="101" to-port="0"/>
		<edge from-layer="101" from-port="1" to-layer="102" to-port="1"/>
		<edge from-layer="101" from-port="1" to-layer="140" to-port="1"/>
		<edge from-layer="102" from-port="2" to-layer="131" to-port="0"/>
		<edge from-layer="102" from-port="2" to-layer="179" to-port="0"/>
		<edge from-layer="103" from-port="0" to-layer="104" to-port="1"/>
		<edge from-layer="104" from-port="2" to-layer="106" to-port="0"/>
		<edge from-layer="105" from-port="0" to-layer="106" to-port="1"/>
		<edge from-layer="106" from-port="2" to-layer="107" to-port="0"/>
		<edge from-layer="107" from-port="1" to-layer="110" to-port="0"/>
		<edge from-layer="107" from-port="1" to-layer="115" to-port="0"/>
		<edge from-layer="108" from-port="0" to-layer="115" to-port="1"/>
		<edge from-layer="109" from-port="0" to-layer="112" to-port="0"/>
		<edge from-layer="110" from-port="1" to-layer="111" to-port="0"/>
		<edge from-layer="111" from-port="1" to-layer="112" to-port="1"/>
		<edge from-layer="112" from-port="2" to-layer="114" to-port="0"/>
		<edge from-layer="113" from-port="0" to-layer="114" to-port="1"/>
		<edge from-layer="114" from-port="2" to-layer="115" to-port="2"/>
		<edge from-layer="115" from-port="3" to-layer="116" to-port="0"/>
		<edge from-layer="116" from-port="1" to-layer="119" to-port="0"/>
		<edge from-layer="117" from-port="0" to-layer="239" to-port="1"/>
		<edge from-layer="117" from-port="0" to-layer="119" to-port="1"/>
		<edge from-layer="118" from-port="0" to-layer="119" to-port="2"/>
		<edge from-layer="119" from-port="3" to-layer="121" to-port="0"/>
		<edge from-layer="120" from-port="0" to-layer="121" to-port="1"/>
		<edge from-layer="121" from-port="2" to-layer="122" to-port="1"/>
		<edge from-layer="122" from-port="2" to-layer="124" to-port="0"/>
		<edge from-layer="123" from-port="0" to-layer="124" to-port="1"/>
		<edge from-layer="124" from-port="2" to-layer="126" to-port="0"/>
		<edge from-layer="125" from-port="0" to-layer="126" to-port="1"/>
		<edge from-layer="126" from-port="2" to-layer="155" to-port="0"/>
		<edge from-layer="127" from-port="0" to-layer="128" to-port="0"/>
		<edge from-layer="128" from-port="1" to-layer="155" to-port="1"/>
		<edge from-layer="129" from-port="0" to-layer="130" to-port="0"/>
		<edge from-layer="130" from-port="1" to-layer="131" to-port="1"/>
		<edge from-layer="131" from-port="2" to-layer="134" to-port="0"/>
		<edge from-layer="132" from-port="0" to-layer="133" to-port="0"/>
		<edge from-layer="133" from-port="1" to-layer="134" to-port="1"/>
		<edge from-layer="134" from-port="2" to-layer="136" to-port="0"/>
		<edge from-layer="135" from-port="0" to-layer="136" to-port="1"/>
		<edge from-layer="136" from-port="2" to-layer="138" to-port="0"/>
		<edge from-layer="137" from-port="0" to-layer="138" to-port="1"/>
		<edge from-layer="138" from-port="2" to-layer="152" to-port="0"/>
		<edge from-layer="139" from-port="2" to-layer="141" to-port="0"/>
		<edge from-layer="139" from-port="2" to-layer="161" to-port="0"/>
		<edge from-layer="140" from-port="2" to-layer="141" to-port="1"/>
		<edge from-layer="141" from-port="2" to-layer="144" to-port="0"/>
		<edge from-layer="142" from-port="0" to-layer="143" to-port="0"/>
		<edge from-layer="143" from-port="1" to-layer="144" to-port="1"/>
		<edge from-layer="144" from-port="2" to-layer="147" to-port="0"/>
		<edge from-layer="145" from-port="0" to-layer="146" to-port="0"/>
		<edge from-layer="146" from-port="1" to-layer="147" to-port="1"/>
		<edge from-layer="147" from-port="2" to-layer="149" to-port="0"/>
		<edge from-layer="148" from-port="0" to-layer="149" to-port="1"/>
		<edge from-layer="148" from-port="0" to-layer="165" to-port="1"/>
		<edge from-layer="149" from-port="2" to-layer="151" to-port="0"/>
		<edge from-layer="150" from-port="0" to-layer="151" to-port="1"/>
		<edge from-layer="151" from-port="2" to-layer="152" to-port="1"/>
		<edge from-layer="152" from-port="2" to-layer="154" to-port="0"/>
		<edge from-layer="153" from-port="0" to-layer="154" to-port="1"/>
		<edge from-layer="154" from-port="2" to-layer="155" to-port="2"/>
		<edge from-layer="155" from-port="3" to-layer="157" to-port="0"/>
		<edge from-layer="156" from-port="0" to-layer="157" to-port="1"/>
		<edge from-layer="157" from-port="2" to-layer="158" to-port="0"/>
		<edge from-layer="158" from-port="1" to-layer="168" to-port="0"/>
		<edge from-layer="159" from-port="0" to-layer="160" to-port="0"/>
		<edge from-layer="160" from-port="1" to-layer="161" to-port="1"/>
		<edge from-layer="161" from-port="2" to-layer="164" to-port="0"/>
		<edge from-layer="162" from-port="0" to-layer="163" to-port="0"/>
		<edge from-layer="163" from-port="1" to-layer="164" to-port="1"/>
		<edge from-layer="164" from-port="2" to-layer="165" to-port="0"/>
		<edge from-layer="165" from-port="2" to-layer="167" to-port="0"/>
		<edge from-layer="166" from-port="0" to-layer="167" to-port="1"/>
		<edge from-layer="167" from-port="2" to-layer="168" to-port="1"/>
		<edge from-layer="168" from-port="2" to-layer="170" to-port="0"/>
		<edge from-layer="169" from-port="0" to-layer="170" to-port="1"/>
		<edge from-layer="170" from-port="2" to-layer="172" to-port="0"/>
		<edge from-layer="171" from-port="0" to-layer="172" to-port="1"/>
		<edge from-layer="172" from-port="2" to-layer="175" to-port="0"/>
		<edge from-layer="173" from-port="0" to-layer="174" to-port="0"/>
		<edge from-layer="174" from-port="1" to-layer="175" to-port="1"/>
		<edge from-layer="175" from-port="2" to-layer="178" to-port="0"/>
		<edge from-layer="176" from-port="0" to-layer="177" to-port="0"/>
		<edge from-layer="177" from-port="1" to-layer="178" to-port="1"/>
		<edge from-layer="178" from-port="2" to-layer="179" to-port="1"/>
		<edge from-layer="179" from-port="2" to-layer="181" to-port="0"/>
		<edge from-layer="180" from-port="0" to-layer="181" to-port="1"/>
		<edge from-layer="181" from-port="2" to-layer="184" to-port="0"/>
		<edge from-layer="182" from-port="0" to-layer="183" to-port="0"/>
		<edge from-layer="183" from-port="1" to-layer="184" to-port="1"/>
		<edge from-layer="184" from-port="2" to-layer="187" to-port="0"/>
		<edge from-layer="185" from-port="0" to-layer="186" to-port="0"/>
		<edge from-layer="186" from-port="1" to-layer="187" to-port="1"/>
		<edge from-layer="187" from-port="2" to-layer="190" to-port="0"/>
		<edge from-layer="187" from-port="2" to-layer="201" to-port="0"/>
		<edge from-layer="188" from-port="0" to-layer="189" to-port="0"/>
		<edge from-layer="189" from-port="1" to-layer="190" to-port="1"/>
		<edge from-layer="190" from-port="2" to-layer="193" to-port="0"/>
		<edge from-layer="191" from-port="0" to-layer="192" to-port="0"/>
		<edge from-layer="192" from-port="1" to-layer="193" to-port="1"/>
		<edge from-layer="193" from-port="2" to-layer="194" to-port="0"/>
		<edge from-layer="194" from-port="1" to-layer="197" to-port="0"/>
		<edge from-layer="195" from-port="0" to-layer="196" to-port="0"/>
		<edge from-layer="196" from-port="1" to-layer="197" to-port="1"/>
		<edge from-layer="197" from-port="2" to-layer="200" to-port="0"/>
		<edge from-layer="198" from-port="0" to-layer="199" to-port="0"/>
		<edge from-layer="199" from-port="1" to-layer="200" to-port="1"/>
		<edge from-layer="200" from-port="2" to-layer="201" to-port="1"/>
		<edge from-layer="201" from-port="2" to-layer="203" to-port="0"/>
		<edge from-layer="202" from-port="0" to-layer="203" to-port="1"/>
		<edge from-layer="203" from-port="2" to-layer="206" to-port="0"/>
		<edge from-layer="204" from-port="0" to-layer="205" to-port="0"/>
		<edge from-layer="205" from-port="1" to-layer="206" to-port="1"/>
		<edge from-layer="206" from-port="2" to-layer="209" to-port="0"/>
		<edge from-layer="207" from-port="0" to-layer="208" to-port="0"/>
		<edge from-layer="208" from-port="1" to-layer="209" to-port="1"/>
		<edge from-layer="209" from-port="2" to-layer="213" to-port="0"/>
		<edge from-layer="210" from-port="0" to-layer="213" to-port="1"/>
		<edge from-layer="211" from-port="0" to-layer="213" to-port="2"/>
		<edge from-layer="212" from-port="0" to-layer="213" to-port="3"/>
		<edge from-layer="213" from-port="4" to-layer="215" to-port="0"/>
		<edge from-layer="214" from-port="0" to-layer="215" to-port="1"/>
		<edge from-layer="215" from-port="2" to-layer="217" to-port="0"/>
		<edge from-layer="216" from-port="0" to-layer="217" to-port="1"/>
		<edge from-layer="217" from-port="2" to-layer="220" to-port="0"/>
		<edge from-layer="218" from-port="0" to-layer="219" to-port="0"/>
		<edge from-layer="219" from-port="1" to-layer="220" to-port="1"/>
		<edge from-layer="220" from-port="2" to-layer="223" to-port="0"/>
		<edge from-layer="221" from-port="0" to-layer="222" to-port="0"/>
		<edge from-layer="222" from-port="1" to-layer="223" to-port="1"/>
		<edge from-layer="223" from-port="2" to-layer="224" to-port="0"/>
		<edge from-layer="224" from-port="1" to-layer="227" to-port="0"/>
		<edge from-layer="225" from-port="0" to-layer="226" to-port="0"/>
		<edge from-layer="226" from-port="1" to-layer="227" to-port="1"/>
		<edge from-layer="227" from-port="2" to-layer="230" to-port="0"/>
		<edge from-layer="228" from-port="0" to-layer="229" to-port="0"/>
		<edge from-layer="229" from-port="1" to-layer="230" to-port="1"/>
		<edge from-layer="230" from-port="2" to-layer="231" to-port="0"/>
		<edge from-layer="231" from-port="1" to-layer="234" to-port="0"/>
		<edge from-layer="232" from-port="0" to-layer="233" to-port="0"/>
		<edge from-layer="233" from-port="1" to-layer="234" to-port="1"/>
		<edge from-layer="234" from-port="2" to-layer="237" to-port="0"/>
		<edge from-layer="235" from-port="0" to-layer="236" to-port="0"/>
		<edge from-layer="236" from-port="1" to-layer="237" to-port="1"/>
		<edge from-layer="237" from-port="2" to-layer="255" to-port="0"/>
		<edge from-layer="237" from-port="2" to-layer="239" to-port="0"/>
		<edge from-layer="238" from-port="0" to-layer="239" to-port="2"/>
		<edge from-layer="239" from-port="3" to-layer="241" to-port="0"/>
		<edge from-layer="240" from-port="0" to-layer="256" to-port="1"/>
		<edge from-layer="240" from-port="0" to-layer="241" to-port="1"/>
		<edge from-layer="241" from-port="2" to-layer="242" to-port="0"/>
		<edge from-layer="242" from-port="1" to-layer="243" to-port="1"/>
		<edge from-layer="242" from-port="1" to-layer="248" to-port="1"/>
		<edge from-layer="243" from-port="2" to-layer="245" to-port="0"/>
		<edge from-layer="244" from-port="0" to-layer="245" to-port="1"/>
		<edge from-layer="245" from-port="2" to-layer="266" to-port="0"/>
		<edge from-layer="246" from-port="0" to-layer="247" to-port="0"/>
		<edge from-layer="247" from-port="1" to-layer="248" to-port="0"/>
		<edge from-layer="248" from-port="2" to-layer="250" to-port="0"/>
		<edge from-layer="249" from-port="0" to-layer="250" to-port="1"/>
		<edge from-layer="250" from-port="2" to-layer="266" to-port="1"/>
		<edge from-layer="251" from-port="0" to-layer="252" to-port="0"/>
		<edge from-layer="252" from-port="1" to-layer="258" to-port="0"/>
		<edge from-layer="253" from-port="0" to-layer="255" to-port="1"/>
		<edge from-layer="254" from-port="0" to-layer="255" to-port="2"/>
		<edge from-layer="255" from-port="3" to-layer="256" to-port="0"/>
		<edge from-layer="256" from-port="2" to-layer="257" to-port="0"/>
		<edge from-layer="257" from-port="1" to-layer="258" to-port="1"/>
		<edge from-layer="257" from-port="1" to-layer="263" to-port="1"/>
		<edge from-layer="258" from-port="2" to-layer="260" to-port="0"/>
		<edge from-layer="259" from-port="0" to-layer="260" to-port="1"/>
		<edge from-layer="260" from-port="2" to-layer="266" to-port="2"/>
		<edge from-layer="261" from-port="0" to-layer="262" to-port="0"/>
		<edge from-layer="262" from-port="1" to-layer="263" to-port="0"/>
		<edge from-layer="263" from-port="2" to-layer="265" to-port="0"/>
		<edge from-layer="264" from-port="0" to-layer="265" to-port="1"/>
		<edge from-layer="265" from-port="2" to-layer="266" to-port="3"/>
		<edge from-layer="266" from-port="4" to-layer="269" to-port="0"/>
		<edge from-layer="267" from-port="0" to-layer="268" to-port="0"/>
		<edge from-layer="268" from-port="1" to-layer="269" to-port="1"/>
		<edge from-layer="269" from-port="2" to-layer="272" to-port="0"/>
		<edge from-layer="270" from-port="0" to-layer="272" to-port="1"/>
		<edge from-layer="271" from-port="0" to-layer="272" to-port="2"/>
		<edge from-layer="272" from-port="3" to-layer="274" to-port="0"/>
		<edge from-layer="272" from-port="6" to-layer="286" to-port="0"/>
		<edge from-layer="272" from-port="4" to-layer="284" to-port="0"/>
		<edge from-layer="272" from-port="5" to-layer="276" to-port="0"/>
		<edge from-layer="273" from-port="0" to-layer="274" to-port="1"/>
		<edge from-layer="274" from-port="2" to-layer="293" to-port="1"/>
		<edge from-layer="274" from-port="2" to-layer="277" to-port="0"/>
		<edge from-layer="275" from-port="0" to-layer="276" to-port="1"/>
		<edge from-layer="276" from-port="2" to-layer="293" to-port="0"/>
		<edge from-layer="276" from-port="2" to-layer="277" to-port="1"/>
		<edge from-layer="277" from-port="2" to-layer="280" to-port="0"/>
		<edge from-layer="278" from-port="0" to-layer="279" to-port="0"/>
		<edge from-layer="279" from-port="1" to-layer="280" to-port="1"/>
		<edge from-layer="280" from-port="2" to-layer="282" to-port="0"/>
		<edge from-layer="281" from-port="0" to-layer="282" to-port="1"/>
		<edge from-layer="282" from-port="2" to-layer="299" to-port="0"/>
		<edge from-layer="283" from-port="0" to-layer="284" to-port="1"/>
		<edge from-layer="284" from-port="2" to-layer="287" to-port="0"/>
		<edge from-layer="284" from-port="2" to-layer="296" to-port="1"/>
		<edge from-layer="285" from-port="0" to-layer="286" to-port="1"/>
		<edge from-layer="286" from-port="2" to-layer="287" to-port="1"/>
		<edge from-layer="286" from-port="2" to-layer="296" to-port="0"/>
		<edge from-layer="287" from-port="2" to-layer="290" to-port="0"/>
		<edge from-layer="288" from-port="0" to-layer="289" to-port="0"/>
		<edge from-layer="289" from-port="1" to-layer="290" to-port="1"/>
		<edge from-layer="290" from-port="2" to-layer="292" to-port="0"/>
		<edge from-layer="291" from-port="0" to-layer="292" to-port="1"/>
		<edge from-layer="292" from-port="2" to-layer="299" to-port="1"/>
		<edge from-layer="293" from-port="2" to-layer="295" to-port="0"/>
		<edge from-layer="294" from-port="0" to-layer="295" to-port="1"/>
		<edge from-layer="295" from-port="2" to-layer="299" to-port="2"/>
		<edge from-layer="296" from-port="2" to-layer="298" to-port="0"/>
		<edge from-layer="297" from-port="0" to-layer="298" to-port="1"/>
		<edge from-layer="298" from-port="2" to-layer="299" to-port="3"/>
		<edge from-layer="299" from-port="4" to-layer="300" to-port="0"/>
	</edges>
	<meta_data>
		<MO_version value="2022.2.0-7713-af16ea1d79a-releases/2022/2"/>
		<Runtime_version value="2022.2.0-7713-af16ea1d79a-releases/2022/2"/>
		<legacy_path value="False"/>
		<cli_parameters>
			<caffe_parser_path value="DIR"/>
			<compress_fp16 value="True"/>
			<data_type value="FP32"/>
			<disable_nhwc_to_nchw value="False"/>
			<disable_omitting_optional value="False"/>
			<disable_resnet_optimization value="False"/>
			<disable_weights_compression value="False"/>
			<enable_concat_optimization value="False"/>
			<enable_flattening_nested_params value="False"/>
			<enable_ssd_gluoncv value="False"/>
			<extensions value="DIR"/>
			<framework value="onnx"/>
			<freeze_placeholder_with_value value="{}"/>
			<input value="img_x,mask_x,feat_z,mask_z,pos_z"/>
			<input_model value="DIR/complete_sim.onnx"/>
			<input_model_is_text value="False"/>
			<input_shape value="[1,3,320,320],[320,320],[64,1,128],[1,64],[64,1,128]"/>
			<k value="DIR/CustomLayersMapping.xml"/>
			<layout value="()"/>
			<layout_values value="{}"/>
			<legacy_mxnet_model value="False"/>
			<log_level value="DEBUG"/>
			<mean_scale_values value="{}"/>
			<mean_values value="()"/>
			<model_name value="complete_sim"/>
			<output value="['outputs_coord']"/>
			<output_dir value="DIR"/>
			<placeholder_data_types value="{}"/>
			<placeholder_shapes value="{'img_x': (1, 3, 320, 320), 'mask_x': (320, 320), 'feat_z': (64, 1, 128), 'mask_z': (1, 64), 'pos_z': (64, 1, 128)}"/>
			<progress value="False"/>
			<remove_memory value="False"/>
			<remove_output_softmax value="False"/>
			<reverse_input_channels value="False"/>
			<save_params_from_nd value="False"/>
			<scale_values value="()"/>
			<silent value="False"/>
			<source_layout value="()"/>
			<static_shape value="False"/>
			<stream_output value="False"/>
			<target_layout value="()"/>
			<transform value=""/>
			<use_legacy_frontend value="False"/>
			<use_new_frontend value="False"/>
			<unset unset_cli_parameters="batch, counts, disable_fusing, finegrain_fusing, input_checkpoint, input_meta_graph, input_proto, input_symbol, mean_file, mean_file_offsets, nd_prefix_name, pretrained_model_name, saved_model_dir, saved_model_tags, scale, tensorboard_logdir, tensorflow_custom_layer_libraries, tensorflow_custom_operations_config_update, tensorflow_object_detection_api_pipeline_config, tensorflow_use_custom_operations_config, transformations_config"/>
		</cli_parameters>
	</meta_data>
</net>
